models/dqn_gridword_classification.pth (torch, 72965 bytes, 6 tensors)

fc1.weight f4 [128, 2]
0.009686744 -0.39516592 0.11671129 -0.08948238 0.73591596 0.878828 -0.7994629 -0.6898872
-0.060408276 -0.79204524 0.51200056 -0.48108438 0.13036363 -0.11446664 0.047804672 -0.24733922
0.011949474 -0.034751173 -0.3909617 0.022410823 -0.12698995 -0.88271946 -0.49220818 0.88967276
0.28321332 0.06903713 -0.28099543 0.41183504 0.33032468 -0.23649392 0.15735826 -0.57266235
-0.3972524 0.9095106 -0.5069074 0.92371285 0.26799184 -0.10971843 -0.7709453 0.053673133
-0.073576376 0.74247956 -0.047960963 0.02204556 0.69758874 0.47962403 0.027580017 0.43508673
0.7369442 0.80293894 -0.2776259 -0.51059186 0.019353174 0.04476684 0.37251306 -0.34148568
0.424117 0.43696916 0.88514054 0.4269094 0.038436525 0.28068036 -0.26419947 -0.43730614
0.00041808834 -0.012011843 0.35297602 0.2645333 -0.5787702 0.6513018 0.2416781 0.7793027
0.3396878 0.3109224 -0.034313284 0.6767494 -0.4430213 -0.7640668 -0.444674 0.40175456
-0.7226059 0.5590748 0.29551277 -0.3233297 0.4146589 -0.15189579 -0.020285826 -0.017150737
0.08379893 0.9419482 0.91372114 -0.19720313 -0.23024759 0.4790148 -0.060061954 0.1460116
0.3694669 -0.38197914 -0.1762797 -0.03724812 0.33906797 -0.3598177 0.037338715 -0.34950516
-0.48988503 1.0129641 0.22552443 -0.8524866 -0.47194842 -1.3154421 0.05701556 -0.21716173
-0.014936279 0.15682107 0.28283784 1.072589 -0.4071529 0.11423148 0.919971 0.043588217
0.0687594 0.28273678 -0.5436048 0.31079498 -0.35106382 -0.34579536 1.1813763 0.39871654
-0.54550225 0.24082693 0.4712346 1.0150785 -0.4621822 -0.56523913 -0.041180253 -0.019339334
-0.007614966 -0.010040109 1.0833641 0.80912274 -0.016916534 -0.012781385 -0.26804155 -0.047666013
0.17275806 -0.02240344 0.3831849 -0.6290316 0.18688135 -0.5914754 0.8445903 -0.31506482
0.40963414 -0.58985996 -0.48178142 0.4178975 0.78163064 0.14663717 0.052684356 -0.29488456
0.53059584 0.8050595 -0.3411881 -0.0026972594 0.037151508 -0.08357668 0.43920815 0.027828092
0.008009036 0.017146531 0.22782618 0.75575936 -0.60591716 -1.2434249 -0.76307935 0.3462579
-0.018546589 0.6333237 -0.004683689 -0.04401462 0.1570982 0.18212487 0.9493202 -0.07898667
0.005014949 -0.10679828 0.11769625 0.25647157 -0.10896129 -0.82212794 0.59731483 0.28444085
0.20204785 -0.21975265 0.7355204 -0.016903251 0.060695756 -0.22745411 -0.22831358 0.71976954
0.07884839 0.15027404 0.30032682 -0.53298616 -0.66403633 -0.027522873 0.032044362 -0.5733197
0.22693953 0.016451685 0.030667614 -0.08217737 -0.38625887 0.120999776 1.0999588 0.4210873
-0.38792282 0.7223924 -0.24891609 -0.43921635 0.42823157 0.57496864 -0.047751497 -0.10848834
-0.73972535 0.4844764 0.6182125 0.6041064 0.71215826 0.64566845 -0.053683873 0.16363345
-0.39696032 -0.40120253 -0.29492253 -0.40144038 0.16068229 0.010146099 -0.025673535 0.06159823
0.060128912 -0.15763867 -0.022250596 -0.24920166 0.26979995 0.23730981 0.016088014 0.97773457
-0.6034708 -0.6307202 -0.24533114 -0.011413112 0.070874676 0.1940162 -0.28803256 0.002180411
00000000: 26b5 1e3c 3053 cabe 5406 ef3d 8a42 b7bd
00000010: fd64 3c3f dffa 603f 9aa9 4cbf 739c 30bf
00000020: ab6e 77bd 7ac3 4abf 7812 033f b150 f6be
00000030: 0b7e 053e 7c6d eabd d5ce 433d 7e46 7dbe
00000040: bac7 433c 3f57 0ebd 222c c8be e796 b73c
00000050: a709 02be e7f9 61bf b602 fcbe 98c1 633f
00000060: 5601 913e 5763 8d3d a2de 8fbe 0bdc d23e
00000070: 5120 a93e 762b 72be 8622 213e 009a 12bf
00000080: ab64 cbbe b0d5 683f afc4 01bf 7278 6c3f
00000090: 3a36 893e 0eb4 e0bd ac5c 45bf 5cd8 5b3d
000000a0: 36af 96bd 2413 3e3f b772 44bd e498 b43c
000000b0: 2d95 323f 4891 f53e 7def e13c b0c3 de3e
000000c0: 60a8 3c3f 688d 4d3f fb24 8ebe 26b6 02bf
000000d0: 8c8a 9e3c 6f5d 373d 08ba be3e 36d7 aebe
000000e0: dd25 d93e 6cba df3e 9298 623f de93 da3e
000000f0: 9e6f 1d3d 56b5 8f3e 2745 87be 97e6 dfbe
00000100: de32 db39 52cd 44bc 46b9 b43e e970 873e
00000110: 492a 14bf b7bb 263f 777a 773e 6280 473f
00000120: 8feb ad3e 3931 9f3e 168c 0cbd 733f 2d3f
00000130: b0d3 e2be e299 43bf 4fac e3be c6b2 cd3e
00000140: b3fc 38bf 871f 0f3f 734d 973e 788b a5be
00000150: 2c4e d43e 928a 1bbe 762e a6bc b47f 8cbc
00000160: c69e ab3d 8423 713f a1e9 693f 9eef 49be
00000170: 06c6 6bbe 6e41 f53e 8603 76bd 1184 153e
00000180: c42a bd3e c592 c3be aa82 34be 7c91 18bd
00000190: 519a ad3e 073a b8be 7bf0 183d 57f2 b2be
000001a0: 36d2 fabe cfa8 813f e0ef 663e 903c 5abf
000001b0: 39a3 f1be 6860 a8bf 2689 693d a55f 5ebe
000001c0: 4bb7 74bc b495 203e 1fd0 903e 994a 893f
000001d0: 5876 d0be 32f2 e93d 3883 6b3f 8f89 323d
000001e0: bad1 8c3d e0c2 903e af29 0bbf 8520 9f3e
000001f0: a3be b3be 170c b1be 5737 973f 9324 cc3e
00000200: 09a6 0bbf 569b 763e a945 f13e 18ee 813f
00000210: 25a3 ecbe 83b3 10bf a0ac 28bd 866d 9ebc
00000220: f786 f9bb 457f 24bc adab 8a3f ab22 4f3f
00000230: 8b94 8abc 0469 51bc be3c 89be 703d 43bd
00000240: 7de7 303e 6b87 b7bc d030 c43e 3708 21bf
00000250: d35d 3f3e ef6a 17bf 1237 583f 2d50 a1be
00000260: 91bb d13e 1001 17bf 0eac f6be a9f6 d53e
00000270: f218 483f 0e28 163e 8dcb 573d 1cfb 96be
00000280: 21d5 073f 6118 4e3f 35b0 aebe 81c4 30bb
00000290: 2e2c 183d 402a abbd e4df e03e bdf7 e33c
000002a0: 5538 033c e276 8c3c 444b 693e 7279 413f
000002b0: 631d 1bbf 8c28 9fbf 2b59 43bf b748 b13e
000002c0: 04ef 97bc 8121 223f a279 99bb ad48 34bd
000002d0: 5ade 203e f17e 3a3e a606 733f c3c3 a1bd
000002e0: 7154 a43b 0eb9 dabd bb0a f13d 3e50 833e
000002f0: 1927 dfbd fa76 52bf a0e9 183f 3ba2 913e
00000300: a2e5 4e3e d706 61be 114b 3c3f b078 8abc
00000310: 1d9c 783d bbe9 68be 09cb 69be d142 383f
00000320: 447b a13d 70e1 193e 70c4 993e c871 08bf
00000330: 49fe 29bf a677 e1bc f340 033d 14c5 12bf
00000340: d662 683e afc5 863c a63a fb3c 9c4c a8bd
00000350: b9c3 c5be bbce f73d 73cb 8c3f c198 d73e
00000360: d29d c6be b5ee 383f dce3 7ebe f7e0 e0be
00000370: 2b41 db3e 2531 133f 1397 43bd 232f debd
00000380: a45e 3dbf 4a0d f83e 2d43 1e3f b8a6 1a3f
00000390: 0150 363f 874a 253f 9fe3 5bbd 878f 273e
000003a0: 623e cbbe 6b6a cdbe 1600 97be 9889 cdbe
000003b0: e689 243e d33b 263c 4e51 d2bc 6d4e 7c3d
000003c0: bc49 763d 086c 21be e246 b6bc b82e 7fbe
000003d0: 3823 8a3e 5801 733e 03cb 833c d04c 7a3f
000003e0: 107d 1abf e176 21bf 1638 7bbe 10fe 3abc
000003f0: be26 913d 2fac 463e 0179 93be 3ae5 0e3b

fc1.bias f4 [128]
-0.5805812 0.36330593 -0.03911037 0.23338929 -0.6632097 -0.61958283 -0.3600506 -0.43981543
-0.14471357 -0.59281695 -0.9268359 -0.6087567 -0.49189943 0.5063758 -0.3602502 0.25684124
0.61627793 0.028330136 0.5720126 -0.4762286 -0.49314314 -0.101792164 -0.92876154 0.6900765
-0.11100381 0.05619977 -0.09065934 -0.44359216 0.15825637 -0.4481384 -0.48509073 0.42534587
-0.020013228 -0.42815658 -0.6743725 -0.7977831 -0.047088116 0.15448055 -0.9468314 -0.08172238
0.91909397 0.32727683 -0.84482074 -0.05312915 -0.680873 -0.8228768 -0.6320437 -0.60219216
0.85535145 -0.48758686 0.75301194 0.61639935 0.6073743 -0.68993187 -0.48224106 -0.39912814
0.57111186 0.39608094 -0.76952684 -0.71877235 0.82017976 -0.71771336 0.25625014 -0.70168984
-0.5252667 0.21518815 0.2663774 -0.47507507 -0.026972968 -0.36411557 -0.047720887 0.49755216
0.8482334 -0.89434546 0.23337519 -0.8803325 -0.9115466 0.6399611 -0.56133646 -0.00051562104
0.07464938 -0.48786712 -0.18046026 -0.6986435 -0.04401135 -0.76938003 -0.30285624 0.8290971
-0.90009075 -0.07048653 0.63487405 -0.78821033 -0.1612057 -0.5124711 -0.8750749 -0.63935983
-0.6610322 -1.0218464 0.6402623 0.3897466 -0.31636414 0.4511915 -0.81422836 0.44603217
-0.5862098 -0.16498868 -0.6728431 -0.62297887 0.7584881 0.037622146 -0.83785206 -0.22320616
-0.42192808 -0.11686213 -0.72404575 -0.5870733 0.29551354 0.3951158 -0.255417 -0.1346107
-0.3163964 0.41103965 0.5792642 0.558121 0.11433031 -0.3759222 -0.37549356 -0.41574675
00000000: f8a0 14bf 3c03 ba3e 3232 20bd 9afd 6e3e
00000010: 1cc8 29bf fb9c 1ebf 8d58 b8be 7d2f e1be
00000020: cb2f 14be dac2 17bf 1e45 6dbf 7bd7 1bbf
00000030: 3eda fbbe d8a1 013f b772 b8be b280 833e
00000040: 64c4 1d3f 9a14 e83c 6b6f 123f 3cd4 f3be
00000050: 427d fcbe 6978 d0bd 51c3 6dbf daa8 303f
00000060: f755 e3bd bb31 663d 9bab b9bd 831e e3be
00000070: f50d 223e 6572 e5be d05d f8be efc6 d93e
00000080: c8f2 a3bc 5737 dbbe ada3 2cbf 833b 4cbf
00000090: 78df 40bd 2630 1e3e 8b63 72bf 105e a7bd
000000a0: be49 6b3f d490 a73e 2c46 58bf f49d 59bd
000000b0: b14d 2ebf 0ea8 52bf 9ecd 21bf 4429 1abf
000000c0: 50f8 5a3f fca4 f9be 64c5 403f 59cc 1d3f
000000d0: e27c 1b3f 609f 30bf 4de8 f6be 865a ccbe
000000e0: 6334 123f 1fcb ca3e b6ff 44bf 7701 38bf
000000f0: 4df7 513f 10bc 37bf 3833 833e f2a1 33bf
00000100: e177 06bf 485a 5c3e 9e62 883e 0a3d f3be
00000110: 6af6 dcbc 5b6d babe fa76 43bd 28bf fe3e
00000120: d325 593f d3f3 64bf e8f9 6e3e 795d 61bf
00000130: 1e5b 69bf 7ed4 233f bfb3 0fbf be2a 07ba
00000140: c6e1 983d b8c9 f9be 93ca 38be 4dda 32bf
00000150: 3f45 34bd 17f6 44bf f90f 9bbe b53f 543f
00000160: 596c 66bf 3e5b 90bd 1b87 223f 27c8 49bf
00000170: 1b13 25be 4e31 03bf e904 60bf 16ad 23bf
00000180: 6839 29bf ddcb 82bf 3be8 233f de8c c73e
00000190: 7bfa a1be 9302 e73e 4571 50bf 545e e43e
000001a0: d811 16bf cbf2 28be 723f 2cbf 8b7b 1fbf
000001b0: 472c 423f ae19 1a3d 797d 56bf 2890 64be
000001c0: f506 d8be 6a55 efbd 105b 39bf 704a 16bf
000001d0: 8d4d 973e 9e4c ca3e 04c6 82be 63d7 09be
000001e0: b5fe a1be ca73 d23e a94a 143f 05e1 0e3f
000001f0: 0226 ea3d e078 c0be b140 c0be c2dc d4be

fc2.weight f4 [128, 128]
0.008855327 -0.14352624 -0.07301075 0.01862228 -0.054946393 -0.053297725 -0.0083494205 0.06970932
-0.07694491 -0.93033373 0.061278038 0.077353805 -0.16835888 0.00013218581 0.030660124 -0.09788086
0.018707931 -0.021066437 -0.008563406 -0.6930295 0.0448509 -0.027283942 -0.507453 0.054112066
0.042426627 -0.54919654 -0.04522534 0.04542585 -0.076532304 -0.337217 -0.026381152 -0.73471755
-0.013094056 0.063529894 0.016095284 -1.3164895 -0.21387975 -0.0019235522 -0.02468349 0.052736927
-0.0051669627 -0.541312 -0.047178116 0.028726825 -0.077159464 -0.032952167 0.05559158 0.0332212
0.010884833 -0.024333768 -1.1303742 -0.14363204 0.024320569 -0.07694189 0.046323907 -0.05799243
0.0024972067 0.07643268 -1.1548171 -0.21211766 0.027581863 -1.4818776 -1.6534352 -0.0985739
-0.017092172 -0.061874013 -0.119205445 -0.06386588 -0.2750857 -0.68998504 -0.046124056 0.05442701
-0.08010316 0.028860707 0.03324343 -0.011719275 -0.022346595 0.0026892424 -0.16375798 -0.06421314
-0.015996495 -0.6594221 -0.05871041 0.038400542 0.054465745 -0.11990411 -0.14647713 0.022357428
-0.34379226 0.0010017757 -0.05113557 0.020165391 -0.01862153 -0.068211384 0.0015910225 0.058634546
-0.004060533 -0.27186778 0.094539486 0.052514546 0.06494982 -0.18717416 -1.9127392 -0.028650088
0.035890076 -0.04601471 -0.16978388 0.00538835 0.016299516 -1.7518582 -1.1115541 -0.01754019
0.021396099 -0.00870773 -0.5950121 -0.02730119 -1.7235532 -2.026767 -0.31998983 0.04859934
-0.07142151 -0.47341833 0.0028083324 -0.037161835 -1.733245 -1.0007161 0.046889953 -0.633435
-0.04652332 -0.018441638 -0.0044081244 0.030022379 -0.15634497 -0.012580517 0.013991739 -0.07672444
0.05740058 -0.18134576 -0.039219417 -0.15990643 -0.09039495 0.0008899489 0.027337607 -0.06866458
-0.057010528 -0.025441047 0.03182412 -0.28239828 -0.25258467 0.047255408 -0.05985343 -0.044340815
0.10690558 0.10127369 -0.0075191497 -0.0887372 -0.048922587 0.025587885 -0.027699804 -0.07448958
-0.0034921635 -0.05888049 -0.13220437 -0.22163998 -0.050632287 0.058818933 0.027771657 -0.022922
-0.006714986 0.026522772 0.031107396 -0.03392229 -0.2502565 0.019844804 -0.12528889 -0.06471682
-0.05560749 0.031095587 -0.056850392 0.054951828 -0.031787653 -0.24799724 -0.14245334 0.06673289
0.056993335 0.0721555 -0.049805745 -0.1261503 0.07093606 -0.058910184 0.08245465 -0.106558055
0.002238874 0.021879537 -0.033904877 -0.059750576 -0.09921859 -0.030165406 0.023903482 0.05185381
0.046196546 0.03452783 -0.07216778 -0.09343811 -0.007953324 -0.07614744 -0.11652932 -0.10955218
-0.08587555 -0.13096717 0.050768923 -0.031850807 -0.08031697 0.012995477 -0.13026801 -0.009156295
-0.014199141 -0.02811182 0.0020611952 -0.05604966 0.0009879088 0.10115578 -0.0065574995 -0.06617397
-0.033148095 0.05700114 0.0512439 -0.05437823 0.06258469 -0.043626215 -0.3345288 -0.019228453
0.06242748 0.036501724 -0.32709384 -0.06629463 -0.019716308 0.06878028 -0.23271002 -0.09958516
-0.21533696 -0.074486524 -0.05883169 0.048177008 -0.035004105 0.0098911505 0.017788094 -0.04588936
-0.012822007 0.016681815 -0.052588668 0.018888162 -0.0627717 -0.17849228 0.073153794 -0.075252436
00000000: ef15 113c 8bf8 12be a986 95bd c08d 983c
00000010: 780f 61bd b74e 5abd 02cc 08bc c3c3 8e3d
00000020: 4b95 9dbd 5a2a 6ebf aefe 7a3d ac6b 9e3d
00000030: 4566 2cbe 5c9b 0a39 f12a fb3c c375 c8bd
00000040: 6041 993c 8593 acbc 874d 0cbc 626a 31bf
00000050: 94b5 373d 9382 dfbc 71e8 01bf 9da4 5d3d
00000060: 8bc7 2d3d 2598 0cbf 353e 39bd 7510 3a3d
00000070: f8bc 9cbd b5a7 acbe 491d d8bc 7316 3cbf
00000080: 7488 56bc f61b 823d 42da 833c ba82 a8bf
00000090: 4b03 5bbe b41f fcba 0835 cabc ad02 583d
000000a0: a04f a9bb 6c93 0abf d73d 41bd 8554 eb3c
000000b0: c805 9ebd daf8 06bd ffb3 633d f412 083d
000000c0: 4c56 323c 9c57 c7bc 1ab0 90bf 4714 13be
000000d0: ee3b c73c b693 9dbd 23be 3d3d 7889 6dbd
000000e0: 2da8 233b bd88 9c3d 0cd1 93bf 5f35 59be
000000f0: 5cf3 e13c 2aae bdbf c4a3 d3bf 1de1 c9bd
00000100: e204 8cbc 9b6f 7dbd fc21 f4bd 1dcc 82bd
00000110: 08d8 8cbe dca2 30bf 94ec 3cbd dbee 5e3d
00000120: 200d a4bd 4a6d ec3c 432a 083d 3402 40bc
00000130: 3510 b7bc 003e 303b 2cb0 27be 2e82 83bd
00000140: 150b 83bc e3cf 28bf 547a 70bd e349 1d3d
00000150: 7917 5f3d 4990 f5bd 1afe 15be ed26 b73c
00000160: 8a05 b0be 044e 833a 8873 51bd e431 a53c
00000170: 2e8c 98bc 69b2 8bbd db89 d03a c72a 703d
00000180: 380e 85bb 4132 8bbe eb9d c13d 7e19 573d
00000190: 6904 853d 95aa 3fbe a3d4 f4bf 97b3 eabc
000001a0: 7901 133d ec79 3cbd d3db 2dbe c290 b03b
000001b0: 9086 853c e43c e0bf 6847 8ebf 72b0 8fbc
000001c0: df46 af3c deaa 0ebc b752 18bf bfa6 dfbc
000001d0: 649d dcbf 8db6 01c0 b5d5 a3be 1a10 473d
000001e0: 7145 92bd e363 f2be 000c 383b 0237 18bd
000001f0: f9da ddbf 7717 80bf ae0f 403d cc28 22bf
00000200: 3d8f 3ebd eb12 97bc 0772 90bb 7ef1 f53c
00000210: e518 20be 831e 4ebc 9b3d 653c b421 9dbd
00000220: df1c 6b3d b4b2 39be 8aa4 20bd 83be 23be
00000230: fd20 b9bd 764b 693a 1ef3 df3c 04a0 8cbd
00000240: df83 69bd be69 d0bc 025a 023d 8296 90be
00000250: c752 81be e38e 413d df28 75bd b79e 35bd
00000260: 50f1 da3d 9568 cf3d 3363 f6bb d9bb b5bd
00000270: 0d63 48bd af9d d13c b3ea e2bc fe8d 98bd
00000280: c8dc 64bb ab2c 71bd 9560 07be 97f5 62be
00000290: cd63 4fbd 1fec 703d 6381 e33c ebc6 bbbc
000002a0: 6309 dcbb 4946 d93c f0d4 fe3c 19f2 0abd
000002b0: 9f21 80be 9291 a23c bb4b 00be 418a 84bd
000002c0: aec4 63bd 2cbc fe3c f5db 68bd 2b15 613d
000002d0: c533 02bd fdf2 7dbe 4adf 11be 41ab 883d
000002e0: d871 693d 43c6 933d 1c01 4cbd 8b2d 01be
000002f0: ed46 913d ce4b 71bd fcdd a83d 1c3b dabd
00000300: 13ba 123b b73c b33c d7df 0abd 05bd 74bd
00000310: 1e33 cbbd 711d f7bc 3cd1 c33c a964 543d
00000320: 9738 3d3d 0e6d 0d3d b3cc 93bd 7b5c bfbd
00000330: a94e 02bc 30f3 9bbd eda6 eebd e55c e0bd
00000340: 85df afbd 421c 06be 13f3 4f3d fe75 02bd
00000350: 397d a4bd fbea 543c fa64 05be 4904 16bc
00000360: 84a3 68bc c24a e6bc 1e15 073b 5494 65bd
00000370: b87c 813a c32a cf3d 4be0 d6bb 3886 87bd
00000380: 4cc6 07bd 077a 693d 20e5 513d b5bb 5ebd
00000390: 672c 803d 67b1 32bd 5c47 abbe fd84 9dbc
000003a0: f5b3 7f3d d582 153d d878 a7be 7bc5 87bd
000003b0: 1884 a1bc addc 8c3d 894b 6ebe 4ef3 cbbd
000003c0: 4b81 5cbe 648c 98bd 80f9 70bd 4155 453d
000003d0: 7760 0fbd 7e0e 223c 56b8 913c 7bf6 3bbd
000003e0: 6513 52bc 4da8 883c 3767 57bd 59bb 9a3c
000003f0: 738e 80bd aec6 36be a8d1 953d f31d 9abd

fc2.bias f4 [128]
-0.0685688 0.049848605 -0.07312197 -0.03539945 0.04247662 0.07565654 -0.06121446 0.07287211
-0.061916094 0.62241703 -0.05275427 0.0415709 -0.055441096 -0.07129228 0.14560013 -0.027869307
-0.07275009 -0.006301877 0.05029413 0.666209 0.32238805 -0.091715634 0.01370998 0.04012361
-0.049245548 -0.008719906 -0.033023145 0.37014967 0.5143109 -0.1017404 0.039303973 -0.09208024
-0.0049590757 0.021453775 0.12096873 -0.042589158 -0.05381984 -0.040837243 0.15914395 0.110353604
0.022137513 -0.041650202 0.055374824 -0.0056289528 -0.082033455 -0.005689989 -0.101728246 0.68601626
0.17399229 -0.0011434392 0.2640991 0.39052653 -0.039590746 0.094337784 -0.05130264 0.21944495
0.12915593 0.08912088 -0.048586886 -0.03151548 -0.048155334 0.6801359 0.19349626 0.17781618
0.12933645 0.21487212 -0.04233518 0.062096428 0.6533338 -0.043673486 0.055870213 -0.04113409
0.11194818 0.3070541 0.057632186 0.00703029 -0.09834746 0.27441734 0.49932346 -0.04899864
-0.0899026 0.39314187 -0.025369046 0.22153741 -0.03801764 -0.008384855 0.009163463 -0.007341634
-0.05706522 -0.011386171 -0.13965029 -0.07728132 0.14280467 0.6356381 0.050338965 -0.083316684
0.0005355541 0.08696991 -0.093712114 -0.084598556 0.6703891 -0.05392873 0.0045562824 0.026453864
0.05678587 0.1684035 0.010032045 -0.09649743 0.5761742 0.04353259 -0.057712216 0.047384575
-0.12274547 0.20945935 -0.069258265 0.734213 0.21922034 -0.080264404 0.37870345 0.0439802
0.033877604 0.044442933 -0.0027475609 -0.09100742 0.12110017 -0.014925336 -0.021691171 -0.054778643
00000000: cd6d 8cbd 0d2e 4c3d f9c0 95bd 04ff 10bd
00000010: f7fb 2d3d d1f1 9a3d 03bc 7abd f93d 953d
00000020: bb9b 7dbd b956 1f3f dd14 58bd 3f46 2a3d
00000030: 3416 63bd b001 92bd 3318 153e 2c4e e4bc
00000040: 00fe 94bd fa7f cebb 3801 4e3d ac8c 2a3f
00000050: 0c10 a53e 68d5 bbbd d39f 603c a858 243d
00000060: b3b5 49bd f0dd 0ebc 4743 07bd 4284 bd3e
00000070: e1a9 033f 455d d0bd 34fd 203d 9194 bcbd
00000080: be7f a2bb d4bf af3c 74be f73d f871 2ebd
00000090: 3172 5cbd f444 27bd a2f6 223e 1201 e23d
000000a0: bb59 b53c 6799 2abd b6d0 623d 1473 b8bb
000000b0: 2801 a8bd 1673 babb e656 d0bd c39e 2f3f
000000c0: 092b 323e 74df 95ba ff37 873e 18f3 c73e
000000d0: e829 22bd 2b34 c13d b822 52bd 2db6 603e
000000e0: 7441 043e 0285 b63d 0b03 47bd 6016 01bd
000000f0: 873e 45bd 631d 2e3f e223 463e 7215 363e
00000100: c670 043e 7007 5c3e a767 2dbd d358 7e3d
00000110: e240 273f f8e2 32bd 2ad8 643d 387c 28bd
00000120: 1645 e53d 3236 9d3e ba0f 6c3d 595e e63b
00000130: 656a c9bd 6e80 8c3e 53a7 ff3e ccb2 48bd
00000140: db1e b8bd e449 c93e bfd2 cfbc b4da 623e
00000150: 63b8 1bbd a260 09bc 5922 163c 1792 f0bb
00000160: 38bd 69bd 108d 3abc 7c00 0fbe ab45 9ebd
00000170: 633b 123e 2eb9 223f 3b30 4e3d f0a1 aabd
00000180: 6d64 0c3a 481d b23d 23ec bfbd 0242 adbd
00000190: 9f9e 2b3f 5fe4 5cbd de4c 953b c6b5 d83c
000001a0: 4d98 683d f871 2c3e 725d 243c 72a0 c5bd
000001b0: 2780 133f 3b4f 323d a563 6cbd 5416 423d
000001c0: fa61 fbbd 837c 563e 47d7 8dbd 62f5 3b3f
000001d0: 4c7b 603e aa61 a4bd 6be5 c13e 9524 343d
000001e0: 3ec3 0a3d cb09 363d 6c10 34bb 1962 babd
000001f0: 5e03 f83d 6689 74bc afb1 b1bc 925f 60bd

fc3.weight f4 [4, 128]
-0.000734175 -0.02004209 0.02665117 0.06964953 1.9591303 -0.002474004 0.024616849 2.1084838
-0.030416 0.40182418 -0.031277146 -0.0011950859 -0.020444015 0.020441853 0.012210512 0.059702978
0.031719033 0.03684218 -0.0022733987 0.4080845 0.59087026 -0.019303996 0.017014306 -0.049220596
1.2847133 -0.08278661 0.055693693 0.20799221 0.3593484 -0.028309567 -0.029384365 -0.029812876
0.07413423 0.03398718 -0.20724186 -0.009679402 -0.09685867 -0.0035687268 0.23005228 2.1047683
0.015690828 0.0058563394 -0.051638477 0.02573364 -0.05118016 -0.0011994566 -0.07486656 0.41469347
1.3048669 -0.053480398 0.19549656 0.36553845 0.0077179894 -0.044743802 0.003524231 0.17339627
-0.19139461 0.004278201 0.042186122 -0.011096268 0.02734538 0.35726595 2.3774843 -0.19966272
-0.027694633 0.35799688 -0.005976805 -0.07154376 0.42311877 0.058929473 -0.012058207 0.031633794
0.101544954 0.91940546 0.03684959 0.014219546 -0.0025807575 0.11000649 0.33428183 -0.03313699
-0.007893705 0.32673484 -0.011219677 1.0285523 -0.03487705 0.06852668 0.056311708 -0.078096315
-0.017995115 0.08335738 0.020832602 0.02693685 1.4450145 0.39214933 -0.027118448 -0.048095897
0.0065951347 -0.40749213 0.053481776 -0.013392218 0.37631896 0.0053805253 0.021426326 0.049211476
0.048078075 0.8011147 -0.11000736 0.034150112 0.35205084 0.05839656 -0.06853464 0.060715042
-0.02809519 2.0332441 -0.025675286 0.4082708 -0.016831597 0.0175849 1.3834883 0.015047698
0.031476356 1.8528714 0.066569775 0.06845883 0.918821 0.04318443 -0.018404484 0.028403562
-0.04918749 0.15076546 0.03537957 0.013651904 0.76567537 0.041810185 -0.066509314 2.2562642
0.030226817 0.45104074 -0.01692943 0.054627057 0.00968633 0.06500624 0.5162157 -0.013097739
0.0052522873 0.15444648 -0.024159422 0.5154559 0.21929479 0.005765452 -0.004209943 0.043554697
-0.07445626 -0.03504037 -0.05540796 0.43975413 0.40124887 0.040583484 -0.048947945 -0.05997234
-0.00838488 -0.003124835 0.46624896 0.0011444115 0.029787045 0.028827988 0.27616253 0.86338454
0.06443758 0.043780524 0.084713526 -0.09215358 0.09845313 -0.0063111344 0.04789445 0.3640502
0.7902943 0.052619778 0.29236373 0.3314398 0.071461186 0.006936798 -0.0095090475 0.33803734
-0.6752268 0.0101242885 -0.040095493 0.073014766 -0.031734437 0.506214 1.7706187 0.22548217
0.34955308 0.39706212 0.04118305 0.07768067 0.38927373 0.05081662 0.009440404 0.019304823
0.48816594 0.5008047 -0.0079190135 -0.071444705 -0.0012240225 0.5271016 0.48943594 0.059966087
-0.02728736 0.21746486 0.0050091646 0.4207115 0.03917164 -0.04286006 0.00093814667 -0.0104046315
0.016021488 0.043015704 -0.060904674 -0.06701371 1.0443753 0.48554254 0.029551653 0.042308282
-0.061008647 -0.24466747 0.03868074 -0.017020155 0.4402361 -0.02047471 0.039976645 -0.005127175
-0.05868304 0.6049117 -0.019849023 -0.06814019 0.36672994 0.11831461 -0.059334468 0.087002985
-0.023244586 1.0312957 0.12538248 0.4678512 0.5023964 -0.03197189 1.0785899 0.051567703
0.0334632 0.98831904 0.001796022 0.037718717 0.13633732 0.07823125 0.0045395577 -0.037570335
00000000: a675 40ba 4f2f a4bc 8e53 da3c 6aa4 8e3d
00000010: c8c4 fa3f e622 22bb 46a9 c93c 66f1 0640
00000020: fa2a f9bc e6bb cd3e 771c 00bd 6ea4 9cba
00000030: 357a a7bc ac75 a73c 990e 483c 1c8b 743d
00000040: d1eb 013d d3e7 163d 4dfd 14bb 74f0 d03e
00000050: 4643 173f 6a23 9ebc 9661 8b3c 899b 49bd
00000060: 7c71 a43f 078c a9bd 121f 643d e9fb 543e
00000070: 83fc b73e 77e9 e7bc 7bb7 f0bc 223a f4bc
00000080: b0d3 973d 2436 0b3d 3637 54be 5b96 1ebc
00000090: d75d c6bd 4de1 69bb d392 6b3e 86b4 0640
000000a0: 0d8a 803c 89e6 bf3b de82 53bd 5bcf d23c
000000b0: 4aa2 51bd 1637 9dba a453 99bd b452 d43e
000000c0: e105 a73f 430e 5bbd 4030 483e db27 bb3e
000000d0: 30e7 fc3b 4745 37bd c9f6 663b cb8e 313e
000000e0: f3fc 43be 2730 8c3b 5bcb 2c3d 1fcd 35bc
000000f0: 6b03 e03c 90eb b63e b428 1840 6274 4cbe
00000100: dbdf e2bc 5e4b b73e 13d9 c3bb 8985 92bd
00000110: 06a3 d83e 0860 713d c98f 45bc 7092 013d
00000120: cdf6 cf3d 285e 6b3f 98ef 163d 19f9 683c
00000130: ed21 29bb 154b e13d fd26 ab3e a7ba 07bd
00000140: 9954 01bc ca49 a73e bcd2 37bc 9aa7 833f
00000150: 3ddb 0ebd b757 8c3d 1ba7 663d f6f0 9fbd
00000160: 7e6a 93bc 46b7 aa3d 22a9 aa3c abaa dc3c
00000170: 3cf6 b83f ccc7 c83e 8227 debc 3400 45bd
00000180: 001c d83b cfa2 d0be b50f 5b3d 096b 5bbc
00000190: e1ac c03e 1e4f b03b 4386 af3c f991 493d
000001a0: 84ed 443d da15 4d3f 8a4b e1bd fde0 0b3d
000001b0: 0240 b43e 3b31 6f3d e45b 8cbd 56b0 783d
000001c0: e227 e6bc ac20 0240 fa54 d2bc df08 d13e
000001d0: 6be2 89bc 350e 903c 2516 b13f 9f8a 763c
000001e0: 5aed 003d e42a ed3f bc55 883d 2534 8c3d
000001f0: da37 6b3f 28e2 303d 00c5 96bc 96ae e83c
00000200: d278 49bd 4362 1a3e 2bea 103d 3cac 5f3c
00000210: 4d03 443f 2841 2b3d 0936 88bd a266 1040
00000220: 3b9e f73c d0ee e63e 97af 8abc 9fc0 5f3d
00000230: 6ab3 1e3c fe21 853d b626 043f e697 56bc
00000240: 611b ac3b 3827 1e3e fbe9 c5bc ebf4 033f
00000250: d08e 603e 1eec bc3b 90f3 89bb 6966 323d
00000260: 867c 98bd 7e86 0fbd 75f3 62bd 7427 e13e
00000270: 7e70 cd3e de3a 263d a47d 48bd 8ea5 75bd
00000280: bc60 09bc 08ca 4cbb 2fb8 ee3e 1400 963a
00000290: f603 f43c ac28 ec3c 2d65 8d3e c506 5d3f
000002a0: daf7 833d 3553 333d 497e ad3d 04bb bcbd
000002b0: cba1 c93d a2cd cebb f92c 443d ca64 ba3e
000002c0: ba50 4a3f d687 573d b3b0 953e 7ab2 a93e
000002d0: 3e5a 923d 144e e33b d6cb 1bbc 3b13 ad3e
000002e0: aadb 2cbf 58e0 253c 2c3b 24bd c488 953d
000002f0: f8fb 01bd 3e97 013f a2a3 e23f cce4 663e
00000300: 9ff8 b23e ba4b cb3e 8faf 283d 0b17 9f3d
00000310: e34e c73e 1725 503d edab 1a3c 2625 9e3c
00000320: e3f0 f93e bd34 003f c0be 01bc 9a51 92bd
00000330: 616f a0ba 21f0 063f 5997 fa3e 009f 753d
00000340: be89 dfbc 1caf 5e3e eb23 a43b 7f67 d73e
00000350: 7172 203d 088e 2fbd f5ed 753a 3078 2abc
00000360: 7f3f 833c 3c31 303d 2e77 79bd 7c3e 89bd
00000370: 17ae 853f 0899 f83e 4f16 f23c 734b 2d3d
00000380: 34e4 79bd 1c8a 7abe b26f 1e3d da6d 8bbc
00000390: a066 e13e 94ba a7bc 8dbe 233d dc01 a8bb
000003a0: a15d 70bd 7edb 1a3f 6b9a a2bc 158d 8bbd
000003b0: 07c4 bb3e ee4e f23d b308 73bd 9f2e b23d
000003c0: 6e6b bebc 7f01 843f 4464 003e 318a ef3e
000003d0: 0d9d 003f f5f4 02bd 3c0f 8a3f a838 533d
000003e0: b510 093d 7a02 7d3f 8068 eb3a f17e 1a3d
000003f0: 039c 0b3e b537 a03d 92c0 943b 5ae3 19bd

fc3.bias f4 [4]
0.6160127 0.9207283 0.86772335 0.6766099
00000000: 02b3 1d3f dab4 6b3f 1e23 5e3f 4e36 2d3f
