models/dqn_gridword.pth (torch, 84433 bytes, 6 tensors)

fc1.weight f4 [128, 25]
0	0xbe569765	-0.2095619
1	0x3e5118d2	0.20419624
2	0xbe8605ae	-0.26176208
3	0xbe20dde9	-0.15709652
4	0xbe77295c	-0.24136871
5	0x3dfa3194	0.122164875
6	0xbe45cc23	-0.19316153
7	0xbe8d2866	-0.27569884
8	0xbe79a4bc	-0.24379247
9	0x3e87f1da	0.26551706
10	0xbe6c3eab	-0.23070781
11	0x3d33d2e5	0.043902297
12	0x3e61bc20	0.2204442
13	0x3d72cc60	0.05927694
14	0xbd5d196d	-0.053979326
15	0xbe7f62ee	-0.24940082
16	0xbba34f1d	-0.0049837963
17	0x3dbb7910	0.0915395
18	0xbe76bee0	-0.2409625
19	0xbd813ebf	-0.06310796
20	0x3c6944ca	0.014237592
21	0xbda25e8c	-0.0792819
22	0x3d40fd21	0.047116403
23	0xbeaaa4c3	-0.33328828
24	0x3dcb38fa	0.09922977
25	0x3e3483e8	0.17628443
26	0xbe444ad2	-0.19169167
27	0x3e1dd1bd	0.1541204
28	0xbd2f8afc	-0.042857155
29	0xbe8b5db7	-0.27219936
30	0xbda628dc	-0.08113262
31	0x3d82d7cd	0.06388817
32	0x3f02b506	0.5105747
33	0x3da41c48	0.08013207
34	0xbe2d34de	-0.16914698
35	0x3e7fa1a4	0.24964005
36	0x3e182b3b	0.14860241
37	0xbe224178	-0.15845287
38	0xbe2dbe4a	-0.16967121
39	0x3e0d8eed	0.13824053
40	0x3e3ce81b	0.18447916
41	0xbde8efcf	-0.11373865
42	0x3d66f4ba	0.056385733
43	0x3eef8f32	0.46788937
44	0x3f016abe	0.505535
45	0x3ea08767	0.31353304
46	0x3e3aa5b1	0.18227269
47	0x3ec93a21	0.3930216
48	0x3d6c6165	0.05771007
49	0x3d95881a	0.0730135
50	0x3e1e7b5b	0.15476744
51	0x3ca94f03	0.020667559
52	0xbddb35e0	-0.10703635
53	0xbd8d0e47	-0.06887489
54	0x3ebe8d7e	0.37217325
55	0xbda20d90	-0.07912743
56	0x3e3d80e2	0.18506196
57	0xbdcc1a0a	-0.09965904
58	0xbe46d3ff	-0.19416808
59	0x3d7681af	0.06018227
60	0xbcb9f04d	-0.022697592
61	0x3c32baa3	0.0109087555
62	0x3cf5a654	0.029986538
63	0xbbadd3e3	-0.0053048
64	0x3dd78dc0	0.105250835
65	0xbcf40f27	-0.029792381
66	0xbccc0fe7	-0.024909927
67	0x3e389720	0.180264
68	0x3b2861c8	0.0025693048
69	0x3d1bc304	0.03802778
70	0x3bc0ae33	0.005880141
71	0x3ed8d6e9	0.42351463
72	0x3cc541fb	0.024079314
73	0x3eaf91a4	0.34290802
74	0x3e0565ad	0.13027067
75	0xbd638747	-0.055548932
76	0x3d061116	0.03273114
77	0xbc0c5d85	-0.008567219
78	0xbdc47d24	-0.09594181
79	0xbdd11cb8	-0.10210556
80	0x3d9408ea	0.07228263
81	0xbe19a037	-0.15002523
82	0xbe965d57	-0.29368088
83	0x3d786efe	0.060652725
84	0x3e6161dd	0.22009988
85	0x3daa057b	0.083018266
86	0x3dc6f7b8	0.09715217
87	0x3e2eba3f	0.17063235
88	0x3dc47d64	0.09594229
89	0x3d270da0	0.04078448
90	0xbe19ff99	-0.15038909
91	0x3de3df2c	0.11126551
92	0x3bf17800	0.0073690414
93	0xbe932e6e	-0.2874636
94	0x3e764f76	0.2405375
95	0xbc43d375	-0.011952271
96	0xbce173c1	-0.027521016
97	0x3e71341e	0.23555037
98	0x3d0ad194	0.033891276
99	0x3d4a3da7	0.049375203
100	0xbdddc79f	-0.1082909
101	0x3e044e2c	0.12920445
102	0xbd5eab32	-0.054362483
103	0xbd87d6f3	-0.06632795
104	0xbd0b7132	-0.0340435
105	0xbe3faddd	-0.18718667
106	0x3e1264fa	0.14296332
107	0xbe3aadd1	-0.18230368
108	0xbe763f75	-0.24047644
109	0xbe663ae7	-0.22483407
110	0xbe69c460	-0.22828817
111	0x3ed5229a	0.4162796
112	0x3e6e5a43	0.2327662
113	0xbe6273c0	-0.22114468
114	0x3e3944aa	0.180926
115	0xbe74878f	-0.23879836
116	0xbe5f7d66	-0.2182518
117	0xbe36434b	-0.17799108
118	0xbe668681	-0.22512247
119	0x3e9cf582	0.30656058
120	0xbe7dd2d2	-0.24787453
121	0x3b4725aa	0.003038744
122	0x3eef792f	0.46772143
123	0x3da752cf	0.08170091
124	0xbd8fd283	-0.07022574
125	0xbc9f8dee	-0.019476857
126	0x3eacdf21	0.33763984
127	0xbcec7218	-0.028862998
128	0xbc5caf12	-0.013469474
129	0x3cd92baa	0.026510078
130	0x3def1362	0.11673619
131	0x3dad833d	0.08472297
132	0xbe88c95c	-0.26716125
133	0xbd03aa77	-0.03214499
134	0x3eb1e8e4	0.34747994
135	0xbd3f668d	-0.04672866
136	0xbe824324	-0.2544185
137	0x3e90b7ee	0.28265327
138	0x3e1db4d4	0.15401012
139	0x3e2bb518	0.167683
140	0xbcfc82a9	-0.030824022
141	0x3e38df23	0.1805387
142	0xbe2f5fd0	-0.17126393
143	0xbe72cb48	-0.23710358
144	0xbe5f8402	-0.218277
145	0xbd97164d	-0.073773004
146	0xbd30b824	-0.04314436
147	0xbe5901a9	-0.2119204
148	0xbbd40d7d	-0.0064713345
149	0xbd209f87	-0.039214637
150	0xbcd52c19	-0.026022004
151	0x3e0b7853	0.13620119
152	0xbc81a8db	-0.015827587
153	0xbca57ef3	-0.020202136
154	0xbe40bc72	-0.18821886
155	0xbd5c143a	-0.053730227
156	0x3df34657	0.11878651
157	0x3e01d5ea	0.12679258
158	0xbd17d0e7	-0.03706446
159	0xbe390123	-0.1806684
160	0xbc40de0e	-0.011771692
161	0xbd5442e0	-0.05182159
162	0xbe2d3b35	-0.16917117
163	0x3e23ae80	0.15984535
164	0xbe35e0e5	-0.17761572
165	0x3d6fc806	0.058540367
166	0x3e454d67	0.19267808
167	0x3d9bddba	0.0761065
168	0xbdf9eac0	-0.12202978
169	0xbe3c1683	-0.18367963
170	0xbe2e8c4a	-0.17045704
171	0x3ccf2d98	0.025290295
172	0xbd0f6a72	-0.035013624
173	0x3cb20dae	0.021735039
174	0xbc808780	-0.015689611
175	0x3e4d688b	0.20059411
176	0x3df3d645	0.11906103
177	0x3c8c7be8	0.017148927
178	0x3e40dea1	0.18834926
179	0x3de448ca	0.11146696
180	0x3e13b2d0	0.1442368
181	0xbda4eb4d	-0.080526926
182	0x3e2d1ce3	0.1690555
183	0x3e839345	0.25698295
184	0xbd313564	-0.043263808
185	0x3d8ca789	0.06867892
186	0xbe9e71c0	-0.3094616
187	0xbb7c9a6f	-0.0038544198
188	0x3d4ecf2e	0.05049055
189	0x3e034e7b	0.12822907
190	0x3df3c644	0.119030505
191	0x3e39cd78	0.18144786
192	0xbd9957ba	-0.07487436
193	0x3a1154c9	0.0005543945
194	0xbeac3b47	-0.33638975
195	0x3eda9bb9	0.42696932
196	0x3e8a82d0	0.27052927
197	0xbe74745e	-0.23872516
198	0x3e0085d0	0.12551045
199	0x3e03494d	0.12820931
200	0xbdef3947	-0.11680847
201	0xbe1ce0b5	-0.15320094
202	0x3d995f4d	0.0748888
203	0x3e24d0df	0.16095303
204	0xbd2f1f33	-0.042754363
205	0xbe112aed	-0.14176531
206	0x3daaa6cd	0.08332596
207	0xbe380797	-0.17971645
208	0x3da3cef3	0.07998457
209	0xbe1548ba	-0.14578524
210	0xbdb8ead0	-0.09029162
211	0x3da89420	0.082313776
212	0x3c241f9a	0.0100173
213	0xbda556ba	-0.080731824
214	0x3e20220d	0.1563799
215	0x3df2fced	0.11864648
216	0x3e3b63bb	0.18299763
217	0x3d3ff0da	0.046860553
218	0xbdfef2da	-0.12448664
219	0xbe35adcd	-0.17742081
220	0xbe12af55	-0.14324696
221	0xbd4e0f53	-0.050307583
222	0xbdf36e60	-0.11886287
223	0x3bb677cd	0.0055684806
224	0x3e44812b	0.19189899
225	0x3b9d64c5	0.0048032724
226	0xbbd31c48	-0.0064425804
227	0x3c3b3fd2	0.01142879
228	0xbe45416a	-0.19263235
229	0xbd707809	-0.058708224
230	0xbe4a4b9d	-0.19755407
231	0x3dbb638a	0.09149845
232	0xbe466f0d	-0.193783
233	0xbe410528	-0.18849623
234	0x3d5a494f	0.05329257
235	0xbe43533d	-0.19074722
236	0x3e0c43d3	0.13697748
237	0xbe425aee	-0.1898
238	0x3c01992d	0.007910055
239	0x3dc84c03	0.09780123
240	0xbe40a9ce	-0.18814775
241	0x3d55c3b4	0.05218859
242	0x3bcd7b9a	0.006270838
243	0xbe2cf552	-0.16890457
244	0x3e717820	0.2358098
245	0x3d650487	0.05591252
246	0xbe3a9a61	-0.18222953
247	0x3e0cba07	0.13742839
248	0xbe45645c	-0.19276565
249	0x3e420d15	0.18950303
250	0x3d8d7b50	0.069082856
251	0x3eb31f7b	0.34984955
252	0x3d0fd20d	0.03511243
253	0xbd640aad	-0.055674244
254	0xbd941bb2	-0.07231845
255	0x3e41635b	0.18885557

fc1.bias f4 [128]
0	0x3c21938b	0.009861837
1	0x3e81cbef	0.253509
2	0xbdd4a42d	-0.103828765
3	0x3e7f2a85	0.24918564
4	0x3e2571c4	0.1615668
5	0x3e3b3243	0.18280892
6	0xbe4c4d18	-0.19951284
7	0x3e9d266d	0.3069338
8	0xbe492dea	-0.19646421
9	0xbda9cfdd	-0.082916
10	0x3e23dc70	0.16002059
11	0xbe2c5a1d	-0.1683125
12	0xbe6679a7	-0.22507344
13	0x3e8126e5	0.25224987
14	0x3df95949	0.12175233
15	0xbe3e6d1f	-0.18596314
16	0x3bd333c1	0.0064453785
17	0x3d4116f1	0.04714102
18	0x3cc9be91	0.024627002
19	0x3e34cc02	0.17655948
20	0x3e8fdb39	0.2809694
21	0x3e49bd93	0.19701223
22	0xbe23754a	-0.15962711
23	0xbdbc8853	-0.09205689
24	0xbe4c48bb	-0.1994962
25	0xbe6d3742	-0.2316561
26	0x3e65b619	0.22432746
27	0x3e93cdc6	0.2886793
28	0xbe055808	-0.13021863
29	0xbe148b9a	-0.14506379
30	0xbe4cb4f5	-0.19990905
31	0x3de8ba43	0.113636516
32	0xbe4c1d43	-0.19933037
33	0x3e800a62	0.2500792
34	0x3e2dc665	0.16970213
35	0x3e8edb56	0.27901715
36	0xbe0c22e6	-0.13685188
37	0xbe4cb1f5	-0.1998976
38	0x3de1e143	0.110292934
39	0x3dca4e8d	0.098782636
40	0x3d56fd99	0.052487943
41	0xbe3a6cb5	-0.18205531
42	0x3e4d3e35	0.20043261
43	0x3e9e2f96	0.3089568
44	0x3d2a8f3b	0.0416405
45	0x3e05e56c	0.13075799
46	0x3eb783b2	0.35842663
47	0xbd7e2162	-0.062043555
48	0x3d5780d9	0.052613113
49	0x3da27b77	0.07933705
50	0x3dcf8285	0.101323165
51	0x3da6b43c	0.08139846
52	0xbdfa4ba3	-0.12221458
53	0xbd89ea1c	-0.06734106
54	0x3da7cd00	0.081933975
55	0xbdb341ad	-0.08752761
56	0xbde2ee19	-0.1108057
57	0xbdd8fe7d	-0.10595415
58	0x3e141f69	0.14465107
59	0x3e0a7050	0.13519406
60	0x3dc543c6	0.096320674
61	0x3df73b6c	0.12071881
62	0xbe07ca9b	-0.13260882
63	0x3e433f01	0.19067003
64	0xbe10940a	-0.14118972
65	0xbe6d47a0	-0.23171854
66	0xbddb6a19	-0.10713596
67	0x3e261cec	0.1622197
68	0xbe3eeaaa	-0.18644205
69	0x3ec6a373	0.38796577
70	0x3e0429f1	0.12906624
71	0xbe3c43c6	-0.18385229
72	0x3ec67678	0.3876226
73	0x3cbbee9f	0.022940932
74	0x3ea28bf8	0.31747413
75	0x3e3f0b34	0.18656617
76	0x3eed0d74	0.46299326
77	0x3ed46ed7	0.41490814
78	0x3b3d346a	0.0028870353
79	0xbe07eb42	-0.13273337
80	0x3e66b209	0.22528853
81	0xbe2aa58f	-0.16664718
82	0xbe62b715	-0.22140153
83	0xbde9c240	-0.11414003
84	0xbe204b62	-0.15653756
85	0x3def7e96	0.11694066
86	0x3e12db22	0.14341405
87	0x3e87b313	0.2650381
88	0xbe4cf1a1	-0.20014049
89	0xbdb3f89e	-0.08787654
90	0xbd469575	-0.048482377
91	0x3dbfc868	0.09364396
92	0x3e830084	0.2558633
93	0xbe6b0ac0	-0.2295332
94	0xbe0553b2	-0.13020208
95	0x3e5de8c0	0.21670818
96	0x3cce0f3c	0.025153749
97	0x3ec6194d	0.38691178
98	0xbd2cdb73	-0.04220147
99	0x3dbdedc8	0.09273869
100	0x3edd5279	0.43226984
101	0x3c7bafe6	0.015361762
102	0x3e91143b	0.28335747
103	0x3d9f3643	0.077740215
104	0x3cd8fbeb	0.026487311
105	0xbdb634f3	-0.08896818
106	0xbdaae8e5	-0.08345202
107	0xbe4c9578	-0.19978893
108	0x3d639af2	0.05556769
109	0x3d71a62c	0.058996364
110	0x3e199f62	0.15002206
111	0xbca7d248	-0.020486012
112	0x3ec35ebd	0.38158217
113	0x3ecf2144	0.40455067
114	0x3c8c1329	0.01709898
115	0x3eae7b5c	0.3407849
116	0xbe06479e	-0.13113257
117	0x3e85af7d	0.2611045
118	0xbd71fc7b	-0.059078675
119	0x3cf41987	0.029797329
120	0x3df0a001	0.11749268
121	0x3e98d99d	0.29853526
122	0xbdd438ef	-0.10362422
123	0x3ea08c80	0.31357193
124	0xbdbf307d	-0.0933542
125	0x3e919b3a	0.2843874
126	0xbe4951b8	-0.1966008
127	0x3e97bdad	0.296369

fc2.weight f4 [128, 128]
0	0xbcb33c68	-0.02187939
1	0xbe039f9e	-0.12853858
2	0xbe28f97d	-0.16501422
3	0x3c113c33	0.00886445
4	0x3e40fd0e	0.18846533
5	0x3d15a880	0.036537647
6	0x3d7d8def	0.061902937
7	0xbd6dcbba	-0.058055617
8	0x3d72501a	0.059158422
9	0xbbf5d70c	-0.007502442
10	0x3e1e427a	0.15455046
11	0x3e1ba602	0.15200046
12	0xbd413ceb	-0.047177237
13	0xbccd79f6	-0.02508257
14	0xbd1c6916	-0.038186155
15	0xbd6e01b0	-0.058107078
16	0x3dce6695	0.1007816
17	0xbcfcd821	-0.030864777
18	0x3d89663e	0.06708954
19	0x3d3066d0	0.0430668
20	0x3de5556e	0.11197935
21	0xbd64e07f	-0.05587816
22	0x3b78779d	0.0037913092
23	0x3e2099f2	0.15683725
24	0x3e0c7701	0.13717271
25	0xbd7aba9c	-0.06121312
26	0x3e43595b	0.19077055
27	0xbd254127	-0.040345337
28	0x3d602829	0.0547258
29	0x3d258592	0.040410586
30	0x3d287f3f	0.041136976
31	0x3db7c3bd	0.08972881
32	0x3cfe7d21	0.031065525
33	0x3d41d9dd	0.04732691
34	0x3e0b0b45	0.13578518
35	0xbe359255	-0.17731602
36	0x3c9eedc7	0.01940049
37	0xbdb82e62	-0.08993222
38	0xbe049d15	-0.12950547
39	0x3e3b03c7	0.1826316
40	0x3e03b8ea	0.12863508
41	0x3dcf16ce	0.101117715
42	0x3dc5acda	0.096521094
43	0xbd848cc2	-0.0647216
44	0x3d021a5b	0.031763416
45	0xbd93d706	-0.07218747
46	0xbdbe5024	-0.09292629
47	0x3d6dcd3e	0.058057062
48	0x3dd0a672	0.10187997
49	0x3e0a7646	0.1352168
50	0x3e63ebc0	0.222579
51	0xbd57d181	-0.052690033
52	0x3dfadb18	0.1224882
53	0x3cfbc5e4	0.03073401
54	0x3cd18f57	0.025581045
55	0x3ce1700e	0.027519252
56	0xbd03479a	-0.032050706
57	0x3d60544a	0.054767884
58	0xbdde2cfe	-0.10848425
59	0xbd93da27	-0.07219344
60	0x3e11a09e	0.14221427
61	0x3d55b4a5	0.05217423
62	0x3df91aca	0.12163313
63	0x3d6aa341	0.057284597
64	0x3d0f2c9f	0.034954663
65	0x3de7d45a	0.113198
66	0xbd8e7428	-0.06955749
67	0xbe2cb83a	-0.16867152
68	0x3de00789	0.10938937
69	0x3d6981eb	0.057008665
70	0x3da975a7	0.082743935
71	0x3dde2f23	0.10848834
72	0x3bde7595	0.006788919
73	0x3b2236d6	0.0024751923
74	0x3d2b793f	0.041863676
75	0xbe1f1c94	-0.15538245
76	0xbee7871f	-0.45220277
77	0x3dd0bdb3	0.10192432
78	0x3db73131	0.089449294
79	0x3db4a870	0.088211894
80	0xbd2f1d9e	-0.042752855
81	0x3d63f520	0.05565369
82	0x3e1232c9	0.14277185
83	0xbd586fe6	-0.05284109
84	0xbd00f303	-0.031481754
85	0x3e098ee0	0.13433409
86	0x3e0a6394	0.13514549
87	0xbe5c1ea5	-0.21496065
88	0xbaa873cc	-0.0012851893
89	0xbcc1687b	-0.02360939
90	0xbe9a4de1	-0.30137542
91	0x3c2bc791	0.010484592
92	0xbdf924f6	-0.12165253
93	0x3cc1640d	0.023607278
94	0xbd5b50b0	-0.053543746
95	0x3d1e2940	0.038613558
96	0x3db454c4	0.0880523
97	0xbe98f380	-0.29873276
98	0x3cb6340a	0.022241611
99	0xbd12d276	-0.035845242
100	0x3d82bc9e	0.06383632
101	0x3de39e09	0.11114127
102	0xbe36602b	-0.17810123
103	0x3e40a4d7	0.18812881
104	0xbd83a14a	-0.06427248
105	0xbd49739b	-0.049182516
106	0x3df3a2f0	0.11896312
107	0x3b28150a	0.0025647306
108	0xbd44c48f	-0.048039015
109	0x3c8a41ed	0.016877139
110	0x3e177dbe	0.1479406
111	0x3d82f6f3	0.06394758
112	0x3e0d9dd9	0.13829745
113	0x3dad1e27	0.08453017
114	0x3dc6f202	0.09714128
115	0xbd09f774	-0.033683255
116	0xbc150894	-0.009096283
117	0xbd073885	-0.033012886
118	0xbd8fd629	-0.0702327
119	0xbcc55808	-0.024089828
120	0x3d253038	0.040329188
121	0xbe258fe7	-0.16168176
122	0xbea6c028	-0.3256848
123	0xbd316371	-0.043307725
124	0x3d092028	0.033477932
125	0x3e62e372	0.22157076
126	0x3e39dc12	0.18150356
127	0xbec67263	-0.38759145
128	0xbd7f3b62	-0.06231249
129	0xbd55ea37	-0.052225318
130	0x3cffa4c2	0.031206492
131	0xbd947839	-0.07249493
132	0xbd5875f0	-0.05284685
133	0xbc8f988b	-0.017528793
134	0xbc192f0a	-0.009349594
135	0x3d727929	0.05919758
136	0xbc99c52a	-0.018770773
137	0x3d555b37	0.052088942
138	0x3d211de7	0.039335158
139	0x3c90f824	0.017696448
140	0x3d139c9c	0.036038026
141	0xbc82ba65	-0.01595802
142	0xbd08af82	-0.033370502
143	0x3d9b1b8c	0.075736135
144	0x3bd7dafc	0.0065873843
145	0xbd405041	-0.046951536
146	0xbdac24c9	-0.08405454
147	0xbd9c068d	-0.07618437
148	0xbd87fbe7	-0.066398434
149	0xbdb5adda	-0.0887105
150	0x3c0b7a32	0.00851302
151	0xbd2acb2f	-0.041697677
152	0x3d4218d4	0.04738696
153	0x3c0a7a6b	0.008452038
154	0xbb2215ee	-0.002473231
155	0xbdb74784	-0.089491874
156	0xbda8268a	-0.08210476
157	0xbc69c64a	-0.014268467
158	0xbd19146f	-0.037373003
159	0x3d6a113b	0.05714534
160	0xbd26e7a2	-0.040748246
161	0xbd09d4a9	-0.033650074
162	0x3d95226c	0.07281956
163	0x3c551780	0.013006091
164	0xbd90e233	-0.07074394
165	0xba649685	-0.0008719939
166	0xbc68bdaf	-0.01420538
167	0x3cde94dd	0.027170593
168	0xbd1d34e1	-0.038380507
169	0xbb246df3	-0.002508995
170	0xbc785799	-0.015157604
171	0xbc41fd72	-0.011840211
172	0x3cfa32fc	0.03054189
173	0xbcd833dd	-0.026391918
174	0xbd425aaf	-0.047449764
175	0x3d9377f7	0.07200616
176	0xbd4e0f57	-0.050307598
177	0xbda5dd4c	-0.0809885
178	0x3d5b410b	0.053528827
179	0x3d3522c5	0.044222612
180	0xbd1146ae	-0.035467796
181	0xbd90b078	-0.07064909
182	0xbd75f8db	-0.06005178
183	0x3c202ef9	0.009776824
184	0xbc8ddd8c	-0.017317556
185	0xbdb798f4	-0.0896472
186	0xbc8a703a	-0.016899217
187	0x3d6cf606	0.057851814
188	0x3d349db5	0.044095714
189	0x3b74c4aa	0.0037348666
190	0x3d8d390a	0.06895645
191	0x3d9b21a3	0.07574775
192	0x3c657966	0.014005994
193	0x3c1f1864	0.009710405
194	0x3d40a7a9	0.047034893
195	0x3d2ac610	0.041692793
196	0xbad1593d	-0.001597203
197	0xbd940e85	-0.07229332
198	0xbd90e4ad	-0.070748664
199	0x3d988c3f	0.07448625
200	0xbd17f6e5	-0.03710069
201	0xbd21c548	-0.039494783
202	0xbba495bd	-0.005022733
203	0xbd1b110b	-0.03785805
204	0xbd01b684	-0.0316682
205	0xbd0cea08	-0.034402877
206	0x3da8797e	0.08226298
207	0x3d3764fc	0.04477404
208	0x3d9e88c7	0.07740932
209	0xbb01b0c9	-0.001978921
210	0x3c26faaa	0.010191599
211	0xbdb0a84e	-0.086258516
212	0x3b71355d	0.0036805489
213	0xbd84c8f9	-0.06483645
214	0xbd986f70	-0.0744313
215	0x3c295205	0.010334496
216	0xbd4537f2	-0.048149057
217	0x3d977e4d	0.07397137
218	0xbd8df0fc	-0.0693073
219	0xbd2566da	-0.04038129
220	0x3d982fbe	0.07430981
221	0x3d2ef21e	0.04271137
222	0x39adb5f2	0.0003313269
223	0x3c7e9444	0.015538279
224	0xbc4eaae7	-0.0126139885
225	0xbd804d80	-0.06264782
226	0xbcc68641	-0.02423394
227	0x3d8e1ccf	0.069390886
228	0xbdb76b57	-0.0895602
229	0xbd81f211	-0.06344999
230	0xbd8514c8	-0.06498104
231	0xbd85b316	-0.065282986
232	0x3d1e1f81	0.038604263
233	0x3d97bb1f	0.074087374
234	0xbce8606d	-0.028366292
235	0xbd77cc54	-0.060497597
236	0xbdae45f9	-0.0850944
237	0xbdc16349	-0.09442765
238	0xbd494085	-0.049133796
239	0xbd6fed08	-0.05857566
240	0xbcd6fe88	-0.026244417
241	0x3baaf081	0.0052166586
242	0x3d19216d	0.037385393
243	0xbca63730	-0.020289987
244	0xbc859b7d	-0.016309494
245	0xbca97d73	-0.020689702
246	0xbce06f03	-0.027396685
247	0xbd545f56	-0.051848732
248	0x3d46b584	0.04851295
249	0x3d913a30	0.070911765
250	0xbd69c0d5	-0.057068665
251	0x3d73159a	0.059346773
252	0xbd673610	-0.056448042
253	0x3cd2a44e	0.025713112
254	0xbd28ca33	-0.041208457
255	0xbd8a3196	-0.06747739

fc2.bias f4 [128]
0	0xbd42d953	-0.047570538
1	0x3d2967da	0.041358806
2	0xbe378d90	-0.17925096
3	0x3e90084d	0.28131333
4	0xbceea95e	-0.029133495
5	0x3e4703f2	0.19435099
6	0xbdb86567	-0.09003716
7	0xbd014dbc	-0.031568274
8	0x3eb70175	0.357433
9	0x3ea3de7a	0.32005674
10	0xbd8a5200	-0.067539215
11	0xbd4addae	-0.049527816
12	0x3e54d58b	0.20784585
13	0xbdca1bce	-0.098685846
14	0xbd8b99e0	-0.06816459
15	0x3e499a20	0.196877
16	0x3bbfebdc	0.005856974
17	0xbdd5c409	-0.10437781
18	0xbd5bdd9f	-0.05367815
19	0x3bcd2f0d	0.0062617124
20	0x3d6e6748	0.058203965
21	0xbdbb7fa4	-0.09155205
22	0x3ea60eea	0.32433254
23	0x3cd341c6	0.0257882
24	0xbbaec530	-0.005333565
25	0xbbd5e7d4	-0.00652788
26	0xbc5c88c3	-0.013460341
27	0x3dadb6e2	0.08482148
28	0x3d5ff116	0.054673277
29	0x3ca29f11	0.01985124
30	0xbd45f50d	-0.0483294
31	0xbd9d0d24	-0.07668522
32	0xbd13f9f9	-0.036127064
33	0x3bea64d1	0.0071531315
34	0xbd16a23f	-0.036775824
35	0xbddc63bd	-0.10761211
36	0xbdea0e2c	-0.11428484
37	0x3c143705	0.009046321
38	0x3ca3a8e1	0.019977989
39	0x3e4fe028	0.20300353
40	0xbd933606	-0.071880385
41	0x3bc39ed1	0.00596986
42	0xbd8bc710	-0.068250775
43	0xbd05bf8e	-0.032653384
44	0xbdac9f4e	-0.084288225
45	0xbd73535b	-0.059405666
46	0xbcaff48b	-0.021478912
47	0x3dc2df70	0.095152736
48	0xbd51e9b8	-0.051248282
49	0xbdd423d5	-0.10358397
50	0xbd84748f	-0.06467544
51	0x3e0fbb59	0.14036311
52	0xbd6b24d1	-0.057408158
53	0x3e2cb7ba	0.16866961
54	0xbcd1640a	-0.025560398
55	0xbdbd28a1	-0.09236265
56	0xbdf3bb18	-0.1190092
57	0xbb2b8363	-0.0026170842
58	0xbdc608b6	-0.0966963
59	0x3e92cc6b	0.28671584
60	0x3ecebde5	0.40379253
61	0x3d853ada	0.06505366
62	0x3e1bbbc0	0.1520834
63	0x3ea1f731	0.31633905
64	0xbcc7dc15	-0.024396935
65	0x3e46faba	0.19431582
66	0x3de6c5c1	0.11268187
67	0xbad9fb44	-0.0016630669
68	0xbcaa9e99	-0.020827578
69	0xbda9dc2d	-0.08293948
70	0xbcaaf510	-0.020868808
71	0xbdbcda95	-0.09221379
72	0x3e9f0d7b	0.31064972
73	0x3c808046	0.015686166
74	0x3d04d6f4	0.032431558
75	0xbcb7a4b3	-0.022417402
76	0xbcbc5e60	-0.02299422
77	0x3e23d59f	0.15999459
78	0x3e067be3	0.13133197
79	0xbd2f7876	-0.04283949
80	0x3da478c2	0.08030845
81	0xbdc568c3	-0.09639122
82	0xbe3f9ead	-0.18712874
83	0x3e8a722c	0.2704023
84	0x3de25b14	0.11052528
85	0xbcaabaa0	-0.020840943
86	0x3d39c94b	0.045357984
87	0xba9ed017	-0.0012116459
88	0x3d8ec69d	0.06971476
89	0x3dc8b6c9	0.098004885
90	0x3ec6c44a	0.38821632
91	0x3e8e71b3	0.2782112
92	0x3e51611d	0.20447202
93	0x3e077d10	0.13231301
94	0x3e98811d	0.29786006
95	0xbe062328	-0.13099349
96	0xbd2aa958	-0.041665405
97	0x3e0910d9	0.13385333
98	0x3e381590	0.17976975
99	0xbdf0ec51	-0.11763824
100	0xbc602c87	-0.013682491
101	0x3e50da68	0.20395815
102	0x3e3a68e6	0.18204078
103	0x3ebf1ce6	0.37326735
104	0xbd95f2b5	-0.07321683
105	0xbdaa701e	-0.08322166
106	0x3e031756	0.1280187
107	0x3ea7ac57	0.32748672
108	0xbd1051e8	-0.035234362
109	0xbd87dd06	-0.06633954
110	0xbda1ef81	-0.0790701
111	0x3dd2ad32	0.10286941
112	0xbd4bb4f5	-0.04973312
113	0xbde9365b	-0.113873206
114	0x3edc3966	0.43012542
115	0x3ce2db83	0.027692562
116	0xbd96e8a6	-0.07368593
117	0xbcb0c89a	-0.02158003
118	0xbda8dc68	-0.08245164
119	0xbd17af24	-0.03703226
120	0xbd85e72a	-0.06538232
121	0xbddcdd5d	-0.10784409
122	0x3dc2e3e7	0.09516125
123	0x3dac77a0	0.08421254
124	0x3c343dd3	0.011001068
125	0xbcf0c3ba	-0.029390205
126	0x3e06e725	0.13174112
127	0xbcc0bc6f	-0.023527352

fc3.weight f4 [4, 128]
0	0x3daa4122	0.08313204
1	0xbcdf1439	-0.027231323
2	0xbc52f3c3	-0.0128755
3	0x3e7c933a	0.24665537
4	0x3dc90696	0.09815709
5	0xbe7207f9	-0.23635854
6	0x3c4030d2	0.01173039
7	0x3a537c8f	0.0008067572
8	0x3d315fe9	0.043304358
9	0x3ee176e7	0.44036028
10	0xbd75e801	-0.06003571
11	0x3c9af7ac	0.018916927
12	0x3e7613eb	0.24031036
13	0xbbf13e01	-0.007362128
14	0x3b6b22ec	0.003587897
15	0xbc882443	-0.016618853
16	0x3d972df3	0.07381811
17	0x3cbfe8d4	0.02342645
18	0xbd2d23c9	-0.042270456
19	0x3dd089b4	0.10182515
20	0x3e215885	0.15756424
21	0x3cf936a8	0.03042157
22	0x3dbf8967	0.09352379
23	0xbdea2e38	-0.11434597
24	0x3b7c9f23	0.0038547001
25	0x3c044294	0.008072514
26	0x3df041d2	0.11731304
27	0x3cf8c9e7	0.030369712
28	0x3c1bf62c	0.009519141
29	0x3c64714c	0.013943028
30	0xbcb0f408	-0.021600738
31	0x3b9af8ef	0.004729382
32	0x371acc1d	9.226639e-06
33	0x3d640cf2	0.055676408
34	0x3c9413cc	0.018075846
35	0x3e091c5a	0.13389722
36	0x3d887c10	0.06664288
37	0x3d2912cb	0.041277688
38	0x3db0a705	0.086256064
39	0xbf7134eb	-0.9422137
40	0xbda83939	-0.08214039
41	0xbd37a1ac	-0.044831917
42	0x3d939cc8	0.07207638
43	0x3cf99594	0.030466832
44	0x3c73b84a	0.014875481
45	0xbab39fc5	-0.0013704231
46	0x3d091a32	0.033472247
47	0x3d096e02	0.033552177
48	0xbd0dc9b6	-0.034616195
49	0x3d8c9639	0.0686459
50	0xbc83a127	-0.016068054
51	0x3d4cb56f	0.049977716
52	0x3d87e5ee	0.066356525
53	0xbd0fe3ae	-0.03512924
54	0xbac59b75	-0.0015076237
55	0x3c8118a3	0.015758818
56	0xbd3a49d1	-0.045480553
57	0xbd948e17	-0.07253664
58	0xbca30917	-0.019901795
59	0x3e1642d1	0.14673926
60	0x3e81a221	0.25319007
61	0x3b4dd837	0.0031409392
62	0xbd737cf9	-0.059445355
63	0x3e06b861	0.13156272
64	0x3b99617b	0.00468081
65	0x3e686171	0.22693421
66	0xbf01d848	-0.50720644
67	0x3d6c62a6	0.057711266
68	0xbb27271c	-0.0025505489
69	0x3cce4d90	0.025183469
70	0x3d3306e4	0.043707743
71	0x3c9f5536	0.019449811
72	0x3e00fda2	0.12596753
73	0xbccb1c7c	-0.024793856
74	0xbc086b98	-0.008326434
75	0xbb2fe9ed	-0.0026842311
76	0xba3094cd	-0.000673604
77	0x3dc65c9c	0.096856326
78	0x3e82eae6	0.25569838
79	0xbdc95d2a	-0.09832223
80	0x3e159768	0.14608538
81	0x3d65e919	0.056130502
82	0xbd8cb7c8	-0.06870991
83	0x3e131b91	0.14365984
84	0x3e51ac6e	0.20475933
85	0xbc0181a0	-0.00790444
86	0x3c6d1478	0.014470212
87	0xbdab1763	-0.0835407
88	0x3e0a8c7d	0.13530155
89	0xbf039092	-0.5139247
90	0x3dd3428d	0.10315428
91	0x3e2b196d	0.16708918
92	0x3df5a15d	0.11993668
93	0x3c9d2554	0.019182838
94	0x3e9d8b87	0.30770513
95	0xbd88aa45	-0.06673101
96	0x3ccd8c61	0.025091352
97	0x3d6b581e	0.057457082
98	0x397c89f2	0.00024083981
99	0xbe19dd0a	-0.15025726
100	0xbd3e9721	-0.046530847
101	0xbe10cf09	-0.14141478
102	0x3dd9b488	0.10630137
103	0xbd44e375	-0.048068482
104	0x3bd69879	0.006548938
105	0x3ca3cb16	0.0199943
106	0xbed6f2ef	-0.4198222
107	0x3ee97612	0.45597893
108	0xbd9884a3	-0.074471734
109	0x3cfbc8f3	0.030735468
110	0x3acca2a2	0.0015612433
111	0x3e0bcdd1	0.13652731
112	0xbd93ef48	-0.07223374
113	0xbc939c2a	-0.0180188
114	0x3eab3176	0.33436173
115	0xbd3ec9e4	-0.046579257
116	0xbd3ae61c	-0.045629606
117	0xbdba1b28	-0.09087211
118	0xbd675433	-0.056476783
119	0x3c7b0395	0.015320678
120	0xbdb8ef57	-0.090300255
121	0xbd7b1267	-0.061296847
122	0xbc941172	-0.018074725
123	0x3e466a05	0.1937638
124	0x3d34ce86	0.04414227
125	0x3ca96927	0.020680023
126	0x3e5e7ce7	0.21727334
127	0xbc232c02	-0.009959223
128	0xbe8dcfab	-0.276975
129	0x3d707637	0.05870649
130	0x3bbc5919	0.005747926
131	0x3dff3b8c	0.124625295
132	0xbe425984	-0.1897946
133	0x3e5b2cdc	0.21403831
134	0xbc8d60b2	-0.017258022
135	0xbabbb491	-0.0014320781
136	0x3e035698	0.12826002
137	0x3e929313	0.28627834
138	0x3c94aa2a	0.018147547
139	0x3bdb6b40	0.006696135
140	0xbd982fe7	-0.07431012
141	0x3a909c99	0.0011032998
142	0xbd2d19b4	-0.04226084
143	0xbcd54113	-0.026032006
144	0x3d793f1b	0.060851198
145	0xbb630b5e	-0.0034644227
146	0xbb78ab0e	-0.0037943753
147	0xbdea4dd1	-0.114406236
148	0xbe9b37ee	-0.30316108
149	0xbd0d51c0	-0.03450179
150	0xba5a97de	-0.000833867
151	0xbe095eaf	-0.13415025
152	0x3d0b3072	0.033981748
153	0xbb83d446	-0.0040231077
154	0xbe8cc4a0	-0.27493763
155	0xbedfa790	-0.43682528
156	0xbd00cb38	-0.031443805
157	0x3c822a92	0.01588944
158	0x3b70834f	0.003669936
159	0x3af1f9c1	0.0018461273
160	0xbcaaabea	-0.020833928
161	0x3d400838	0.046882838
162	0x39afda3a	0.00033541193
163	0x3c840559	0.016115831
164	0x3d5537dc	0.052055225
165	0x3d81b203	0.06332781
166	0x3d22a9e3	0.039712798
167	0x3c897e15	0.016783753
168	0x3cf0fbfa	0.029417027
169	0xbd28340b	-0.041065257
170	0x3d2ca6cb	0.042151254
171	0xbd8d0ddb	-0.06887408
172	0x3bed0458	0.007233184
173	0xbb815b1f	-0.00394763
174	0x3b578ae4	0.0032889182
175	0x3b9aa3d4	0.004719237
176	0xbdbe49bd	-0.09291408
177	0xbd12d056	-0.035843216
178	0xbc69e98f	-0.014276876
179	0x3de4913f	0.11160516
180	0x3c03d096	0.008045336
181	0x3da5384e	0.0806738
182	0xbcfdbe72	-0.0309746
183	0xbccd438f	-0.025056629
184	0x3e3ffaea	0.1874806
185	0x3d66f2c5	0.056383867
186	0x3d15c990	0.036569178
187	0x3d1449e4	0.03620328
188	0x3e4763ac	0.19471616
189	0xbddc18c6	-0.10746913
190	0x3e1056e4	0.14095646
191	0xbd4ad796	-0.049522005
192	0xbbea3384	-0.0071472544
193	0x3dfcb8b6	0.12339918
194	0x3d9b56bd	0.075849034
195	0x3d7fa95b	0.06241737
196	0x3d119b69	0.0355486
197	0xbcaa4286	-0.020783674
198	0x3a924dbe	0.0011162085
199	0x3d801937	0.06254809
200	0x3ea855af	0.3287787
201	0x3cd25be4	0.025678582
202	0x3c8d161c	0.017222457
203	0xbc2736a5	-0.010205899
204	0xbc56df2a	-0.01311473
205	0x3e411a20	0.18857622
206	0xbd48b17e	-0.048997395
207	0xbb78fa03	-0.0037990815
208	0xbe514c13	-0.20439176
209	0x3bdb2022	0.00668718
210	0xba2fd98e	-0.00067081384
211	0x3e25698c	0.16153544
212	0x3dd98561	0.10621143
213	0x3cc70ba8	0.02429755
214	0xbd21e9e0	-0.03952968
215	0x3d4c4cc4	0.049877897
216	0xbe1a7e7b	-0.15087311
217	0x3dfaf0a4	0.1225293
218	0xbf72eebb	-0.94895524
219	0xbd72c0af	-0.05926579
220	0x3e054fa6	0.13018665
221	0xbf06fa4b	-0.52725667
222	0x3e776dc5	0.24162968
223	0xbe19648b	-0.1497976
224	0xbcf9b0a0	-0.03047973
225	0xbf03acef	-0.5143575
226	0x3ca7fc0f	0.020505933
227	0x3cc62194	0.024185933
228	0xbd780999	-0.060556028
229	0x3e880191	0.26563695
230	0x3e1c1334	0.152417
231	0x3e0ca386	0.13734254
232	0xbcef2019	-0.02919011
233	0xbe716fdf	-0.23577832
234	0x3dbace2b	0.09121355
235	0x3ea79431	0.3273025
236	0x3da9913d	0.08279655
237	0xbca59214	-0.020211257
238	0xbdad4a39	-0.084614225
239	0xbd81bd05	-0.06334881
240	0xbcc21ef5	-0.023696402
241	0xbc592f6a	-0.013255933
242	0x3edb37ac	0.42815912
243	0xbb47cbec	-0.0030486537
244	0xbb6656bc	-0.0035146913
245	0xba2b3bbb	-0.0006532033
246	0xbd37fadd	-0.044916976
247	0xbbcfcdd1	-0.006341674
248	0x3cd37648	0.025813237
249	0x3d6304b7	0.05542442
250	0x3d39524c	0.0452445
251	0x3e10adad	0.14128752
252	0x3d813bb4	0.063102156
253	0xbb3cbad0	-0.0028797872
254	0x3dcd757c	0.10032174
255	0x3d29fb71	0.04149956

fc3.bias f4 [4]
0	0x3e0f88e9	0.14017071
1	0x3e05c0a6	0.13061771
2	0x3e039101	0.12848283
3	0x3e43f681	0.19137003
