models/dqn_gridword_classification.pth (torch, 72965 bytes, 6 tensors)

fc1.weight f4 [128, 2]
0	0x3e56100f	0.20904563
1	0xbbd8d24e	-0.006616867
2	0x3e0a6194	0.13513786
3	0x3ece9f21	0.4035578
4	0x3f271ef7	0.65281624
5	0xbed14e3c	-0.4088
6	0x3e2e7e95	0.17040475
7	0xbf52c65b	-0.82333916
8	0xbf4fd25d	-0.81180364
9	0x3e23e7eb	0.16006438
10	0xbf3aad29	-0.7292047
11	0xbf46a883	-0.7760088
12	0x3dc63648	0.09678322
13	0xbc03977d	-0.008031723
14	0x3ee0bf41	0.43895915
15	0xbf2d344d	-0.6765793
16	0x3ed7099b	0.41999516
17	0xbd57bf9b	-0.052672964
18	0x3dd8e1d2	0.10589947
19	0x3e29a00c	0.1656496
20	0x3e8083df	0.2510061
21	0xbe67834f	-0.22608684
22	0xbf2fc982	-0.6866685
23	0xbf029389	-0.5100637
24	0xbe8139d0	-0.2523942
25	0xbeed320b	-0.46327242
26	0x3f52d5c4	0.8235743
27	0x3f2b0205	0.66799957
28	0x3ebcab2b	0.3684934
29	0xbe1c735d	-0.15278383
30	0x3ea26b6a	0.31722575
31	0xbe9d746a	-0.3075288
32	0xbee68979	-0.45026758
33	0x3d45d30d	0.048296977
34	0xbdb4f6f4	-0.08836165
35	0x3d359a5e	0.04433667
36	0xbb805b63	-0.003917144
37	0xbc8dee73	-0.017325616
38	0x3c96eae6	0.018422555
39	0x3e4c6f9c	0.1996445
40	0xbc857419	-0.016290711
41	0xbc31f080	-0.010860562
42	0xbeafe60a	-0.34355193
43	0xbdd7464c	-0.10511455
44	0xbf632524	-0.8872855
45	0x3ce1ea0f	0.027577428
46	0xbe8480d1	-0.2587953
47	0xbe2c55c9	-0.168296
48	0x3dae779f	0.0851891
49	0x3c06daf3	0.0082309125
50	0x3edb47ee	0.42828315
51	0xbecbecfd	-0.39829245
52	0x3e2784db	0.16359274
53	0xbc15ca66	-0.009142494
54	0x3de543a0	0.11194539
55	0xbb88c604	-0.004173996
56	0xbe2f74f9	-0.17134465
57	0xbe9c92ea	-0.30580837
58	0xbead4e77	-0.33848926
59	0x3eb912f0	0.3614726
60	0xbeec1a13	-0.46113643
61	0xbed3f1d1	-0.4139543
62	0x3b7d37d1	0.0038638005
63	0xbdc340c9	-0.09533841
64	0x3e90d8ec	0.28290498
65	0x3e39da57	0.18149696
66	0x3eecec89	0.46274212
67	0xbf08c1b7	-0.53420585
68	0xbe8d3468	-0.27579045
69	0x3e109e18	0.14122808
70	0xbdcd3495	-0.10019795
71	0xbf3c437f	-0.7354049
72	0x3e868c78	0.26279044
73	0xbd9a637c	-0.075385064
74	0xbeaf6fc3	-0.34264955
75	0xbdf07caa	-0.11742528
76	0x3ef8ed36	0.48618478
77	0x3e615ad5	0.22007306
78	0xbc197736	-0.009366801
79	0xbc62ffde	-0.013854949
80	0x3eaedb40	0.3415165
81	0xbf06fe54	-0.52731824
82	0x3e556879	0.20840634
83	0xbddebf84	-0.108763725
84	0x3dc60f84	0.09670928
85	0xbee7f660	-0.45305157
86	0x3f7bac18	0.9830947
87	0x3e1cc5d2	0.15309837
88	0x3e40bf79	0.18823041
89	0x3f3ca7d9	0.73693615
90	0xbedff429	-0.43740967
91	0xbf29a417	-0.66266006
92	0x3e5c8650	0.21535611
93	0x3f42366e	0.75864303
94	0xbd8d5f19	-0.06902904
95	0x3da6be7d	0.081418015
96	0x3b95b4d6	0.0045686765
97	0xbd428c1e	-0.047496907
98	0x3dfb736b	0.122778736
99	0x3d1cb1fe	0.038255684
100	0xbf26f79d	-0.6522158
101	0x3ec79032	0.389772
102	0xbf01f939	-0.5077091
103	0x3f009afa	0.50236475
104	0x3edac1f6	0.42726105
105	0xbea03bbd	-0.31295577
106	0x3ec35ab2	0.38155133
107	0xbe93c47a	-0.28860837
108	0x3e907988	0.2821772
109	0xba9570ef	-0.0011401455
110	0xbede395f	-0.43403146
111	0xbf3d2393	-0.73882407
112	0x3ec94e57	0.3931758
113	0x3eaf9117	0.34290382
114	0x3e040a4e	0.12894556
115	0xbe2ac12b	-0.1667525
116	0xbef63b62	-0.4809218
117	0x3d15b536	0.03654977
118	0x3eb222f8	0.34792304
119	0x3de13847	0.10997062
120	0xbe85198a	-0.25996047
121	0xbf615b63	-0.8803007
122	0xbc4798de	-0.0121824425
123	0xbe0ccb71	-0.13749482
124	0xbf0fa9b0	-0.561183
125	0x3e87c893	0.26520213
126	0xbdd5004a	-0.10400446
127	0x3e86828f	0.26271483
128	0xbeb1327b	-0.34608826
129	0xbf062a73	-0.5240852
130	0x3ebdaeb2	0.37047344
131	0xbe005e48	-0.12535965
132	0x3e31344c	0.17305106
133	0x3f160039	0.5859409
134	0x3e97f639	0.2968004
135	0x3d725b01	0.05916882
136	0xbed37530	-0.41300344
137	0x3e9731ff	0.29530331
138	0x3f10cba1	0.56560713
139	0xbca53b61	-0.020169916
140	0x3f2f28b0	0.6842146
141	0x3d4ddb12	0.05025775
142	0xbce3082b	-0.027713856
143	0x3dfd024d	0.123539545
144	0xbebc3efb	-0.367668
145	0x3dd935fa	0.10605998
146	0x3ea1e09f	0.31616685
147	0xbd9bfb0b	-0.07616242
148	0x3cd456b1	0.025920244
149	0x3c5cb52d	0.01347093
150	0xbe614f0d	-0.22002812
151	0xbecd9314	-0.40151274
152	0x3c990701	0.018680098
153	0xbd113aa6	-0.035456322
154	0x3e540a99	0.20707168
155	0x3f25220d	0.6450508
156	0x3dc69705	0.096967734
157	0x3cc000e3	0.023437923
158	0xbd0bd82b	-0.0341417
159	0xbef79adb	-0.48360333
160	0x3eab84cc	0.33499753
161	0xbdae0020	-0.084961176
162	0xbe2d629f	-0.16932152
163	0xbe84684c	-0.25860822
164	0xbf5a095c	-0.8517053
165	0xbf342463	-0.7036802
166	0x3f000785	0.50011474
167	0x3ce16dae	0.02751812
168	0xbf18daf3	-0.5970909
169	0xbd81182f	-0.06303441
170	0x3dc2fa01	0.09520341
171	0x3dbcdc85	0.09221748
172	0x3e5923dc	0.21205086
173	0x3d2a3a73	0.041559648
174	0xbe130e7b	-0.14360993
175	0xbf8c15c8	-1.0944147
176	0x3e1655d5	0.1468118
177	0x3e053d39	0.13011636
178	0x3e3fb51d	0.18721433
179	0x3f0151bf	0.5051536
180	0xbf279941	-0.6546822
181	0xbbe1dada	-0.006892544
182	0xbe6a5ece	-0.22887728
183	0x3e3d728e	0.1850073
184	0x3edc8f21	0.4307795
185	0x3e1d308d	0.15350552
186	0xbebf9c09	-0.37423733
187	0xbf032024	-0.5122092
188	0x3e9db259	0.3080013
189	0x3f25ceed	0.6476887
190	0x3e0de512	0.13856915
191	0x3e24c43f	0.16090487
192	0xbea1096c	-0.314525
193	0x3f6b07d6	0.9180883
194	0xbb3856fc	-0.0028128019
195	0x3dd8a516	0.10578363
196	0x3f343736	0.70396745
197	0xbbe2902b	-0.006914159
198	0xbebef815	-0.37298647
199	0xbe9120d0	-0.28345346
200	0x3d49f866	0.049309157
201	0xbe9b7a78	-0.30366874
202	0x3e62f53c	0.22163862
203	0xbf1c7ff2	-0.6113273
204	0x3eac8c34	0.33700716
205	0x3f3b27d1	0.7310763
206	0x3e4cc57e	0.19997212
207	0xbe9f8522	-0.3115626
208	0xbe7eaf38	-0.24871528
209	0xbec306bd	-0.38091078
210	0x3ead9ce6	0.33908767
211	0x3de1f74e	0.11033498
212	0xbc8dc107	-0.017303957
213	0xbc2ef31b	-0.010678078
214	0x3e13c4d1	0.14430548
215	0x3eb93603	0.3617402
216	0xbda392fd	-0.0798702
217	0x3e1d6157	0.15369163
218	0xbe0ac6ac	-0.1355235
219	0x3c610359	0.013733708
220	0x3d42e2b1	0.04757947
221	0x3e3c493a	0.18387309
222	0x3f78dbf6	0.97210634
223	0xbe073fef	-0.13207982
224	0xbe4d9069	-0.2007462
225	0x3e01bcdf	0.12669705
226	0x3e08aa4d	0.13346215
227	0x3e88b469	0.26700142
228	0xbb6a5e4e	-0.0035761776
229	0xbc8e8788	-0.01739861
230	0x3e3eda17	0.18637882
231	0x3d2b16d8	0.041769832
232	0x3e48ab24	0.19596535
233	0x3bfceabf	0.0077184136
234	0x3f148e8d	0.58030015
235	0xbe95c29b	-0.29250035
236	0xbe7b2389	-0.24525274
237	0xbf59a535	-0.8501771
238	0xbc2bc737	-0.010484508
239	0xbebe4a7a	-0.37166196
240	0xbf385755	-0.7200826
241	0x3d000b61	0.03126085
242	0xbe706ad0	-0.23478246
243	0x3f3b8c9a	0.73261416
244	0xbec19c77	-0.37814686
245	0x3f47a771	0.7798987
246	0x3e7fb9b4	0.24973184
247	0x3f3fb0e3	0.7487928
248	0xbef0e559	-0.47049978
249	0xbf3e37b7	-0.74303764
250	0x3f4f1403	0.8088991
251	0x3ecbd3df	0.39810082
252	0xbeb43a99	-0.35200956
253	0x3f21db2b	0.6322505
254	0xbf3e5cab	-0.7436015
255	0xbed7411a	-0.42041856

fc1.bias f4 [128]
0	0xbeabf410	-0.33584642
1	0xbf416889	-0.75550133
2	0xbf158f3b	-0.5842168
3	0xbf1fa484	-0.62360406
4	0xbf53ef5d	-0.82787114
5	0x3d0fdbdf	0.035121795
6	0x3f17d061	0.59302336
7	0x3cef0ccc	0.029180907
8	0xbf387134	-0.72047734
9	0xbeb33e9f	-0.35008714
10	0x3e2f2d8f	0.17107223
11	0xbf559b07	-0.8343968
12	0x3f0f76f1	0.56040865
13	0xbe9a6f2c	-0.30162942
14	0x3f11ba65	0.5692504
15	0xbf273c86	-0.65326726
16	0xbf3a0922	-0.72670186
17	0xbe47e1fc	-0.195198
18	0xbcfe8487	-0.031069053
19	0x3e8cc012	0.27490288
20	0xbd1c3219	-0.038133714
21	0x3f1e0bc4	0.617367
22	0x3f2c4b87	0.67302746
23	0xbf243599	-0.64144284
24	0xbe0c780d	-0.1371767
25	0x3e9ea7ce	0.309874
26	0xbe9a3d98	-0.30125117
27	0xbe39263d	-0.18080993
28	0x3ecc2fbd	0.3988017
29	0xbf524f87	-0.821526
30	0x3f36fc52	0.7147876
31	0xbe118f0c	-0.14214724
32	0xbf1509a5	-0.5821784
33	0xbf262011	-0.6489268
34	0xbf1fbcf8	-0.6239772
35	0xbf5b1d78	-0.8559184
36	0xbf04c8f4	-0.5186913
37	0x3f8652c1	1.0494004
38	0x3f15c8f4	0.58509755
39	0xbd0cd5d9	-0.03438363
40	0xbeed0986	-0.46296328
41	0xbef6c81b	-0.48199543
42	0x3e960d5f	0.29307076
43	0xbf9073fe	-1.1285398
44	0xbf103ec2	-0.5634576
45	0x3f2f344e	0.68439186
46	0xbf19fb35	-0.60148937
47	0x3f89bd67	1.0760926
48	0xbd98de51	-0.074642785
49	0xbe607139	-0.21918191
50	0xbf39cf50	-0.7258196
51	0x3f361075	0.7111886
52	0x3f5f8b67	0.87322086
53	0x3e9dfa94	0.30855238
54	0x3f2b19c0	0.66836166
55	0xbdeebb86	-0.11656861
56	0x3e91b7fd	0.28460684
57	0x3eb09a2d	0.34492627
58	0xbf41d7f2	-0.7572013
59	0x3f5b80bb	0.857433
60	0xbeae4132	-0.34034115
61	0x3db5bf4b	0.08874377
62	0xbf5824fd	-0.8443144
63	0x3ef1f9d3	0.47260913
64	0x3f0a10fb	0.5393216
65	0x3ef37407	0.4754946
66	0x3f21acf7	0.6315455
67	0x3f2507ea	0.644652
68	0xbf5f9b77	-0.87346596
69	0xbf171d7d	-0.5902937
70	0xbf6b00c1	-0.91798025
71	0x3ea581c3	0.32325563
72	0xbf310054	-0.69141126
73	0x3f06a196	0.5259031
74	0xbd57f4fb	-0.052723866
75	0x3f05266e	0.52011764
76	0xbda70399	-0.08154983
77	0x3e86c9b2	0.26325756
78	0xbe31470a	-0.17312256
79	0xbf3b93a1	-0.7327214
80	0x3f1067e6	0.56408536
81	0x3f566570	0.8374853
82	0x3e351e75	0.176874
83	0x3f803269	1.0015384
84	0xbf1d7d37	-0.6151919
85	0x3e2a0f3b	0.16607372
86	0xbeb7cf1d	-0.35900202
87	0xbf0e5fca	-0.5561491
88	0xbec3007c	-0.38086307
89	0xbf0fc2f4	-0.5615685
90	0x3ef5436a	0.47902995
91	0xbf1f36c6	-0.6219295
92	0x3f8408c4	1.0315175
93	0xbf2590ca	-0.64674056
94	0xbf45db87	-0.772881
95	0xbec64630	-0.38725424
96	0x3f556353	0.8335468
97	0xbe4fdf16	-0.20299944
98	0xbf8d408a	-1.1035321
99	0x3f8b0609	1.0861217
100	0xbcdf7c22	-0.02728087
101	0x3f3ecc0a	0.7453009
102	0xbf5b6c85	-0.8571246
103	0x3aa18a25	0.0012324495
104	0x3f16e9bd	0.58950406
105	0x3f526952	0.82191956
106	0xbd2400f6	-0.04003998
107	0x3f81adc2	1.0131152
108	0xbcb1ffe4	-0.021728463
109	0xbe5b21e4	-0.21399647
110	0x3e920362	0.28518206
111	0xbf796480	-0.97418976
112	0xbf241131	-0.6408873
113	0xbf086647	-0.5328106
114	0xbcef06c4	-0.02917803
115	0x3d4d244d	0.050083447
116	0xbe9f47d8	-0.311095
117	0x3f3e6ec3	0.7438776
118	0xbf644352	-0.8916522
119	0x3f2c76b4	0.67368627
120	0xbefdc03a	-0.4956072
121	0xbf1f4582	-0.62215436
122	0xbdd53ea6	-0.1041234
123	0x3f424ab7	0.75895256
124	0xbdbd8cab	-0.09255346
125	0xbf3e53c8	-0.7434659
126	0x3f2e1643	0.6800272
127	0xbe8cc57c	-0.2749442

fc2.weight f4 [128, 128]
0	0xbdee00e9	-0.11621267
1	0xbf9a88eb	-1.2073034
2	0xbf0be7b8	-0.5465045
3	0xc00c984a	-2.196795
4	0xbf0e819f	-0.55666536
5	0xbf0a80dc	-0.54102874
6	0x3d8b99f3	0.06816473
7	0x3ce41753	0.027843153
8	0xbf23531e	-0.637987
9	0xbe14c4d3	-0.14528207
10	0x3db93acb	0.09044417
11	0xbf1a768d	-0.60337144
12	0xbd82a127	-0.063783936
13	0xbf1ff514	-0.62483335
14	0x3dc9b55e	0.09849046
15	0xbf541251	-0.8284045
16	0xbcb03dd9	-0.021513866
17	0xbf44b7a3	-0.7684271
18	0xbed9b5c4	-0.4252149
19	0xbd9b95bc	-0.07596919
20	0xbdbabb2a	-0.0911773
21	0xbed228fb	-0.4104689
22	0x3e1a4539	0.15065469
23	0x3d09d2c8	0.033648282
24	0xbe32cd4b	-0.17461126
25	0x3cfc85fe	0.030825611
26	0x3c9dab94	0.019246854
27	0xbdfb3b3c	-0.122671574
28	0xbd2cf590	-0.042226374
29	0xbf780a75	-0.96890956
30	0xbe4f2fb8	-0.20233047
31	0xbdefb0e2	-0.117036596
32	0x3f18845c	0.59576964
33	0xbfec1793	-1.8444694
34	0xbe8753cb	-0.26431116
35	0xbeec383d	-0.46136656
36	0xbf669d78	-0.9008403
37	0x3c79778a	0.015226254
38	0xbd9e9439	-0.07743115
39	0xbef81af6	-0.4845807
40	0xbf000d29	-0.5002008
41	0xbf02a209	-0.51028496
42	0xbcb2fbea	-0.021848638
43	0xbf0cc732	-0.5499145
44	0x3e16f4d9	0.1474184
45	0xbdd116b5	-0.10209409
46	0xbe8121da	-0.2522114
47	0x3e23b8ed	0.15988512
48	0xbd445542	-0.04793287
49	0xbdf3994d	-0.11894474
50	0xbb9b4ad2	-0.004739144
51	0xbd2569a1	-0.04038394
52	0x3e2061a1	0.15662242
53	0x3da9ba7a	0.08287521
54	0x3d1fd967	0.03902569
55	0xbf8e8c67	-1.1136597
56	0xbd6c6119	-0.057709787
57	0x3d323589	0.043508086
58	0xbf8774f5	-1.0582567
59	0x3cdb3f26	0.02676351
60	0xc016bd10	-2.3552895
61	0xbd6a56f4	-0.05721183
62	0xbe7cf030	-0.24701
63	0xbf39a44d	-0.7251633
64	0xbe87b802	-0.26507574
65	0x3d6270be	0.0552833
66	0xbd6dfa32	-0.058099933
67	0x3bf3686e	0.0074282205
68	0xbbe57eb1	-0.007003628
69	0xbf5d6746	-0.8648571
70	0xbeb6ad14	-0.35678923
71	0xbeafbd17	-0.34323952
72	0xbf65576a	-0.8958651
73	0x3dc0c884	0.09413245
74	0xbe31a391	-0.17347552
75	0xbe3449bc	-0.17606252
76	0xbdd97f1d	-0.10619948
77	0x3e1c9d5c	0.15294403
78	0xbb88dfb5	-0.0041770586
79	0xbe464573	-0.1936243
80	0x3db18b1f	0.08669113
81	0x3db41b3e	0.087942585
82	0x3f91b550	1.1383457
83	0x3d55e1dc	0.05221735
84	0xbf81eaab	-1.014974
85	0xbf85b948	-1.0447168
86	0x3ca82ddd	0.020529682
87	0xbff90bb4	-1.9456697
88	0xbe9cce6b	-0.30626234
89	0x3d1a021f	0.03759968
90	0xbe8d48bc	-0.27594554
91	0xbe53cf8c	-0.20684642
92	0x3e0e2d39	0.13884439
93	0xbebff831	-0.37494043
94	0xbf01cf0e	-0.50706565
95	0xbcb1ae53	-0.02168957
96	0x3ec36a5c	0.38167083
97	0xbe3d0c4c	-0.18461722
98	0xbfc32106	-1.5244453
99	0x3e11c3ae	0.14234802
100	0xbe9467be	-0.289854
101	0x3bb3aa6f	0.0054829638
102	0xbe731b40	-0.23740864
103	0xbd2c3dd1	-0.04205114
104	0xbcc23cd9	-0.023710655
105	0x3ddbbdda	0.10729571
106	0xbf0a9f46	-0.5414928
107	0x3d8e8259	0.069584556
108	0xc08a0249	-4.312779
109	0xbf3e7bd6	-0.7440771
110	0x3ce4f60d	0.027949357
111	0xbf49d27a	-0.78836787
112	0x3d350e5a	0.04420314
113	0xbdf9e9ce	-0.12202798
114	0x3bfb4e59	0.007669252
115	0xbda0b873	-0.07847681
116	0xbe788dd0	-0.24272847
117	0x3db88374	0.09009448
118	0xbef4293c	-0.4768771
119	0x3e046e9c	0.12932819
120	0xbf82397a	-1.017379
121	0xbe70e935	-0.23526461
122	0xc0ce9e91	-6.4568563
123	0x3ca3a9ec	0.019978486
124	0xbff77934	-1.9333863
125	0xbf0ecd41	-0.5578194
126	0xbcf340a9	-0.029693918
127	0xbf0863a5	-0.53277045
128	0xbcbfa6aa	-0.023394901
129	0x39dc1370	0.00041976152
130	0xbbc0dbde	-0.005885585
131	0x3c3cdbd0	0.011527017
132	0xbcf287d2	-0.02960578
133	0xbd0c899b	-0.03431092
134	0x3d9c946a	0.07645495
135	0x3d72c9f7	0.05927464
136	0xbbd3da64	-0.006465243
137	0xbd9ea363	-0.07746007
138	0xbd4e3c15	-0.050350267
139	0xbd8fa7cd	-0.07014427
140	0xbd0bf624	-0.034170285
141	0xbdb7bc68	-0.089714825
142	0xbd651e06	-0.055936836
143	0xbca8ee93	-0.020621574
144	0xbd5ae9b1	-0.05344552
145	0x3cc0b05f	0.0235216
146	0xbda9b8ac	-0.082871765
147	0x3d98487e	0.07435702
148	0xbc9b1ab5	-0.018933633
149	0x3c878f87	0.016547931
150	0x3cee3518	0.029078051
151	0xbd9aa4a5	-0.07550935
152	0xbcbaa63b	-0.022784343
153	0x3cec6dfe	0.028861042
154	0x3d5593e7	0.052143004
155	0x3d59c42d	0.053165603
156	0xbd9a453f	-0.07532739
157	0xbd3dd29c	-0.04634343
158	0xbd80e6b6	-0.062940046
159	0x3d28b2b6	0.041186057
160	0xbd36af5b	-0.044600826
161	0xbd1eedf3	-0.038801145
162	0xbdbd85f7	-0.092540674
163	0xbd1c24d3	-0.038121056
164	0xbda0bf0c	-0.07848939
165	0xbd6b83df	-0.05749881
166	0xbd5d88c9	-0.054085527
167	0x3c5dba00	0.013533115
168	0x3d8a70ee	0.06759821
169	0x3ce69e72	0.028151724
170	0xbc5b5a61	-0.013388247
171	0xbd616608	-0.055028945
172	0x3d447d7a	0.047971226
173	0x3a427459	0.000741785
174	0x3c6c2e72	0.01441537
175	0x3d1eb637	0.038747992
176	0x3d4c5d82	0.049893863
177	0xbd8eeb96	-0.06978528
178	0xbc9f34e8	-0.019434407
179	0xbdc17446	-0.094460055
180	0x3d89cd4a	0.06728609
181	0x3ca85556	0.020548504
182	0x39c927fa	0.00038367492
183	0xbc84664d	-0.016162062
184	0xbcc195f6	-0.023631077
185	0xbcc91fe8	-0.024551347
186	0x3c5cedab	0.013484399
187	0xbcfd2095	-0.030899325
188	0xbdb0c992	-0.086321965
189	0x3c99fc24	0.018796988
190	0x3c805313	0.015664613
191	0x3ce13715	0.027492085
192	0x3cecf909	0.028927343
193	0x3ad06187	0.0015898206
194	0xbdb13ee3	-0.08654573
195	0xbd90b79f	-0.07066273
196	0xbd71c85c	-0.05902897
197	0x3d745852	0.05965454
198	0xbdbd2e3c	-0.09237334
199	0xbc766476	-0.0150386
200	0x3d07bd9a	0.033139803
201	0x3d758f86	0.059951328
202	0x3c2a6ddd	0.01040217
203	0xbb7a4ed9	-0.003819397
204	0x3d9529e2	0.07283379
205	0x3d31cb08	0.043406516
206	0xbc2902cd	-0.010315609
207	0x3d3c22c1	0.04593158
208	0x3d19d543	0.037556898
209	0xbc3a00ce	-0.011352731
210	0xbda52c13	-0.08065047
211	0x3c198089	0.009369024
212	0xbda8dbf8	-0.08245081
213	0xbdb7004e	-0.08935605
214	0xbc984744	-0.01858867
215	0xbd5b0486	-0.05347111
216	0xbda776c4	-0.081769496
217	0xbd62a65a	-0.055334426
218	0x3cdb3f85	0.026763687
219	0x3d6d86b6	0.0579898
220	0x3d1358b2	0.03597326
221	0xbd71a509	-0.05899528
222	0xbc741a5d	-0.014898864
223	0xbcd7c84f	-0.026340632
224	0xbcb1fd0b	-0.021727106
225	0xbdb385ae	-0.08765732
226	0x3d612301	0.054965023
227	0x3d8890cb	0.06668242
228	0xbc36f918	-0.011167787
229	0xbd656fa2	-0.056014664
230	0x3ceba7a0	0.028766453
231	0xbccab681	-0.024745228
232	0x3d4e200c	0.05032353
233	0x3cf05898	0.02933912
234	0xbd676669	-0.05649415
235	0xbccd2f83	-0.02504707
236	0x3b990cdd	0.004670723
237	0xbd9a7bd8	-0.075431526
238	0xbd388734	-0.045050815
239	0xbd723696	-0.05913409
240	0xba305cc4	-0.00067276903
241	0xbd9d302c	-0.07675204
242	0xbdb3f4b2	-0.08786906
243	0x3d7eea25	0.062235016
244	0xbcb3359b	-0.021876147
245	0xbd4f90a3	-0.050675046
246	0xbdab6f80	-0.08370876
247	0x3cb8fe61	0.022582235
248	0x3d39c888	0.045357257
249	0x3cde93a8	0.027170017
250	0x3d3241dd	0.043519843
251	0xbc3ae230	-0.011406466
252	0xbdaf7e16	-0.08568971
253	0x3d997891	0.07493699
254	0x3d2ab67b	0.041677933
255	0x3bb7ea2f	0.0056126337

fc2.bias f4 [128]
0	0x3e838920	0.25690556
1	0xbd44c8ae	-0.048042946
2	0xbcd1d08d	-0.02561214
3	0xbd81481c	-0.06312582
4	0x3f3853db	0.72002953
5	0x3c8d4444	0.017244466
6	0xbd49a3e0	-0.04922855
7	0xbc29a9c3	-0.010355416
8	0x3d96927c	0.073521584
9	0x3d66bd2b	0.05633275
10	0x3dacdd28	0.0844062
11	0x3e935178	0.28773093
12	0x3f1a684a	0.6031538
13	0x3d58b834	0.052910045
14	0xbdbe0006	-0.09277348
15	0x3d943930	0.0723747
16	0x3c73bf07	0.014877087
17	0xbd6e3c31	-0.05816287
18	0x3d04370e	0.032279067
19	0x3d8312bc	0.06400058
20	0xbd86a202	-0.06573869
21	0x3f0c1e7b	0.5473401
22	0x3d753c56	0.059871994
23	0x3eab85f7	0.33500645
24	0xbd7a5f70	-0.061126173
25	0x3cdbbbdb	0.026822975
26	0xbca154ac	-0.019693695
27	0xbda1ef8c	-0.07907018
28	0x3bd9811f	0.006637707
29	0xbcf3f2b2	-0.029778812
30	0x3e74c7b3	0.23904304
31	0x3d8fbb62	0.07018162
32	0xbc4c77f3	-0.01247977
33	0x3d144111	0.036194865
34	0x3f53d6a6	0.827494
35	0x3f472f5a	0.7780663
36	0xbc993f50	-0.018706948
37	0xbd666fc0	-0.056258917
38	0xbb1660ff	-0.0022945998
39	0x3cefadc0	0.029257655
40	0x3be41ee6	0.006961691
41	0x3e8c7190	0.2743039
42	0xbd09e760	-0.033667922
43	0x3e9b5b8f	0.3034329
44	0x3d873c5d	0.0660331
45	0xbdb5daca	-0.08879621
46	0x3f27848e	0.6543664
47	0x3cb5f7e2	0.022212926
48	0xbc1375f2	-0.009000288
49	0xbd50cc75	-0.050976235
50	0x3dc54cc6	0.09633784
51	0xbd6b0dde	-0.05738627
52	0x3d8e2862	0.06941296
53	0x3b22b80c	0.0024828939
54	0x3f54be66	0.83103025
55	0xbcb9ba9a	-0.022671986
56	0xbc15b2f4	-0.009136904
57	0x3db5ce27	0.08877211
58	0x3d4bb973	0.049737405
59	0xbc61338a	-0.013745198
60	0xbd8a5f47	-0.06756454
61	0x3ab65806	0.0013911731
62	0x3c90c75f	0.017673193
63	0xbd2b716c	-0.041856214
64	0x3db842f0	0.08997142
65	0x3db39494	0.087685734
66	0x3d3f7199	0.046739195
67	0x3caff748	0.021480218
68	0x3d89ced7	0.06728905
69	0xbd956333	-0.072943114
70	0x3d9c5a19	0.07634372
71	0xbd2b8135	-0.04187127
72	0xbd899c4b	-0.06719264
73	0x3b82e223	0.0039942428
74	0xbd31d355	-0.043414433
75	0xbd90d533	-0.070719145
76	0x3d2e4ca4	0.04255356
77	0xbca1741b	-0.019708684
78	0x3bad4225	0.005287426
79	0x3d943f36	0.07238619
80	0x3d303ea7	0.0430285
81	0xbda4a4ba	-0.080392316
82	0x3d14fed2	0.036375828
83	0xbdd7f9f0	-0.10545719
84	0x3dbbd8e9	0.09172232
85	0x3a83bcb1	0.0010050741
86	0xbcbf3703	-0.023341661
87	0xbda448a7	-0.0802167
88	0x3caeef9f	0.021354495
89	0x3f571098	0.84009695
90	0x3d33189a	0.043724634
91	0xbdae3403	-0.08506014
92	0x3eeaf586	0.45890445
93	0x3e3f9c11	0.18711878
94	0x3dcf2a8a	0.101155356
95	0x3e744103	0.23852925
96	0xbb9c3c12	-0.004767903
97	0xbbe24f8f	-0.006906457
98	0xbdae365c	-0.08506462
99	0x3f04d245	0.51883346
100	0x3e70af5f	0.23504399
101	0x3f371739	0.7151981
102	0xbd8da8e3	-0.06916978
103	0xbbf60a46	-0.007508549
104	0x3c6e37c9	0.014539667
105	0x3eaa127f	0.33217236
106	0x3dd2af51	0.10287345
107	0x3c15804b	0.009124826
108	0xbcdf0220	-0.027222693
109	0xbd40f9a1	-0.047113065
110	0xbde05bfe	-0.10955046
111	0x3e45a6be	0.19301888
112	0x3ca2af78	0.01985906
113	0x3d2d95fa	0.042379357
114	0xbd39e495	-0.04538401
115	0x3c8a037f	0.01684737
116	0xbc59f84d	-0.013303828
117	0xbd5557bd	-0.052085627
118	0xbd8d976d	-0.06913648
119	0xbb768c51	-0.0037620256
120	0x3d0f9d10	0.035061896
121	0xbd9629b4	-0.07332173
122	0xbdc7b44c	-0.09751186
123	0xbcb7e741	-0.022449138
124	0x3dbeb57f	0.093119614
125	0x3f1e546d	0.61847574
126	0xbb323f4f	-0.002719838
127	0xbca18b0b	-0.019719621

fc3.weight f4 [4, 128]
0	0x3dc9c0c0	0.09851217
1	0x3d8491bb	0.064731084
2	0x3d931eea	0.07183631
3	0x3d766b01	0.06016064
4	0x3ebc3cd0	0.36765146
5	0x3b0f9e28	0.0021914337
6	0xbdad336e	-0.08457075
7	0x3bf9d11f	0.007623806
8	0x3c27bb5f	0.010237544
9	0x3df05a85	0.11736015
10	0x3d945a45	0.0724378
11	0xbd8452a5	-0.06461076
12	0x3ec447d8	0.38336062
13	0x3d614ae0	0.055003047
14	0xbd4a943c	-0.049457774
15	0x3d8e038c	0.0693427
16	0x3d7531a1	0.059861783
17	0x3c0b796d	0.008512837
18	0x3e1d2a18	0.15348089
19	0xbbdea372	-0.0067943865
20	0xbc4ed29f	-0.012623458
21	0x3ea23dd6	0.31687802
22	0xbc9e8b56	-0.01935355
23	0xbd201807	-0.039085414
24	0xbda66f62	-0.08126713
25	0xbc983a49	-0.01858248
26	0xbc5bd5f5	-0.013417711
27	0x3d30bdfb	0.04314993
28	0x3ce71a4c	0.028210782
29	0xbd594c2a	-0.05305115
30	0x3dfffbb2	0.12499179
31	0x3d80f901	0.06297494
32	0x3c10548d	0.008809221
33	0x3d4ff0af	0.050766643
34	0x3eceaaa5	0.40364566
35	0x3ed264db	0.41092572
36	0x3bec41bc	0.0072099846
37	0xbc65457f	-0.01399362
38	0x3c07c069	0.00828562
39	0xbcbdaf4b	-0.023154875
40	0xbcc6bbf0	-0.024259537
41	0x3e7526ce	0.23940584
42	0x3cc57e1d	0.024107987
43	0x3f622026	0.88330305
44	0x3b31f596	0.0027154437
45	0xbd0bc70b	-0.03412537
46	0x3ec24ec7	0.37950727
47	0x3d7f232a	0.062289394
48	0x3be49f6b	0.006977012
49	0xbd267963	-0.040643107
50	0x3cb96e54	0.022635616
51	0xbc8bfa18	-0.017087027
52	0x3d0ff1ad	0.03514259
53	0x3c17126f	0.0092207035
54	0x3ede1b9e	0.43380445
55	0x3c1433c5	0.009045546
56	0x3cbafb37	0.022824867
57	0xbc8b6ae8	-0.01701875
58	0x373b362d	1.1158682e-05
59	0xbd20f972	-0.03930039
60	0x3da15798	0.07878035
61	0x3d4ea3a7	0.05044904
62	0x3c434b5f	0.011919825
63	0x3cd9e889	0.02660014
64	0xbd311437	-0.04323217
65	0x3c9ad7f1	0.018901797
66	0xbe160c6f	-0.1465318
67	0x3dcd0a52	0.10011734
68	0xbc4285dd	-0.011872736
69	0x3d6f08e3	0.058358084
70	0x3d31ec5b	0.043438297
71	0x3da7e40e	0.08197795
72	0x3d3be2e4	0.045870677
73	0xbd29eb74	-0.04148431
74	0xbc6da306	-0.0145042
75	0x3c073c70	0.0082541555
76	0x3e5feb8e	0.218672
77	0xbca09a8a	-0.01960494
78	0x3d39db5c	0.045375213
79	0x3d5606c1	0.052252535
80	0xbc0b6db8	-0.008510046
81	0x3c346565	0.011010502
82	0xbc6b51ca	-0.014362762
83	0x3dc2a45c	0.09504005
84	0x3f087ab1	0.5331221
85	0x3cdcaa5c	0.026936702
86	0xbbf5de3a	-0.007503298
87	0xbd5545be	-0.052068464
88	0x3d5583f3	0.05212779
89	0x3eee7e8a	0.46580917
90	0x3d1bf265	0.038072962
91	0xbcd45467	-0.025919152
92	0x3e8cb8e3	0.27484807
93	0x3d5c1460	0.05373037
94	0xbe40326a	-0.18769231
95	0x3cde004c	0.027099751
96	0x3d7b7add	0.06139647
97	0x3d2c764c	0.042105004
98	0xbce8d642	-0.028422479
99	0x3ea5dd1e	0.32395262
100	0x3d3d6ebe	0.04624819
101	0x3ec9212d	0.39283124
102	0xbca0e27d	-0.019639248
103	0x3c5bdcdd	0.013419357
104	0xba2195cf	-0.0006163986
105	0x3e80bff3	0.25146446
106	0xba80c70e	-0.0009824948
107	0xbc922f4d	-0.01784482
108	0x3c219c5d	0.00986394
109	0xbc0f0cbf	-0.008731066
110	0x3d98215f	0.0742824
111	0xbe5555b8	-0.2083348
112	0xbcff546e	-0.031168189
113	0x3d4937ac	0.04912536
114	0x3dd0c9b4	0.10194722
115	0xbcc76cde	-0.024343904
116	0xbd1a0711	-0.037604395
117	0x3d588c86	0.05286839
118	0xbc7f176e	-0.015569551
119	0x3cd31b63	0.025769895
120	0x3d164d49	0.0366948
121	0xbb87a521	-0.004139558
122	0x3d782aac	0.06058757
123	0xbd9a37ad	-0.075301506
124	0xbc202434	-0.0097742565
125	0x3ebf110c	0.37317693
126	0x3d9e07f8	0.07716364
127	0x3d6b26e4	0.057410136
128	0x3d955594	0.07291713
129	0xbc93c8a7	-0.018040014
130	0xbd9122ac	-0.07086691
131	0x3d00dca7	0.03146043
132	0x3eb5d355	0.35512796
133	0x3d23cfc8	0.039993078
134	0x3dbd2cc6	0.092370555
135	0xbd129f6a	-0.03579656
136	0x3e3a60e3	0.18201022
137	0xbd5727e2	-0.05252827
138	0xbe626f2b	-0.2211272
139	0xbefd1b6f	-0.49434993
140	0x3e854a83	0.2603341
141	0xbd733aeb	-0.05938236
142	0x3c79a488	0.015236981
143	0x3dca71d4	0.09884992
144	0x3dd1345f	0.10215067
145	0x3cba3faf	0.022735445
146	0x3d9607dd	0.073257186
147	0x3d56ec16	0.052471243
148	0xbd29840e	-0.041385703
149	0x3e92d942	0.2868138
150	0x3dbddeb9	0.092709966
151	0xbee763cb	-0.45193323
152	0x3d1a016e	0.03759902
153	0xbdbedbb3	-0.09319248
154	0xbd4cf592	-0.05003888
155	0x3d06dae5	0.032923598
156	0xbbfc1eec	-0.007694116
157	0x3ba23bb4	0.004950965
158	0x3de36653	0.11103501
159	0x3d9f98e2	0.07792832
160	0x3d805574	0.06266299
161	0x3de3d7fc	0.1112518
162	0x3ed28b18	0.41121745
163	0x3eeaa5fb	0.45829758
164	0xbd81d736	-0.06339876
165	0xbda7dd25	-0.08196477
166	0x3e364500	0.17799759
167	0xbd2d7298	-0.042345613
168	0xbd19cd2a	-0.037549175
169	0x3effed8e	0.49985927
170	0x3caa6a56	0.020802658
171	0x3f6890e7	0.90846103
172	0x3d717d76	0.05895754
173	0xbc8096a8	-0.015696838
174	0x3edc0efd	0.42980185
175	0x3d6aefc7	0.057357576
176	0xbcd06ad3	-0.025441563
177	0x3dd0d4c6	0.10196833
178	0x3e023e30	0.12719035
179	0xbc3e4764	-0.011613701
180	0xbc486296	-0.012230536
181	0x3d75344d	0.05986433
182	0x3ee2f27a	0.4432562
183	0x3c9d0f49	0.019172328
184	0xbd0d47f1	-0.034492437
185	0x3c91e5c3	0.017809754
186	0xbcb26b47	-0.02177967
187	0x3d53dd64	0.051724806
188	0xbce996d9	-0.028514313
189	0x3e19e750	0.15029645
190	0x3b8dfaef	0.004332892
191	0x3d309b37	0.043116774
192	0xbc8904ba	-0.016725887
193	0x3d43da17	0.04781541
194	0x3d95b147	0.073092036
195	0x3e33ad17	0.17546497
196	0xbd6496fb	-0.05580805
197	0xbc07aa58	-0.008280359
198	0x3d986db1	0.07442797
199	0xbcc2f73e	-0.023799535
200	0x3bc4f502	0.0060106525
201	0xbd40f6e3	-0.04711045
202	0xbd1cf23c	-0.03831695
203	0x3b3e8951	0.0029073546
204	0x3d9f229e	0.077702746
205	0xbd930641	-0.07178927
206	0x3dc57e6d	0.096432544
207	0xbc96b745	-0.018397937
208	0xbd7ed168	-0.062211424
209	0x3d888cce	0.06667481
210	0xbde4d716	-0.11173837
211	0xbd3259ab	-0.043542545
212	0x3f038360	0.5137234
213	0xbdb13a96	-0.086537525
214	0x3d26f8b3	0.04076452
215	0x3de42e36	0.111416265
216	0x3d0e8bc8	0.034801275
217	0x3efe0737	0.4961488
218	0xbd2339f3	-0.039850187
219	0xbd0b46d8	-0.03400311
220	0x3e99cb51	0.3003793
221	0xbd370eba	-0.04469178
222	0xbe53fdf6	-0.20702347
223	0xbda02c38	-0.07820934
224	0xbb6c2fbc	-0.0036039194
225	0xbd1b4af1	-0.037913267
226	0x3c5e214a	0.013557741
227	0x3ea22a44	0.3167287
228	0xbbd035dc	-0.006354077
229	0x3ece1fcd	0.40258637
230	0x3ce46651	0.02788082
231	0x3d9128df	0.07087874
232	0xbc3fe84f	-0.0117131015
233	0x3e8853a5	0.26626316
234	0xbcd5686e	-0.026050773
235	0xbd6b5a8c	-0.0574594
236	0xbc993c28	-0.018705443
237	0x3a8f4d61	0.0010933095
238	0x3d16d200	0.036821365
239	0x3e53d0a8	0.20685065
240	0xbaf5ba51	-0.0018747543
241	0xbd89f136	-0.067354605
242	0x3e60d59b	0.21956484
243	0x3da3176b	0.07963451
244	0xbd869398	-0.0657112
245	0xbd48babe	-0.049006216
246	0xbcf6fe5f	-0.03015059
247	0xbb79284c	-0.0038018404
248	0x3ce16b4e	0.027516987
249	0x3c1d7ff6	0.009613028
250	0x3d9f60e9	0.07782156
251	0x3d30ffdc	0.043212757
252	0xbcd265cc	-0.025683306
253	0x3ea36319	0.31911543
254	0xbd4683b9	-0.048465464
255	0x3d2dcbb0	0.04243058

fc3.bias f4 [4]
0	0x3f36d689	0.71421105
1	0x3f2a5d6e	0.6654881
2	0x3f4c67b7	0.79845756
3	0x3f41e44a	0.75738966
