models/dqn_gridword.pth (torch, 84433 bytes, 6 tensors)

fc1.weight f4 [128, 25]
000000 d4 c5 e9 40 06 41 dd 40 ac 56 6f 40 d3 b4 95 40
       7.305399 6.9141874 3.739665 4.6783233
000010 bb bd b3 3f dd ba 12 40 bd 7d 42 40 76 59 9e 3f
       1.4042276 2.2926552 3.0389245 1.2371051
000020 42 83 ca bd c9 14 0a bf 2c 8a a6 3f 28 8f ca bf
       -0.09888317 -0.53937966 1.3010917 -1.5824938
000030 f8 d3 21 bf 51 53 a9 be 56 f9 d0 be ed a1 33 40
       -0.63214064 -0.33071378 -0.40815228 2.8067582
000040 59 cd 98 be e5 5e 85 bf 70 40 0a c0 e9 e9 b1 3f
       -0.29844168 -1.0419585 -2.160183 1.3899509
000050 3b 4e a0 bf 98 1c b5 bf 6b 57 ae 3f 70 b3 77 3f
       -1.2523874 -1.4149351 1.3620428 0.96758175
000060 1a 69 18 3f 72 06 d9 3f da 81 a5 bf 66 68 fa be
       0.5953537 1.6955092 -1.2930253 -0.48907775
000070 39 1f b5 3d 47 7c 25 c0 70 d2 f1 3c 2e f6 0c 3e
       0.08843846 -2.5857103 0.02951929 0.13765785
000080 c5 5c df be 93 ff 14 bf 7a 52 3f 3f f0 0c f7 3f
       -0.43625465 -0.58202475 0.74735224 1.9300823
000090 f7 fc 50 3f 25 c7 b8 3f 74 4c 05 40 09 7e df bf
       0.81635994 1.4435774 2.0827913 -1.7460338
0000a0 11 4b 96 40 2e 73 99 40 14 65 ff 3e 44 24 7c 3f
       4.6966634 4.79531 0.49881804 0.98492837
0000b0 81 af 49 bf d3 fa 39 41 03 8f e1 40 80 f3 76 40
       -0.7878342 11.623736 7.0487075 3.858612
0000c0 e2 53 85 3f 3b 9f 21 3f 5e 2d 01 c0 14 04 48 c0
       1.0416224 0.6313359 -2.018394 -3.125249
0000d0 85 8c da 3f 9c af 1a 3f 60 a7 ca 3e 64 cb 13 40
       1.7074133 0.6042421 0.39580822 2.309289
0000e0 dd bb 59 40 ba 0a 30 40 a1 16 1a bf 4e 87 af bf
       3.4020913 2.7506547 -0.6019078 -1.3713167
0000f0 63 08 8c bf e8 73 08 c0 a8 31 cf bf 82 cd 5e c0
       -1.094006 -2.1320744 -1.6187029 -3.4812932
000100 08 28 81 3f 1f d8 aa 3f 98 df 05 c0 83 71 41 c0
       1.0090342 1.3347205 -2.091772 -3.0225532
000110 2e 64 5b c0 22 e1 fe bb 08 20 bb c0 ac 4f 8d c0
       -3.4279895 -0.0077783028 -5.84766 -4.4159756
000120 f0 d8 8e 3f 25 b8 f1 bf b5 4a c4 3e 72 44 20 40
       1.1159954 -1.8884321 0.38338247 2.5041776
000130 d2 47 94 40 25 aa 68 3f 18 0e 9b bf 66 62 83 bf
       4.633767 0.9088462 -1.2113676 -1.0264404
000140 8a 8f 95 40 88 77 45 3f eb ee 8b 3f b3 60 9d 40
       4.673772 0.77135515 1.0932287 4.918054
000150 85 07 38 c0 3c 2e 60 40 51 f7 95 40 29 31 91 3e
       -2.875459 3.502822 4.68644 0.2835782
000160 b0 57 18 be 49 63 ba 3f a3 9e bc 40 af 55 a1 40
       -0.148772 1.456155 5.894365 5.0417094
000170 09 53 d1 3f 05 08 32 be e8 c1 71 bf d6 23 48 41
       1.6353465 -0.17385872 -0.944365 12.508749
000180 0d 1f 2c c0 6b 40 78 40 cf 87 04 c0 8f 47 d7 bf
       -2.6893952 3.8789318 -2.070789 -1.6818713
000190 b5 5b c4 40 52 b5 0e 40 2b 79 a5 bd e3 9b 1f bf
       6.1361947 2.229817 -0.080797516 -0.6234724
0001a0 38 d0 3d 3f 0c ac 9b 40 4a 45 f0 bf 74 55 31 40
       0.7414584 4.864752 -1.8771145 2.7708406
0001b0 c7 1c 40 40 56 86 aa be 53 93 fc bf ad f9 87 40
       3.0017564 -0.33305615 -1.973246 4.249228
0001c0 9c 71 cb bf 70 30 43 3f fc 6f d1 bf bf 73 5e 3f
       -1.5894046 0.76245785 -1.63623 0.86895365
0001d0 c5 9b 6b 3f 39 7b 94 3f 73 e3 c3 bf ab 5c 03 c0
       0.9203456 1.1600105 -1.5303787 -2.052531
0001e0 b9 2c a5 c0 2c a5 aa bf da b8 18 40 c4 ce b1 c0
       -5.1617093 -1.3331656 2.3862824 -5.55649
0001f0 61 21 d6 3e 49 37 08 3f eb 4c 9a be 8e cc c8 3f
       0.4182234 0.5320936 -0.3013681 1.5687425
000200 75 ca fc be f7 4e cf 3f a1 9d 7a 3e 25 d4 17 bd
       -0.49373212 1.6195973 0.24474193 -0.03706755
000210 d2 06 8f be 91 dc 4c 40 97 c4 1c 41 0a da de 3f
       -0.2793489 3.2009623 9.797996 1.741029
000220 98 e2 f4 3f a6 b6 cf bd 4d 2b 9f 40 39 32 19 41
       1.9131651 -0.10142259 4.9740357 9.574761
000230 30 dd ac ba 8a 23 0f bf 07 1f d7 3e 99 76 85 3e
       -0.0013188478 -0.55913603 0.4201586 0.26067045
000240 60 e9 08 41 0d 6e b2 bf 87 58 68 3f 59 ef e8 3e
       8.556976 -1.3939835 0.9076008 0.45495108
000250 3c c1 3f 40 2d 0e a4 3f 3e 5e 0b 40 b1 c8 c5 3f
       2.996169 1.2816826 2.177627 1.5451871
000260 ff f6 30 3f d0 89 ba 3f 09 0f 43 c0 9a db 3d 40
       0.69126886 1.4573307 -3.0477927 2.9665284
000270 ee 9a 31 3f f5 97 3c 3f 40 06 06 bf 8b 4f 82 c0
       0.6937703 0.7366937 -0.52353287 -4.07221
000280 9b d2 4e 40 31 1c 56 3f 5e e5 06 40 ba 6b 27 3f
       3.2316043 0.83636767 2.1077495 0.6539875
000290 03 d1 5f c0 20 67 87 40 fc f5 d6 3f 4e 3b 14 40
       -3.497132 4.2313385 1.6793818 2.3161197
0002a0 28 6f da bf 01 15 0c bf 88 c4 0c bf 16 88 17 3f
       -1.7065172 -0.5471955 -0.5498738 0.59192026
0002b0 0d 16 da 3e 69 01 e5 3e 6a 66 db 3f b5 b5 c9 3f
       0.42594948 0.44727638 1.7140629 1.5758578
0002c0 88 d8 6e 40 9d b9 86 40 6e 4c f1 bf 4c 84 fa 3d
       3.731966 4.210158 -1.885145 0.12232265
0002d0 f9 72 6b 40 32 d9 02 be f3 2b da bf f7 55 41 3f
       3.6788924 -0.12778166 -1.7044662 0.75521797
0002e0 82 23 90 3f 14 63 57 40 52 6d 7e 40 2a ed d1 3f
       1.1260836 3.3654222 3.9754224 1.6400502
0002f0 7c 5e db 3f 3d b0 18 3f 7b 15 72 3f fb b7 5b 40
       1.7138209 0.5964392 0.94564027 3.4331043
000300 98 9e 1d 40 a7 6d a9 bf 8f f1 07 bf d7 84 8b c0
       2.4628048 -1.3236588 -0.53102964 -4.359966
000310 8c 97 16 c0 9f 81 f2 bf 37 73 ed bb 28 7b 84 3f
       -2.3529997 -1.8945807 -0.0072464007 1.0350084
000320 e7 0d 02 40 e1 35 a2 bf 19 8d 95 3f c2 50 b4 be
       2.0320985 -1.2672693 1.1683685 -0.35217863
000330 08 2f 4e c0 73 a0 0f bf 50 d5 89 3f 34 ee 65 40
       -3.2216206 -0.561042 1.0768223 3.5926638
000340 e8 a0 d7 bf dc 07 bf c0 85 3f 82 c0 c3 d6 ad 3f
       -1.684598 -5.9697094 -4.070254 1.3581165
000350 1b 3a 88 c0 24 65 d6 c0 b2 7b 8e 3e 70 83 c3 c0
       -4.257093 -6.6998463 0.27828747 -6.1097946
000360 d5 b1 c9 bf 18 00 61 3f 17 a8 32 c0 82 c9 00 c0
       -1.5757395 0.8789077 -2.7915094 -2.012299
000370 69 56 ce c0 95 d8 59 c0 db a6 1c c0 a7 bf a2 c0
       -6.448048 -3.403844 -2.447684 -5.085895
000380 21 b2 a0 40 1b b0 68 c0 cb ba ba 3f 59 30 59 c0
       5.0217443 -3.6357486 1.4588255 -3.393576
000390 2b 24 42 40 04 0a ed bf f2 d2 29 40 67 45 d9 bf
       3.0334575 -1.8518682 2.6535 -1.6974305
0003a0 27 c8 9b 3f 2d 4a 8e bf bf 4e b8 3e 45 a7 58 c0
       1.2170457 -1.1116387 0.35997579 -3.3852093
0003b0 eb ce 85 40 30 39 18 c0 1c 4f c6 bd 53 d0 9a bf
       4.1815085 -2.3784904 -0.09683058 -1.2094826
0003c0 4e 3d 07 c0 d1 35 95 c0 09 dc f7 3f a7 17 08 c0
       -2.1131167 -4.6628194 1.9364024 -2.1264436
0003d0 16 4d 35 40 a3 e1 65 c0 12 93 48 3f 1f 6b 66 c0
       2.83283 -3.5918968 0.7834941 -3.6002882
0003e0 47 b1 1b 40 c9 18 e7 bc 93 4f 4e 3f a0 72 72 40
       2.4326952 -0.02821006 0.8059017 3.7882462
0003f0 58 9f 82 3f 9b bc 91 bf 85 1a a4 3f 59 9a 5a 40
       1.0204878 -1.1385683 1.2820593 3.4156706

fc1.bias f4 [128]
000000 92 18 2c 3f ec 2b 25 3f 6f cc 85 3e 24 d8 d4 bf
       0.6722499 0.64520144 0.26132533 -1.6628461
000010 3a 42 17 3f c9 25 92 3f 63 9a ad 3f c4 7c 40 3f
       0.5908543 1.1417781 1.356274 0.7519038
000020 1f 4c 98 40 ed 6d ff 3d f2 20 ec bf 8a 00 f9 3f
       4.759292 0.124721386 -1.8447554 1.945329
000030 8c f6 7b bf 4c de 96 be ee eb dd 3f 0d 33 e6 3f
       -0.98423076 -0.29466474 1.7337625 1.798433
000040 81 c4 7b bf 84 4c 15 be 7a 90 73 3d aa 29 4d 3e
       -0.98346716 -0.1457997 0.059463955 0.20035425
000050 b9 2b 88 3e c6 bc 07 c0 22 40 c1 3f 6f cc ca bf
       0.26595858 -2.1208968 1.5097697 -1.5843638
000060 7d 0e 89 3f f1 2d 5f bf fa bb 82 be db ff 75 3f
       1.0707546 -0.87179476 -0.2553404 0.9609353
000070 7a 87 95 bc 3f 45 81 bf 38 49 79 be e3 d8 2c c0
       -0.018253077 -1.0099257 -0.24344337 -2.7007377
000080 90 d1 da bf a5 6b 82 bf cd 10 2a 3e a2 67 dc bf
       -1.7095203 -1.01891 0.16607971 -1.7219126
000090 8e 65 3f 3f 6a c6 97 3f 45 f0 65 be c2 e3 09 3f
       0.74764335 1.1857426 -0.22454937 0.53863156
0000a0 ae 6b 6a bf 07 cc bb bf f3 78 5a bf 1c 3a e2 bf
       -0.91570556 -1.4671639 -0.85340804 -1.7673984
0000b0 cb 95 d3 be 7b f4 9b be 96 53 bb 3f 4d df c5 3e
       -0.4132522 -0.3045996 1.4634883 0.38646927
0000c0 68 02 c4 bf 2e 97 43 40 69 ea 74 be 3e 28 46 bf
       -1.5313234 3.0561023 -0.23917545 -0.77405155
0000d0 4a 71 b7 bd 64 95 9d 3f 1d ee f4 3f f5 36 9a 3e
       -0.08957155 1.2311215 1.9135166 0.30120054
0000e0 b8 b5 f0 be 3b 0b cf 3f e0 22 f9 3f c3 d5 b1 bd
       -0.4701364 1.6175302 1.9463768 -0.0868335
0000f0 72 f1 a3 3e 8c 07 bc 3f 7a b6 a4 3f ef b1 8b 40
       0.32020146 1.4689803 1.2868187 4.3654704
000100 82 79 5a bd fd 46 9f 3f 32 9a 69 3f c6 58 08 3f
       -0.053338535 1.2443539 0.9125091 0.5326046
000110 d4 1d 31 3f 03 02 bc bc ba 1f c4 bf e2 ba a4 bf
       0.6918614 -0.022950178 -1.5322182 -1.2869532
000120 61 87 1b 40 ce 08 42 bf 3c 36 8d bf a4 8a 1c bf
       2.4301379 -0.75794685 -1.1032176 -0.6114905
000130 41 b7 68 3f 71 4a c4 3f 22 7e 9b bf 77 99 3c bf
       0.90904623 1.5335218 -1.2147868 -0.7367167
000140 47 83 c8 3f 4f dc ee bf 6f b9 9d bf dd a0 21 40
       1.5665063 -1.8660983 -1.2322215 2.5254433
000150 02 d8 93 bf 1a 9e ca bd e5 98 92 3f 84 0b 8d bf
       -1.1550295 -0.09893437 1.145291 -1.1019139
000160 95 b3 10 bf 4c 61 2e 40 b0 39 ec bf 92 fb 50 be
       -0.5652402 2.7246885 -1.8455105 -0.20408466
000170 9e d2 15 be 8b bc ae 3e 30 c7 fb bf 99 7b 18 c0
       -0.14631125 0.34128222 -1.9670162 -2.3825438
000180 17 1f 84 3f 6c 81 98 3f f6 77 13 c0 54 6a 8c 3e
       1.0321988 1.1914496 -2.3041968 0.27424872
000190 94 ee 39 3e 19 6b b6 bf df 63 5a be 94 61 72 3f
       0.18157417 -1.4251434 -0.2132716 0.9468014
0001a0 d1 b0 2b 3f 7d e7 03 40 d7 41 47 3f 2d 10 49 be
       0.67066675 2.061004 0.7783484 -0.19635077
0001b0 94 12 e2 3e 73 8c 25 3e 46 03 66 3e 95 ae 20 c0
       0.441548 0.16166858 0.22462186 -2.5106556
0001c0 d5 85 91 40 c7 6d 93 3e e7 33 e8 3f ee 4e 8c bd
       4.547587 0.2879469 1.8140839 -0.06850992
0001d0 a2 56 63 c0 f9 f7 94 3f a7 4c 4b 3e 69 9c 53 bf
       -3.5521626 1.1638175 0.1985346 -0.8266054
0001e0 69 f5 91 be 3b b7 92 3f b2 f7 24 40 bf 13 5e 3e
       -0.28507546 1.1462168 2.5776181 0.2168722
0001f0 db 5c 60 3f a2 03 ea 3e 0e 2d d0 3f d6 4e 9c 3f
       0.87641686 0.45705897 1.626375 1.2211559

fc2.weight f4 [128, 128]
000000 91 38 f2 40 d8 b1 ee 40 43 7d 01 c1 53 6f e0 40
       7.569405 7.4592094 -8.093081 7.0135894
000010 24 7b 48 bf 9d bb 51 41 47 87 a5 3f 2c 4a 77 3f
       -0.783129 13.108304 1.2931908 0.9659755
000020 54 df 20 c0 e0 03 c6 c0 97 d4 15 40 a6 4f a5 c0
       -2.5136309 -6.187973 2.3411005 -5.1659727
000030 81 e6 94 40 61 cb 8d 40 c7 d0 03 c0 3c c6 1d c0
       4.6531377 4.4310765 -2.0596178 -2.4652243
000040 ef 28 ae c0 dd 3a ef be d9 06 b2 c0 9d fd c9 3f
       -5.442497 -0.46724597 -5.563336 1.5780522
000050 f4 ba 3a c1 2c 70 35 41 be bb d5 bf 82 e8 79 bf
       -11.670643 11.339886 -1.6697919 -0.97620404
000060 0d f1 bb bd 8f 55 1f c1 19 60 ba bf 37 68 cf c0
       -0.09176836 -9.958388 -1.4560577 -6.4814715
000070 60 44 e6 3f 03 f8 74 40 73 74 36 40 77 a4 19 41
       1.7989616 3.8276374 2.8508575 9.602653
000080 ea 9d e6 40 51 88 79 40 64 b1 70 40 a1 9f 20 41
       7.2067766 3.898945 3.760827 10.038972
000090 30 27 c2 40 92 b8 1e c1 65 fd 0c 3d d3 dc 53 c1
       6.0672836 -9.920061 0.034421343 -13.241412
0000a0 c5 02 64 40 e7 bd e3 bf d1 53 d8 40 84 f9 76 40
       3.562669 -1.7792329 6.7602315 3.8589792
0000b0 d2 8a 44 40 43 03 2d 41 56 9a c6 3e c9 e8 8f be
       3.070973 10.813296 0.38789624 -0.28107288
0000c0 8c 41 33 40 97 51 c3 be 93 fa dd 3f 42 42 e4 be
       2.8008757 -0.38148186 1.7342094 -0.445818
0000d0 cf 16 b2 40 79 15 16 40 5c f4 17 c1 eb dc 54 40
       5.5652843 2.3450606 -9.497158 3.3259838
0000e0 1b e0 1f 3f 68 e4 bb 40 67 f7 8a c0 09 b5 04 bf
       0.6245133 5.8716316 -4.3427005 -0.5183874
0000f0 1b b1 35 40 42 9f 66 bf c5 71 1d c1 f8 02 92 c0
       2.8389347 -0.9008676 -9.840276 -4.5628624
000100 17 68 cc be 7a 7f f6 bf 84 87 1c 3e 4e 6b ef 40
       -0.39923164 -1.9257653 0.1528607 7.4818487
000110 51 4e e7 40 b0 9e 01 c1 d2 94 46 40 3c 14 83 40
       7.22831 -8.101242 3.1028333 4.09622
000120 53 ea e3 bf 63 3b 60 3f fc e8 07 41 13 de d5 bf
       -1.7805885 0.87590617 8.494381 -1.6708397
000130 fb 0d c0 be 45 a8 65 bf b9 df 54 40 67 84 a1 40
       -0.37510666 -0.89709884 3.326155 5.0474124
000140 4b dc f9 c0 ef 12 16 41 d6 21 ed be ac be 8f 40
       -7.808141 9.379622 -0.46314877 4.4920254
000150 15 38 24 41 8b 12 c2 40 2b f2 e5 c0 17 e5 6e be
       10.263692 6.0647635 -7.1858115 -0.23329578
000160 d3 a2 3e 40 42 5e 2e c0 2b ea 8b 40 db 51 0b c1
       2.978688 -2.724503 4.372335 -8.707484
000170 99 d4 cc 3f e8 00 01 40 a4 51 48 40 b3 a0 4d 41
       1.600238 2.0156803 3.129983 12.851733
000180 7a ab 8f 3f 94 06 cd 40 bc c5 d6 40 6b 25 e6 40
       1.1224205 6.407053 6.7116375 7.1920676
000190 04 c1 a6 3f ce 23 d2 40 b5 fd bd 40 91 41 1b 40
       1.3027654 6.5668707 5.93722 2.4258769
0001a0 6c 6e 76 3f 87 40 1b c1 ef 4f ee c0 c2 8c 9c be
       0.9626224 -9.703254 -7.4472575 -0.3057614
0001b0 c3 31 e2 40 8b 01 0b c1 78 9e b1 3f 68 3b ca 40
       7.0685744 -8.687877 1.3876486 6.3197517
0001c0 c0 81 89 c0 d5 50 02 c1 06 a3 d7 3f 58 da f8 c0
       -4.2970886 -8.144734 1.6846626 -7.7766533
0001d0 00 87 01 41 41 47 af 40 c1 37 d3 40 53 9b 90 c0
       8.095459 5.477448 6.600556 -4.5189605
0001e0 ba 12 08 40 0a 4d 55 40 29 0b 71 bf 9d 26 20 40
       2.126143 3.332827 -0.94157654 2.5023568
0001f0 09 5c 1b c1 02 94 00 40 96 59 8e bf 93 c6 93 3f
       -9.7099695 2.0090337 -1.112109 1.1544975
000200 6f 6f 29 41 cc b4 d1 bf 29 1c 83 40 db 93 a1 c0
       10.589705 -1.63833 4.0971875 -5.049299
000210 45 5c 38 40 67 02 3c 41 9c b5 d6 bf a4 45 ce 40
       2.8806317 11.7505865 -1.6774173 6.446001
000220 53 7e 8b 40 a0 e9 1d 40 18 27 1a 41 64 48 8c 40
       4.3591704 2.4673843 9.634544 4.3838367
000230 b2 d3 3d c0 b2 71 6e 41 dd 60 41 40 1e a5 09 40
       -2.9660459 14.902758 3.021537 2.150703
000240 d2 47 bf 40 17 7c ea 3e 8c 65 fe be fd a0 f6 3e
       5.977517 0.45797798 -0.4968685 0.481697
000250 a3 11 ca bf d5 49 38 3e 54 9b 3f 40 2d cc c7 40
       -1.5786632 0.17996915 2.9938555 6.243674
000260 b6 9d fb 3f 26 2f 35 40 46 ef 01 41 d1 93 56 40
       1.9657505 2.8310027 8.120916 3.352772
000270 b2 bb e4 40 ff 9b 73 3f c3 5b bb 40 38 2f 65 40
       7.147912 0.95159906 5.8549514 3.581007
000280 69 ac ff 3f f6 19 17 bf 4e 76 ac 40 1e c1 d5 41
       1.997449 -0.5902399 5.3894415 26.719296
000290 e2 33 55 41 dd df 5f 40 28 5b df 3c 87 e3 2d 3f
       13.325167 3.4980385 0.027265146 0.67925304
0002a0 15 59 c2 40 88 5a cf c0 cd 37 87 bf 30 39 19 41
       6.0733743 -6.479801 -1.0563904 9.576462
0002b0 e2 45 3b 41 6c 91 fb c0 9f d8 22 3f 7f ca d0 40
       11.704561 -7.8615017 0.6361179 6.5247188
0002c0 e9 f0 57 40 f8 23 ae 40 b3 03 0c c0 1f ed c1 40
       3.374079 5.4418907 -2.1877258 6.0601954
0002d0 17 72 12 41 84 ad dd 40 5e 40 f9 3f e6 19 32 c0
       9.152854 6.927431 1.9472768 -2.7828307
0002e0 ab 91 7a bd 0a a0 3c 41 04 e7 d4 40 12 b5 3c 40
       -0.061174076 11.789072 6.6532 2.9485517
0002f0 bf 65 0a c0 d9 46 f2 3f a3 4c f9 3f ab bb c1 40
       -2.16246 1.8927871 1.9476513 6.0541587
000300 95 ee 06 bf 31 f3 80 c0 89 05 22 40 30 52 0f 41
       -0.527078 -4.0296865 2.5315878 8.957565
000310 e6 65 38 41 0e 25 b1 40 87 67 19 40 c9 fd db 3e
       11.524878 5.5357733 2.3969438 0.4296706
000320 31 29 94 40 e2 40 a4 40 10 7b c1 c0 8c 69 2c bf
       4.6300282 5.1329203 -6.0462723 -0.6734855
000330 77 c9 1d 41 60 60 7a bf 95 6a a8 bf 47 31 8f 40
       9.861686 -0.97803307 -1.3157526 4.4747653
000340 aa 60 2d 40 f4 bd 76 bf a5 f2 a7 bf a8 84 fd 40
       2.709025 -0.96383595 -1.3120924 7.9224434
000350 f2 3f bb 41 35 56 67 c0 de d4 53 3e e4 85 22 c1
       23.406223 -3.6146367 0.20686671 -10.157688
000360 d3 f9 d6 40 0f 54 1c 40 d5 c9 28 c1 76 de b6 bf
       6.717996 2.4426305 -10.549275 -1.428664
000370 8b d1 ae 40 dc bf cb bf e6 af 92 3f 4a 89 17 c0
       5.463079 -1.5917926 1.145993 -2.3677545
000380 53 f3 b8 bf cb a1 17 41 37 4e 1c 41 7c 01 96 c0
       -1.4449257 9.477 9.769095 -4.687681
000390 15 6b 3c 41 c1 31 13 40 21 31 2e 41 6c 3a c6 40
       11.776143 2.2999117 10.886994 6.1946316
0003a0 33 0c a9 40 b2 e5 24 3f e6 2a f5 bd 0c a5 01 41
       5.282739 0.6441299 -0.11971073 8.102795
0003b0 13 9e cd c0 11 a3 66 40 77 22 4a 41 b6 41 59 41
       -6.425546 3.6037028 12.633414 13.578543
0003c0 be e7 d4 3f b5 22 4a bb 5d 21 1a 3f f6 39 22 41
       1.6633222 -0.003084344 0.6020716 10.139151
0003d0 4d cf bd c0 22 2b 2a 40 9f 33 0d 41 1d 21 cc 40
       -5.9315553 2.6588826 8.825103 6.379042
0003e0 c8 a9 c1 be 71 46 92 c0 69 ac 9b 40 41 99 8c 3f
       -0.37824845 -4.571099 4.864796 1.0984269
0003f0 0e b0 60 3f 58 38 8b 40 dc 7f 9a 40 2a 84 b1 40
       0.8776864 4.350628 4.828108 5.5473833

fc2.bias f4 [128]
000000 54 b2 49 c0 a6 7a 62 40 55 30 63 bf 29 f5 29 bf
       -3.1515093 3.5387359 -0.88745624 -0.6638971
000010 ed 78 6d bf 1f 1e 1b bf 70 d1 60 3f aa 1d aa bf
       -0.92762643 -0.60592836 0.87819576 -1.3290303
000020 bf c8 36 bd 9a 36 57 40 f5 86 00 c0 2f 62 fe bf
       -0.04462504 3.3627076 -2.0082371 -1.9873713
000030 7e cc a4 3f 6b d2 cd bd 01 15 d4 3f f9 1f b5 bf
       1.2874906 -0.100499 1.656891 -1.4150382
000040 cc 98 1f bd 07 23 d5 bf 8a bb 1f bd 6b 95 1a 3f
       -0.038964078 -1.6651314 -0.03899721 0.60384244
000050 b8 6f 95 bd c5 02 4c 40 b7 23 90 3e f7 55 86 be
       -0.07296699 3.187669 0.28152248 -0.2623746
000060 bc 3b 9a bf 9f 12 14 c0 14 90 80 3f 74 31 c8 3f
       -1.204948 -2.3136365 1.0043969 1.5640092
000070 63 2a 82 bf 58 13 16 c0 51 63 75 bf f8 ea 83 3d
       -1.0169185 -2.3449306 -0.9585467 0.06441301
000080 81 3a f5 3f 85 13 d3 3f 8c 1d 11 c0 96 8d 11 c0
       1.9158479 1.6490332 -2.2674284 -2.2742667
000090 0d 51 00 40 39 5a c3 bc d8 e5 b4 3f 95 38 c7 be
       2.004947 -0.023846732 1.4132643 -0.38910356
0000a0 f3 6c a4 bd b8 7d 38 bd 88 b0 04 c0 1d 3a 5d 40
       -0.08028593 -0.04504177 -2.0732746 3.456672
0000b0 31 68 24 c0 20 6b 1d 40 ec a3 09 40 04 5f e1 bf
       -2.5688593 2.4596634 2.15063 -1.7607121
0000c0 83 eb 01 3d 4f 88 45 bf b7 ec 65 bf d0 22 ad 3c
       0.031718742 -0.77161115 -0.89814323 0.021134764
0000d0 4a bb fa 3f 5e 93 e7 3f 41 43 fb bf 4e 75 74 3f
       1.9588406 1.8091848 -1.9629899 0.9549149
0000e0 53 21 55 be 1d 24 29 c0 57 74 ee bf 81 55 5e 40
       -0.20813493 -2.6428292 -1.8629254 3.4739687
0000f0 85 75 b3 bf 46 2e d9 3f 3f 0d c9 be 9e 86 ee bf
       -1.4020239 1.6967247 -0.39267918 -1.8634832
000100 47 90 d6 bf 64 80 e8 bf e9 2b ae bf 62 25 03 c0
       -1.676278 -1.8164182 -1.360715 -2.0491567
000110 3a 0f ee bd d9 35 8c bf 83 aa 92 bf 7e 1c 45 3c
       -0.11623998 -1.0953933 -1.1458286 0.012030719
000120 d2 cc db bd 2b 5c 60 40 e7 58 1b bf 87 d0 f8 be
       -0.10732426 3.5056255 -0.6068253 -0.48596594
000130 f9 98 6e bf 4d 17 cf 3d 2d f6 a0 bf da 70 d8 bf
       -0.9320217 0.10111866 -1.2575127 -1.690944
000140 30 19 83 3f 3b 7f 84 3f 34 d3 fd bd 61 4a b2 bf
       1.0242062 1.0351328 -0.123937994 -1.3928949
000150 12 0f f6 bf 5e fb 6a bc 72 d2 60 40 21 c1 c0 3f
       -1.9223349 -0.014342157 3.5128446 1.5058938
000160 b1 67 43 40 54 b4 f0 bf 99 3b e7 bf a7 47 78 3d
       3.0532038 -1.8805032 -1.8065063 0.060615208
000170 e0 1b c1 bf c9 0a 11 c0 cb ef a3 3f 8d eb b8 bf
       -1.5086632 -2.2662833 1.2807554 -1.4446884
000180 03 04 95 bf a3 ff 5c bf da c6 4c bf e3 dc 1e 40
       -1.1641849 -0.8632757 -0.79990923 2.4822319
000190 c1 29 ac bd e4 da 94 bf 5b 11 ea 3f 32 19 e1 bd
       -0.084064014 -1.16293 1.8286546 -0.10991134
0001a0 9b b7 1f bf b2 6b b1 3f cc d5 d3 bf ad 4b 4f bf
       -0.62389535 1.3860991 -1.6549621 -0.8097485
0001b0 59 eb c4 3f f3 b6 9e 3f 81 f3 b8 3f c2 5b d3 bf
       1.5384322 1.2399582 1.4449311 -1.6512377
0001c0 b5 b3 83 3f e9 91 8e bf d8 b8 7c 3f 2d b1 f4 bf
       1.0289217 -1.1138278 0.9871955 -1.911657
0001d0 d9 02 c0 3f 49 61 8d 3d 58 75 ff bf d1 bb 8e 3e
       1.5000869 0.06903321 -1.9957685 0.27877668
0001e0 4c 0d 11 40 7b c3 02 c0 a9 c8 be 3e e7 a3 c6 bf
       2.2664366 -2.0431812 0.37262467 -1.5518769
0001f0 9d a1 97 bd f2 48 9e bf 45 43 47 40 b3 96 08 be
       -0.07403872 -1.2366011 3.1134808 -0.13338737

fc3.weight f4 [4, 128]
000000 38 c1 46 3f 88 01 4f 40 b8 f9 21 41 09 ec 88 40
       0.7763858 3.2344685 10.1234665 4.278813
000010 85 d7 47 40 2b d9 9b c0 b7 b3 44 40 bd f5 91 40
       3.1225293 -4.87026 3.073469 4.5612473
000020 e5 b7 e3 3c 04 fb 43 40 1a 86 b9 40 e0 19 a4 40
       0.027797649 3.0621958 5.79762 5.1281586
000030 05 a6 9f 40 65 fa 95 bd 25 e5 c1 40 60 87 25 40
       4.989016 -0.073231496 6.0592217 2.5863876
000040 e7 59 e8 ba d8 ef f6 3e 52 06 40 41 75 35 3f 41
       -0.0017726988 0.4822986 12.001543 11.950551
000050 51 da 1c bb 12 b2 c9 40 66 d2 ba 40 f0 b1 72 41
       -0.0023933838 6.302987 5.8381834 15.168442
000060 e8 e9 98 be cf a3 b4 40 38 24 74 40 5d 41 03 41
       -0.29865956 5.644996 3.8147106 8.203458
000070 da c5 e3 c0 92 5c aa 40 7e c1 36 c0 ec bb 14 c1
       -7.117902 5.3238 -2.8555598 -9.295879
000080 ee e2 14 41 4f 04 61 40 a5 6f a5 40 16 cb ac 40
       9.305403 3.515888 5.1698785 5.399791
000090 4f fe db 40 f9 e2 60 3c 73 65 ad 40 eb f8 91 41
       6.8747935 0.0137259895 5.418634 18.246542
0000a0 c1 ee 1e 3c 3c e1 03 bb 63 a1 b2 40 fc 69 b6 40
       0.009700478 -0.0020123264 5.5822005 5.7004375
0000b0 41 50 94 40 64 ff 81 41 56 f7 a7 c1 4a 6d 86 40
       4.6347966 16.249702 -20.99577 4.200841
0000c0 80 df 46 bc 42 7b c2 41 f0 f8 76 c0 a6 50 ed bf
       -0.0121382475 24.310184 -3.858944 -1.8540237
0000d0 46 cf df 40 ea 3e 00 41 52 e6 48 41 49 6b 8f 41
       6.994052 8.01536 12.556231 17.927385
0000e0 e3 4e e5 c0 c6 0c f5 40 d6 42 b9 40 ea 6d 86 40
       -7.1658797 7.6578093 5.7894087 4.2009172
0000f0 65 c2 89 40 21 47 01 41 c9 10 2c 41 84 f8 9b 40
       4.30498 8.079865 10.754098 4.8740864
000100 91 4e 01 40 63 54 bb 40 1e a7 12 41 82 3d c7 40
       2.0204203 5.854051 9.1658 6.2262583
000110 0b 23 89 bc fb 81 93 41 ac b5 cd 40 70 fa 9c 3d
       -0.016740343 18.438467 6.4284267 0.07664955
000120 32 9d ba bd 05 4d 5f 40 5f 67 ec 40 c0 17 2b be
       -0.09112014 3.489076 7.3876185 -0.16708279
000130 09 1a 0b 40 14 40 47 41 a9 5c 97 40 e4 8c 2b 40
       2.173464 12.453144 4.730061 2.6804743
000140 37 b6 50 41 1f 26 94 41 9c ca 11 c1 d0 b2 5f 3f
       13.044486 18.518614 -9.111965 0.8738222
000150 fa a8 9a 40 71 50 e0 c0 cf 71 c1 40 f9 59 bd 40
       4.833127 -7.0098195 6.0451427 5.917233
000160 76 4e 09 41 47 f9 2a 40 05 fa 98 40 b4 6d 4a 3c
       8.5816555 2.6714647 4.78052 0.012355257
000170 a6 9c 7b 40 57 d1 ae 40 0b 6f dc 40 6c 5a d7 bf
       3.931436 5.463054 6.888555 -1.682447
000180 30 0a b4 40 14 7e 2f bf 71 57 e5 40 6c 56 06 41
       5.6262436 -0.68551755 7.166924 8.396099
000190 ab 2d 4d 3b b6 85 ef 3f ba 48 f2 40 40 2e 0f bc
       0.0031307738 1.871268 7.5713778 -0.008739054
0001a0 9b fa 4c 40 12 b6 b4 40 80 67 aa 40 94 23 97 40
       3.2027957 5.6472254 5.3251343 4.723093
0001b0 fd 6a 08 bf 27 20 d5 40 0b ed c7 c0 56 80 99 40
       -0.5328825 6.660175 -6.247686 4.796916
0001c0 6e 79 c0 bf 5e 60 46 40 f5 97 0c 41 f6 21 53 40
       -1.5037057 3.0996318 8.787099 3.2989478
0001d0 d5 0e 53 40 1d 04 97 3c 18 2c a3 40 25 f4 29 c1
       3.2977803 0.018434579 5.0991325 -10.622106
0001e0 9c 5f f5 3f f2 da 6b 40 38 b0 8f 40 e6 29 07 41
       1.9169803 3.6852384 4.490261 8.447729
0001f0 6e 0e ba 3b 57 44 92 40 1d 6a af 40 5b cc 97 41
       0.0056779897 4.5708423 5.4817033 18.974783
000200 b4 69 e5 40 55 de e5 be 01 7c 13 c1 0e c0 b1 c1
       7.169153 -0.44896188 -9.217774 -22.218777
000210 7a 36 15 c1 f4 0c 44 c1 27 69 1b 41 70 d0 f4 40
       -9.3258 -12.253162 9.713172 7.650444
000220 fa 68 e9 bc e5 04 af 40 11 b7 a1 40 6b 13 9f 40
       -0.02849244 5.4693475 5.053597 4.9711204
000230 5d 37 89 40 4e 1b aa bd cd 3a 07 41 be af a9 40
       4.288008 -0.08305989 8.451856 5.302703
000240 ae b8 c2 3c 5b 9c 3f c0 11 87 a0 40 6a 89 18 41
       0.023769703 -2.9939182 5.0164876 9.533548
000250 e4 ed 81 bc f0 4b a8 40 5d 20 b3 40 30 d3 21 c1
       -0.015860505 5.2592697 5.5977006 -10.114059
000260 a2 dc ba 40 99 d6 07 40 da 01 f0 40 81 ca c7 40
       5.8394327 2.122473 7.500226 6.2434697
000270 b4 10 8d 41 48 52 70 3f 53 d3 93 40 40 83 46 c0
       17.633156 0.9387555 4.6195464 -3.1017609
000280 1a cc 16 41 07 6d 39 41 8a 1d 2f 40 76 1c ba 40
       9.4248295 11.589118 2.736178 5.815974
000290 d9 0f 28 41 cc 00 90 bc 07 c8 13 41 be 47 0c 41
       10.503869 -0.017578505 9.236335 8.767515
0002a0 8a 83 db bb d6 e7 70 bc ae b1 b2 40 da bd 79 40
       -0.0066990303 -0.0147037115 5.5841894 3.9022126
0002b0 14 01 e1 40 54 88 53 41 55 3a 29 41 94 f3 c2 40
       7.0313816 13.220783 10.576741 6.0922337
0002c0 06 9c 84 3a 44 03 a1 c1 7a 21 71 40 8c 76 31 41
       0.0010117299 -20.126595 3.7676682 11.091442
0002d0 b6 55 0c 41 66 20 ec 40 d1 4c 8c c0 e3 6d 79 c1
       8.7709255 7.378955 -4.384377 -15.589328
0002e0 3a be 12 c0 f5 e3 fd bf 26 d4 0e 40 95 ca ab 40
       -2.2928605 -1.9835192 2.2316985 5.3684793
0002f0 da a1 bd 40 75 1f 19 41 55 68 fb 40 e5 c3 42 40
       5.9260073 9.57018 7.856486 3.0432065
000300 e6 12 71 40 92 dd 9c 3f 9f 81 ec 40 88 00 4c 40
       3.7667785 1.2255118 7.390823 3.1875324
000310 45 de 40 ba 0a 91 a0 40 26 e4 ca 40 0e 97 ad 3c
       -0.00073573395 5.017705 6.34035 0.021190193
000320 39 ef 75 3d dc c7 d4 40 86 95 05 41 26 c1 9b bf
       0.060042594 6.649397 8.349005 -1.2168319
000330 95 c0 a5 3f 65 6f b7 c0 4e 9b 8f 40 af 29 a3 40
       1.2949396 -5.732348 4.487708 5.0988383
000340 08 b5 1e 41 48 9a b5 40 5a 1c 66 c0 22 85 43 40
       9.919197 5.675083 -3.5954804 3.0550008
000350 00 4d 5f 40 72 4a 3b 3f a0 60 d5 40 5f a3 15 41
       3.4890747 0.7316047 6.668045 9.3523855
000360 5c 8e c0 3c 12 35 7e 40 41 4b 88 40 66 41 00 3d
       0.023505382 3.9719892 4.2591863 0.03131237
000370 54 4e a8 40 91 a0 b5 40 3e cb 12 41 b5 ca f9 bf
       5.2595615 5.6758504 9.17462 -1.9514986
000380 25 12 dd 40 bb 6c 43 40 fe 82 cf c0 8a 28 bd 40
       6.908465 3.0535114 -6.4847403 5.9111986
000390 98 76 86 bd 95 f1 dd 40 dc 55 f6 40 ac e3 0d bd
       -0.06565589 6.93574 7.697981 -0.034640953
0003a0 3c 41 4c c0 bc d2 45 41 ec b4 a8 40 76 48 ea 40
       -3.1914816 12.363949 5.272085 7.3213453
0003b0 3a 3b 2e 40 19 74 1c 41 ae 07 65 40 45 e5 ba 40
       2.722365 9.778344 3.5785937 5.840487
0003c0 7f ea 4b 41 ea 18 9d 40 39 36 95 40 c5 20 c3 40
       12.74475 4.9092913 4.662869 6.09775
0003d0 f4 b8 29 41 29 30 79 bd 5c 1f 92 40 8f 16 0c 40
       10.607655 -0.060836945 4.566328 2.1888769
0003e0 0c 21 b0 bf 17 e0 39 40 d2 db 60 40 ba a8 5d 40
       -1.3760085 2.9043024 3.5134168 3.4634233
0003f0 60 f3 f4 3c 90 77 b2 40 06 7c f4 40 aa d8 03 40
       0.029901206 5.577095 7.6401396 2.0600991

fc3.bias f4 [4]
000000 d9 da 3e bf a0 3f 12 40 98 48 4c 40 a1 18 9e 3f
       -0.74552685 2.2851334 3.1919308 1.2351266
