models/dqn_gridword.pth (torch, 84433 bytes, 6 tensors)

fc1.weight f4 [128, 25]
000000 65 ab 66 3c 68 b9 ab 3c 1a f0 56 bb 7a b2 54 be
       0.01407895 0.020962432 -0.003279692 -0.20771208
000010 e7 b0 2f 3d 98 f4 11 3e 9a d1 cd bb 0a d1 b2 bd
       0.042893317 0.14253461 -0.00628109 -0.08731277
000020 dd cd 04 3c fe 39 55 be 9b 81 4b be 56 4a 4d be
       0.008105722 -0.20822904 -0.1987366 -0.20047888
000030 5e 29 7d bd 3c e8 2c 3e 93 33 35 3e fd 08 3d be
       -0.06180703 0.16885465 0.17695455 -0.1846046
000040 ae b6 53 be 3f 3b 45 3e 27 cc 45 be 22 29 72 bd
       -0.20675156 0.19260882 -0.19316159 -0.05912126
000050 f9 0e 45 be bd ae 54 be 44 a5 83 bd 88 5a 07 be
       -0.19243993 -0.20769782 -0.06428006 -0.13218129
000060 7a ef 38 3d 1e d7 b9 3c de c2 4f be 7f 70 e2 3d
       0.045150258 0.022685584 -0.2028918 0.11056613
000070 9f ac c5 bc 39 66 76 3d e9 70 be 3e ca f0 14 3e
       -0.024130164 0.06015608 0.3719552 0.14544979
000080 55 18 93 be cf 8d 84 3d c9 c2 93 be 84 91 76 3d
       -0.287295 0.0647236 -0.28859547 0.06019737
000090 56 88 83 be cf fd 85 be bd 6f 8d 3e 6d c6 11 3e
       -0.25689954 -0.26170203 0.27624312 0.1423585
0000a0 e8 c7 f9 3d 78 40 d0 3e 7a 1b e7 3d 61 aa 87 be
       0.12196332 0.40674186 0.112845376 -0.26497176
0000b0 01 c3 8c be 66 cf fa 3b 43 e2 9c 3d 5a d1 83 be
       -0.27492526 0.0076541184 0.076603435 -0.2574566
0000c0 a7 f3 90 be 2d 67 98 bd d1 78 ba 3e 37 97 43 be
       -0.28310892 -0.07441554 0.364203 -0.19100653
0000d0 81 e3 a9 3e 4f 87 cc 3e ea 65 c1 3e 84 1a 7a be
       0.33181384 0.39946982 0.37773067 -0.24424177
0000e0 8d 51 33 bd 14 a3 c3 bd 93 f5 f2 3d 34 ee 5e be
       -0.043778945 -0.09552589 0.11863246 -0.21770555
0000f0 96 1a 6c 3e 2a 67 37 3d 64 08 8b be 07 80 50 3d
       0.23057017 0.04477612 -0.2715484 0.050903346
000100 6f f1 21 3e 6e 83 9e 3e 36 c9 63 be 9d 4a 06 be
       0.15814756 0.30959648 -0.22244725 -0.131144
000110 2e f3 8b 3d 2a b2 1a 3f cf 35 34 3e c8 9f ba 3e
       0.06833492 0.60428107 0.17598651 0.36450028
000120 25 ec 9d 3e 92 2d 32 3e 0d e1 32 bd 43 0c 92 3d
       0.30844226 0.17400196 -0.043671656 0.07131245
000130 33 38 83 3e ff bc 4f 3d 8e 18 6b 3d b6 30 23 bd
       0.25628814 0.05071735 0.057396464 -0.039841376
000140 cd 2d bd 3e dd 8c b3 3d a4 4e a7 be dc af 90 bd
       0.36949006 0.08767102 -0.32677186 -0.070647925
000150 27 7c d2 3e 64 66 2e 3c a7 8a a6 be a3 67 8c 3e
       0.41110346 0.010644529 -0.32527658 0.2742282
000160 0b 59 cf 3e ba e7 3c 3e 02 8c 99 bd c1 89 64 3e
       0.40497622 0.18447772 -0.074974075 0.22318174
000170 6d 9e 16 bd ec e7 a4 be 37 75 e7 bd 89 04 87 3d
       -0.03677218 -0.32208192 -0.11301654 0.06592662
000180 9f a3 88 3d 37 79 91 be b0 d7 20 3c 00 d4 64 bc
       0.06671833 -0.28412792 0.009817049 -0.01396656
000190 d8 50 c6 3d 42 5f 68 be 99 94 ba 3d f0 1c 96 3e
       0.096833885 -0.22692588 0.09110374 0.29318953
0001a0 a3 8e 03 3e 59 af 5c be b5 cb 13 3e e2 1a 61 be
       0.1284738 -0.21551265 0.14433177 -0.21982911
0001b0 be 9e f5 3e 2c 9a ab bd fa ea 1d 3e 25 ea 07 3f
       0.47972673 -0.08379015 0.15421668 0.5309165
0001c0 f4 ac 5e bd 92 de 6c be 33 d3 72 3d 93 0e 96 3e
       -0.05436416 -0.23131779 0.059283447 0.29307994
0001d0 29 0a 69 be 00 e2 ce 3b 0d d1 5a bd 36 0b 6d be
       -0.22757782 0.0063135624 -0.053422023 -0.23148808
0001e0 38 80 7a 3e 91 36 b4 3e bc 1c 21 3f e2 3d 69 be
       0.24462974 0.3519788 0.6293447 -0.22777513
0001f0 4d 23 a7 3d c5 8e 5d be 5a 82 52 be 34 b0 85 bc
       0.0816103 -0.21636494 -0.20557538 -0.016319372
000200 b4 01 52 be 48 8c 75 bc 8d 9e 64 be cd 47 bd bd
       -0.20508462 -0.014987059 -0.22326107 -0.092422105
000210 f8 92 69 be 49 4c 3d bd 50 95 15 3e f3 2f 42 3d
       -0.2280997 -0.04621533 0.1460774 0.04740901
000220 98 6b 86 bd 4b 40 09 3d 18 78 54 be e0 a0 a4 bd
       -0.06563491 0.03350858 -0.20748937 -0.08038497
000230 f8 7b a3 3d 09 86 2b 3e cd 90 11 3b 68 2f 61 bd
       0.079826295 0.16750349 0.0022211552 -0.05497685
000240 05 56 91 bd 10 03 e0 3a 53 bc 61 3b 89 6b 50 be
       -0.07096485 0.0017090756 0.0034444525 -0.20353521
000250 37 b4 08 3e 60 13 b5 bd a8 39 a2 3d 64 a9 86 be
       0.13349997 -0.08841586 0.07921153 -0.2630111
000260 08 03 a2 3d 34 f7 7b 3e 3b 4d 3e 3e 6d dc eb bc
       0.079107344 0.2460602 0.18584149 -0.02879163
000270 70 8d 95 3d 44 29 84 3e c2 1d 31 3e 2c 4e ac be
       0.07302368 0.25812733 0.17296508 -0.3365339
000280 8d 14 80 3d f3 3b 8e bd 63 af 69 be 78 6b a8 3c
       0.0625392 -0.06945028 -0.22820811 0.020559058
000290 67 c6 f1 3a 12 84 22 3d a7 8d 4d bc 5a 47 42 be
       0.0018445969 0.039676733 -0.01254598 -0.18972531
0002a0 88 76 7c 3e 2a fb 99 be e5 e7 6b 3d 6f 94 20 3d
       0.24654591 -0.30074435 0.0575942 0.039204057
0002b0 33 b6 25 3d fc 36 63 3e 9d 43 ed bd 7f d8 12 be
       0.04045696 0.22188944 -0.11585162 -0.14340399
0002c0 19 fc 7b be b1 79 72 be bb de fa bd 05 9e ef bd
       -0.24607886 -0.23679234 -0.12249514 -0.11700062
0002d0 22 2d ca bc 1d 0f 8a bd 2b ef 07 be 30 03 c4 bd
       -0.024679724 -0.06741164 -0.13274829 -0.095709205
0002e0 58 66 80 be ab 43 1a be ae ab 05 3e c7 21 5e be
       -0.25078082 -0.15064876 0.13053772 -0.21692573
0002f0 6e 47 72 bc e7 69 95 bd 30 17 0f be e2 a6 4c bd
       -0.014787538 -0.0729559 -0.13973689 -0.04996384
000300 e7 81 01 3c 7c aa 94 be 97 71 27 3e 32 4d 5d be
       0.007904506 -0.2903632 0.16351925 -0.21611479
000310 7f ad 2b be bd a8 17 3e 2a 8a 0a be e7 e4 5a 3d
       -0.16765402 0.14810462 -0.13529268 0.053440955
000320 ee 4b 6d bd 2c 81 c5 be c6 46 75 3d b4 61 77 bc
       -0.05793374 -0.38575113 0.059881948 -0.015098978
000330 7c 09 86 bd 01 d6 77 3e e3 3c fe 3d 38 d8 bd be
       -0.06544778 0.2420273 0.12413957 -0.37079024
000340 09 d2 1f 3d 1e e7 6d be 09 7e 51 bd 6d 5d 7a bc
       0.039018665 -0.23232695 -0.051145587 -0.0152810635
000350 fc e2 bd be 34 34 ac 3e dd de 0d be d2 6f b4 bc
       -0.37087238 0.33633578 -0.13854547 -0.022025976
000360 79 aa 9c 3e f7 3e 14 be d8 34 be be d7 be 89 3c
       0.3059881 -0.14477144 -0.37149692 0.016814632
000370 15 85 80 3c 0d 12 07 3e 94 af 61 bd a4 e5 28 3e
       0.015688458 0.1319048 -0.055099085 0.16493851
000380 fa b3 3e 3e 5a eb a9 3d 60 aa 8a be ad 61 30 3e
       0.18623343 0.08296843 -0.2708311 0.1722476
000390 1f 50 80 3e b3 84 4c 3e 8a c3 e2 3e 00 25 a3 bc
       0.25061128 0.19972496 0.4428981 -0.019915104
0003a0 c3 6d 8c be 14 61 a0 3e ed 55 25 bd 05 bc cf bc
       -0.27427492 0.31324065 -0.04036515 -0.02535821
0003b0 5e 72 80 be 38 4f 84 be 51 72 eb 3e 4d a5 a8 bd
       -0.25087255 -0.2584169 0.45985654 -0.082346536
0003c0 c8 f7 0a 3e 74 cc 08 3f ea 4f 88 bd 1f 21 09 be
       0.13571084 0.5343697 -0.066558674 -0.13391541
0003d0 65 ad 78 be 5e 08 bd 3c 79 de d8 3d 9b 08 81 be
       -0.24284895 0.023075279 0.10589308 -0.25201878
0003e0 4e 21 e6 3d 33 f3 00 3e 2e bb 88 be 30 c5 88 be
       0.11236821 0.12592773 -0.26705307 -0.26712942
0003f0 0e 76 8a be 2e e7 79 bc 01 9c a1 be 6b 80 1e 3c
       -0.27043194 -0.015252871 -0.31564334 0.009674172

fc1.bias f4 [128]
000000 67 d8 2f be 2f 08 7d 3e b7 7f bd 3e 91 61 86 3e
       -0.17172395 0.24710153 0.370115 0.26246312
000010 75 7b 53 3e a5 94 2e be a1 8d 66 3e dd aa ea bd
       0.20652564 -0.17048891 0.22514965 -0.11458371
000020 ec 8a bd 3e 4b 4f 77 3e f7 28 7d 3e 99 b5 d2 bd
       0.3702005 0.24151342 0.24722658 -0.10288543
000030 41 e9 40 bd 93 7b ad 3d bd 9d 35 3e 4a 9c c0 bd
       -0.04709745 0.084708355 0.17735954 -0.0940481
000040 7c b7 92 bc eb f7 b5 3e ca 8c 43 be 11 c7 e3 bd
       -0.017909758 0.3554071 -0.19096676 -0.11121953
000050 26 02 77 3e 51 44 c3 3e 36 6f 6f bd bf 32 28 bc
       0.24121913 0.3813806 -0.05845567 -0.010266005
000060 bf f1 a4 3e 8a 7d b1 3d 60 e7 1b 3e f1 98 cf 3e
       0.32215688 0.08666523 0.15224981 0.40546373
000070 1c 96 b4 bd 98 46 39 be 06 95 32 be a6 94 85 3e
       -0.088176936 -0.18093336 -0.1743966 0.26089972
000080 5c 0d 39 bd e8 d0 47 be 7f da 77 3e d1 93 3e be
       -0.045178756 -0.19513285 0.24204443 -0.18611075
000090 53 41 cc bd 5a c7 44 be 42 38 ee bd 8c 8b 94 be
       -0.09973397 -0.19216672 -0.11631824 -0.29012716
0000a0 2b 0f 0d be f8 3e 15 3e 8e 5f 72 bd ed d1 d2 bc
       -0.13775317 0.14574802 -0.05917316 -0.025734866
0000b0 78 08 4c be 4a 6a 91 3d 93 b5 6b 3e c7 76 36 be
       -0.19925106 0.07100351 0.23018484 -0.17818747
0000c0 94 46 86 be bd 5b 11 be b8 37 9a bd b8 94 bf 3c
       -0.26225722 -0.14195152 -0.07530159 0.023386344
0000d0 11 ee 62 be 55 35 6c 3d 17 ac f3 3c ad b0 b2 be
       -0.22161128 0.05766805 0.029745145 -0.34900418
0000e0 d8 5f 3c bd 58 80 3b 3d 6f 30 90 3e d9 29 89 bd
       -0.04598984 0.045776695 0.28161952 -0.06697435
0000f0 6a 3c 59 3e f9 5d ae 3e fa ea ae bd ec 71 c8 3d
       0.21214452 0.3405607 -0.08540912 0.09787354
000100 a9 37 7e 3e 65 0a 62 be 21 bd 83 be 5f 6f 81 3e
       0.2482592 -0.22074278 -0.2573023 0.25280282
000110 38 2d 8b 3d ee b6 d7 3d 33 b3 a4 bc c5 23 25 be
       0.06795734 0.10532938 -0.02010498 -0.16126926
000120 54 2a ac 3e b1 1a 44 be 06 fa 80 3d 6f 75 83 bd
       0.33626044 -0.19150807 0.06297688 -0.06418883
000130 a4 d2 6f be 0f da a5 be 41 5e 8a be 77 69 ab bd
       -0.23420197 -0.32392928 -0.27025035 -0.08369725
000140 6f bf f9 3d ff 32 50 be bb b2 1d be 91 a0 5d be
       0.12194716 -0.20331953 -0.15400212 -0.21643282
000150 2e d6 46 be ba 23 96 3e f5 73 8c 3e 18 19 b4 3e
       -0.1941764 0.29324132 0.27432218 0.35175395
000160 72 91 fd bc 88 eb 06 be 16 95 42 be 33 8b 5f 3e
       -0.030953143 -0.13175786 -0.19002184 0.21830444
000170 9d b4 58 3d ad 3a 96 3e 4e bd b1 3e 06 db 32 be
       0.05290662 0.2934164 0.3471474 -0.17466363
000180 47 0b f5 bd 40 8a 9b 3e 30 83 8a 3e 2c 72 1e 3d
       -0.119650416 0.30378914 0.27053213 0.0386831
000190 2c 47 73 bd d5 06 44 be 4f c4 3d be 95 f9 f7 bd
       -0.059394047 -0.19143231 -0.18531917 -0.12108151
0001a0 43 30 4a 3d f4 98 78 bd 5f 0f 3e 3e b4 bb fa 3d
       0.049362432 -0.060692742 0.18560551 0.12242833
0001b0 b0 91 83 bd 2d 0e 86 3e 8d 0f c1 bd 2e c1 0b be
       -0.06424272 0.2618269 -0.09426794 -0.13647911
0001c0 9e 38 d0 3d 1a ff 47 be c7 d1 10 be 76 48 4f be
       0.10167049 -0.19530907 -0.14142524 -0.20242485
0001d0 54 32 b8 bd c9 08 c8 3d 05 01 50 be d0 78 33 3d
       -0.08993974 0.09767301 -0.20312889 0.043816388
0001e0 63 c1 e9 3c 02 25 2d be cf 3b 80 bd 46 fb bc 3a
       0.028534597 -0.16908649 -0.062614076 0.0014418147
0001f0 be c4 94 3d 4d b1 21 3e a0 3a 88 bd 7f 07 c9 3e
       0.07264088 0.15790291 -0.06651807 0.39263532

fc2.weight f4 [128, 128]
000000 81 4d 16 3e 85 6a 0a 3e 53 ee 96 bd 59 73 36 3e
       0.14678003 0.13517196 -0.073696755 0.17817439
000010 1d c1 2d be 13 9d 6a 3d 30 23 20 bb 83 7e 03 3e
       -0.16968198 0.057278704 -0.0024435036 0.12841229
000020 81 3b 2e 3e f4 ad 5a 3e 9d ea 9f 3e 65 99 55 3d
       0.17014886 0.2135542 0.31233683 0.05214824
000030 29 3b 02 be 3f 66 8a 3e 6c e8 1d be ae 77 d0 bd
       -0.1271788 0.27031133 -0.15420693 -0.10179077
000040 b6 cb ad bb f1 ea 44 3e 46 7f 89 bd 9d 87 9a 3c
       -0.0053038253 0.19230248 -0.067137286 0.018863494
000050 d0 1f 6a bd 74 ab 89 be 4e c1 9f 3c 75 bd 2f be
       -0.057159245 -0.2688862 0.019501355 -0.17162116
000060 46 84 3a bc 06 52 3a 3e 0a 29 7a 3e 0f 99 8f 3d
       -0.0113840755 0.18195352 0.24429718 0.070116155
000070 c9 93 a5 be f1 ac 81 bd dc 36 92 bd ce ef 28 3d
       -0.32339314 -0.06331814 -0.0713937 0.04124432
000080 fd db 21 bd 67 c9 8f bd f9 8a 03 bc 01 5a 31 3c
       -0.039516438 -0.07020836 -0.008028739 0.010824681
000090 f1 0a ae bd 29 a9 53 bd 0a 01 f5 ba 7a ec 16 be
       -0.08498181 -0.051674996 -0.0018692326 -0.14738646
0000a0 ba b8 09 3d ed b3 01 3c 8e 14 56 bd fa 84 b2 be
       0.033623435 0.007916433 -0.052265696 -0.34867078
0000b0 34 89 db bd 56 69 12 bc f9 ca be 3d e5 ec 99 3d
       -0.10719529 -0.008936247 0.09316058 0.07515887
0000c0 b7 1c c2 be 3a 8d 90 bd 53 bc e5 3d 40 c8 02 bf
       -0.37912533 -0.07058187 0.112175606 -0.5108681
0000d0 b2 01 7b be d0 83 18 bd 50 ea f2 bd 30 15 47 3e
       -0.24512365 -0.03723508 -0.11861098 0.19441676
0000e0 ee 61 71 be e7 e9 83 3d b4 b8 9e 3d e7 7e 22 be
       -0.23572513 0.06441098 0.07750073 -0.15868722
0000f0 83 85 30 3e 7c 35 2c be 60 01 51 bd fc 4e c1 3d
       0.1723843 -0.16817278 -0.051026702 0.09438893
000100 6a 87 2a be 9a bb 1b 3e b9 6b 4f be f8 c0 78 be
       -0.16653219 0.15208283 -0.20255937 -0.24292362
000110 06 95 18 3e 4d 62 19 bd ff 73 85 3d 41 33 22 bb
       0.14900598 -0.037447263 0.06516265 -0.0024749788
000120 40 4a 81 bd 7e 23 d6 3d c8 fa 30 bd d0 1e 2d 3e
       -0.0631299 0.10455988 -0.043207914 0.16906285
000130 43 89 c2 bd 33 d5 f5 bd d5 1a 4b 3e f2 3e 87 3d
       -0.09498837 -0.12003555 0.19834454 0.06603803
000140 c3 e8 13 bf c6 20 a1 bc 91 93 09 3e 21 2a fe 3d
       -0.5777704 -0.019668948 0.13435198 0.12410379
000150 3f 0b 92 3e 90 d5 30 be 2d 11 4c 3e 6e 3c ed 3d
       0.28524205 -0.17268968 0.19928427 0.11583792
000160 44 4e 85 bd 80 05 eb 3c 2a c9 36 3e 19 b1 07 3e
       -0.065090686 0.028689146 0.17850175 0.13251151
000170 bb 30 2d be fd 6a 63 3e 45 30 72 bd 2e 60 15 bd
       -0.1691312 0.22208782 -0.059128065 -0.036468677
000180 38 d4 5a bd 8e e7 37 be 43 93 e0 be 2c 2e ff 3d
       -0.053425044 -0.17959425 -0.43862352 0.124599785
000190 f2 32 64 3c a0 66 9c be c5 79 0e 3d d7 e7 8d 3d
       0.013928162 -0.30547047 0.034784097 0.069289856
0001a0 ec c8 d4 be c4 2e 9e 3d c1 fa ed bd 02 f6 bc 3d
       -0.4155954 0.077237636 -0.11620093 0.0922661
0001b0 b5 08 42 be c6 1a 3c 3e 3b 40 c6 bd 8c b9 92 3d
       -0.18948634 0.18369588 -0.0968022 0.071642965
0001c0 11 8d 10 3b 88 38 6c be 24 28 ba 3c 35 98 37 bd
       0.0022056738 -0.2306844 0.022724219 -0.04482289
0001d0 06 c3 1c 3d f7 95 56 3e 92 10 20 3e d0 31 0e be
       0.038271926 0.20955645 0.15631321 -0.1388619
0001e0 dd bc 01 3e 7c db a4 3e 65 3e 8a be 52 8b 56 3e
       0.12669702 0.32198703 -0.27000728 0.20951584
0001f0 e9 42 33 3e d9 a5 1a be d1 30 13 3e 50 7d c3 3d
       0.17505993 -0.15102328 0.1437409 0.09545386
000200 b2 54 b9 bb ad aa 23 3e 48 26 17 be c0 8a 7e 3d
       -0.0056558484 0.15983076 -0.14760697 0.06214404
000210 c3 af ee bd 4e 0c 08 3e ee a5 e2 3d 2b 03 6a bd
       -0.11654618 0.13285944 0.11066805 -0.057131927
000220 b6 a8 2e 3d 18 57 64 3e 89 41 16 3e 44 81 d6 3d
       0.042641364 0.22298849 0.14673437 0.10473874
000230 56 4d 36 3e 96 1e 7f 3e 7b 16 eb 3c f7 ff 3f 3e
       0.17802939 0.24914011 0.028697243 0.18749987
000240 16 ab 33 3d 5f 83 e8 3d f0 bc 25 bd 7d 9a e1 3d
       0.043864332 0.11353182 -0.040463388 0.110157944
000250 48 a9 73 bd ce 70 00 bc eb 40 85 3e 1f 30 d6 bd
       -0.05948761 -0.007839395 0.2602609 -0.10458397
000260 25 61 28 bd 73 49 1f 3e 68 5c 62 3e 45 0b 1f bd
       -0.04110827 0.15555362 0.22105563 -0.038829107
000270 a7 d3 03 bc 14 24 8f bd 60 b1 9d 3d f4 e1 89 3d
       -0.008046067 -0.06989303 0.07699847 0.0673255
000280 f4 10 5c 3d ae ad 81 bc 36 d4 c9 3d 21 69 74 bd
       0.053727105 -0.015829887 0.09854929 -0.05967057
000290 c2 ad 1b bd 63 c2 40 3d c3 62 83 3c 87 3b 7d 3d
       -0.038007505 0.04706038 0.016038304 0.061824348
0002a0 9d 59 26 3e e3 3b 45 be ad ef 94 bd 24 19 66 3d
       0.16245122 -0.19261126 -0.07272277 0.05617632
0002b0 c0 d1 9a bd c7 c7 61 be 47 d7 aa 3d b6 10 6f bd
       -0.07559538 -0.22048865 0.08341842 -0.058365546
0002c0 24 31 94 3d a2 fb 30 bd be e2 88 3c 5a cf 89 3e
       0.07235935 -0.043208726 0.016709682 0.2691601
0002d0 37 f3 a8 3d b4 ba bc 3d af a6 81 3e 06 e9 ba 3d
       0.082495145 0.09215298 0.25322482 0.09126477
0002e0 df 3e 23 3e b1 3f 14 3c 96 47 93 3d 86 d9 51 bc
       0.15941952 0.009048388 0.07191388 -0.012808209
0002f0 f0 e3 a5 3e 22 81 54 3b 26 63 14 3e 51 1f 40 3d
       0.32400465 0.0032425602 0.14490947 0.046904866
000300 75 d1 79 3d da a4 e6 3d 0a 9e 02 3d cf be af 3d
       0.06099077 0.11261912 0.031889 0.08581316
000310 2f 93 82 bd d7 8e ca 3b ae 6d 11 3e 03 9c 40 3d
       -0.06375729 0.0061815786 0.14201996 0.047023784
000320 ee 3b 86 3e 7b 9b 42 3e 41 a5 18 3e d5 20 c2 bc
       0.26217598 0.19004624 0.1490679 -0.023697296
000330 72 73 83 3d 42 57 30 bc 2d dd ce 3d 4f 78 66 3d
       0.06418504 -0.010762991 0.1010078 0.05626708
000340 38 da d2 3d ec 7d 2e 3e 4a 95 0c 3d 58 12 4e 3d
       0.10295528 0.17040223 0.03432206 0.050310463
000350 ce 6d 49 be 19 2a 0a 3e 54 cd bf 3d 66 a0 0e 3e
       -0.19670793 0.13492621 0.09365335 0.13928375
000360 59 c5 61 3e 3d 95 c9 3d 49 06 cf 3d 55 22 7b 3e
       0.22047938 0.09842918 0.10108621 0.24524815
000370 a0 7e f3 3d af 44 2f 3e 0c b7 6d be bd c1 b3 3d
       0.11889386 0.17116044 -0.23214358 0.08777187
000380 74 85 b3 bc 4a be d5 3d 63 e3 89 3e 05 f7 33 3e
       -0.021914221 0.104366854 0.26931295 0.17574699
000390 e3 4b 90 3d f0 84 d0 bd 09 b6 a2 bd ea 36 2d 3e
       0.07045724 -0.10181606 -0.07944877 0.1691548
0003a0 02 93 18 3e c5 18 ba 3d 15 69 1c be ee e5 bc 3d
       0.14899829 0.09086756 -0.1527446 0.09223543
0003b0 c9 14 32 3e 13 d5 90 3e 10 57 ac 3d 78 92 16 3d
       0.17390741 0.28287563 0.08415043 0.036760777
0003c0 39 5d 3a be 5b 7e cc 3d f9 d4 e2 3d 55 7b e4 bc
       -0.18199624 0.09985038 0.110757776 -0.02789084
0003d0 5b 20 3a 3e 45 78 15 3e 22 ef e4 3d 87 c7 2d 3e
       0.18176405 0.1459666 0.111784235 0.16970645
0003e0 01 2f d3 3d 7b a8 93 3e ff d8 a2 3d 23 16 21 3e
       0.103117 0.28839478 0.07951545 0.157311
0003f0 d4 4f 75 3e 95 90 52 be 91 d8 62 3d 0c 10 01 3e
       0.23956233 -0.20562966 0.055382315 0.12603778

fc2.bias f4 [128]
000000 d6 2e f2 3d 40 71 b0 3d 02 a9 e9 bd 6a 2c 18 3e
       0.118253395 0.08615351 -0.11409189 0.14860693
000010 c5 42 40 3c af a1 1b 3d 90 c0 83 3e 4d ea 8c 3e
       0.011734669 0.03799599 0.2573285 0.27522507
000020 f0 4b 67 3d cd 84 88 3d 09 de 89 bd 72 ae d8 bd
       0.056468904 0.06665955 -0.06731803 -0.10580148
000030 12 e0 4f 3e e5 ea bc 3b f0 36 41 bd 4f 12 33 bd
       0.2030032 0.0057653063 -0.047171533 -0.043718632
000040 0a 97 b8 3e 5f d5 16 3b 30 47 79 bd 7f 70 94 bd
       0.36052734 0.0023015363 -0.060858905 -0.072480194
000050 4c c3 80 bd b0 c7 f6 3c 11 98 6a bd 3b 4d b5 bd
       -0.0628725 0.030124515 -0.057273928 -0.08852621
000060 55 4e 10 bd 28 3b 1c 3e 4b c9 b0 3e 76 86 87 3e
       -0.035230953 0.15256941 0.34528574 0.26469773
000070 74 d0 8f 3e e9 d9 43 3e ab 93 4b 3d b2 23 3e bd
       0.28088725 0.19126095 0.049701374 -0.04642076
000080 74 07 9e 3e a0 5b 9d 3e b2 2b 27 3d 40 68 a4 3e
       0.3086506 0.30733967 0.040813155 0.32110786
000090 ca ea 8e 3e 5f af 3f bd c6 40 42 3e b5 06 4f bd
       0.27913505 -0.046798106 0.18970022 -0.050543506
0000a0 d1 32 59 3e 3d 68 4f 3d 2a d3 ac 3d 6b 81 87 bd
       0.21210791 0.05063652 0.08438714 -0.066164814
0000b0 dd 11 27 3d db fa d5 bd c6 df 14 be 39 b0 4d 3e
       0.04078852 -0.104482375 -0.14538488 0.20086755
0000c0 a1 00 0b 3e 98 10 5b 3e 51 3e 1a bc 5b b3 98 bd
       0.13574459 0.21393049 -0.009414271 -0.07456084
0000d0 19 2e aa bd 10 e3 e0 bc d9 a4 8e 3e a3 d6 90 3e
       -0.08309574 -0.027452022 0.27860144 0.28288755
0000e0 af cc ee bd bd a1 31 3d 32 e6 55 3c f6 fa 80 bd
       -0.11660134 0.043367136 0.013055371 -0.06297867
0000f0 a9 c4 ac 3e ae 6d ab 3e 7c 9a 03 be 06 99 3a 3e
       0.3374379 0.33482116 -0.128519 0.18222436
000100 12 2b db 3a e7 04 76 bd ed a1 4d be 07 3c be 3e
       0.001672121 -0.06006327 -0.20081301 0.37155172
000110 d9 2f 5e 3d 3d 04 27 be 18 e5 f4 bd b7 c3 f6 3e
       0.05424485 -0.1631021 -0.11957759 0.48196194
000120 77 9e 7d bd a2 0d c6 bd 07 d8 38 3e 63 a3 3f bc
       -0.061918702 -0.09670569 0.18051158 -0.011696669
000130 40 ae 99 bd ad 9e 87 3d 0d 1e 9b bd 6e d4 ef bd
       -0.07503939 0.06622062 -0.07574091 -0.117104396
000140 8b c8 9e 3d a9 af 93 3e f1 52 81 3d 0c 5a 98 3d
       0.07753094 0.28844956 0.06314648 0.0743905
000150 5a f6 16 bd d6 7d 26 3e 15 21 9d 3b 0a 7d 4c bd
       -0.036856033 0.1625894 0.0047952035 -0.049923934
000160 4c 00 68 3e f3 ef 94 bd 80 78 ca 3e 2b 5a a6 3e
       0.22656363 -0.07272329 0.3954506 0.32490668
000170 10 11 38 3e b7 cc 24 3e 00 56 c2 bc a7 2c ee bc
       0.17975259 0.16093718 -0.023722649 -0.029074026
000180 c4 03 93 3e 35 e4 33 bd d3 dd 12 be 09 cd db 3d
       0.2871381 -0.043918807 -0.14342432 0.10732467
000190 3b 1d d5 bd 1b 26 58 bd c2 eb 2e 3d 8c 33 a6 bd
       -0.10405966 -0.052770715 0.042705305 -0.081153005
0001a0 b8 e8 bc bd 82 0f 49 3c 9e 6a ce bd 9e 35 3e 3e
       -0.09224075 0.012271764 -0.10078929 0.18575141
0001b0 65 d4 0c bd 96 b5 8b bd 8b 1e 97 bd 09 a5 de 3d
       -0.034382243 -0.06821744 -0.073788725 0.10871322
0001c0 49 e5 ba 3d f0 99 35 bd 85 2c 93 bd e7 83 a2 3d
       0.09125764 -0.04433626 -0.07186226 0.079353146
0001d0 a0 51 9e 3e 81 7e 50 3e b7 1d f1 bc f2 ad 6a bd
       0.3092165 0.20360757 -0.029433114 -0.057294793
0001e0 36 f0 5e 3e 0d 56 b2 bd f5 7e 16 bd 35 64 01 3e
       0.2177132 -0.08707819 -0.03674217 0.12635882
0001f0 af 33 0c 3d 6f f6 7e bd 82 13 1e 3d 4e 58 62 3e
       0.034228977 -0.062246736 0.038592823 0.22103998

fc3.weight f4 [4, 128]
000000 3b 8b 2b bd 75 3c 56 3e d2 fc 0d bd 1f bb f8 3d
       -0.041880827 0.209215 -0.034664936 0.121450655
000010 ce 72 a9 bc f4 78 cd b9 d2 64 96 bd b7 b6 2e 3e
       -0.020684626 -0.00039190764 -0.07343449 0.17061888
000020 60 f0 93 be ec 72 82 3d 67 a4 72 3d f8 96 0f bd
       -0.2889433 0.06369576 0.059238818 -0.035056084
000030 d9 75 34 3e 1a 4a c0 3d 4d 48 ed bb 7a 34 8f 3c
       0.1762308 0.09389134 -0.007241285 0.017481077
000040 4f e7 80 bd 95 31 51 bc c1 91 06 3c 01 fd 80 3c
       -0.062941186 -0.012768169 0.008213461 0.015745642
000050 7f 9f 2f 3d f0 02 70 3d 79 89 29 bd 68 d0 d5 bb
       0.042876717 0.05859655 -0.04139087 -0.006525088
000060 fc f9 0b bd f7 2d 07 be 29 64 08 3e 74 e5 36 3e
       -0.03417395 -0.13201128 0.13319458 0.17860967
000070 f9 88 9e 3d 90 1f 89 3d 1f 96 1f 3e f9 9b 2d 3c
       0.07740969 0.06695473 0.1558461 0.010596269
000080 65 8d f6 3c 6e d1 c6 3e d2 84 86 3c ca 75 3b 3e
       0.030096719 0.38831657 0.016420756 0.18306652
000090 a0 0f c1 3d 8e c8 e2 3c d6 64 36 bf dd e2 2c 3d
       0.09426808 0.027683523 -0.71247613 0.04220854
0000a0 eb e7 09 3d c9 f6 9e bc 31 31 1a 3e 51 26 13 3d
       0.03366844 -0.019404786 0.15057828 0.035925213
0000b0 f4 eb a6 3d 32 72 9c bd 79 74 a1 3c b4 35 45 3e
       0.08150473 -0.076389685 0.019708859 0.19258767
0000c0 47 96 a9 bd 7f b2 53 3e 4e 49 bb bb d0 60 4b 3d
       -0.08280616 0.2067356 -0.0057155257 0.049652874
0000d0 bc 86 15 bd 75 ef 35 bd e5 8f 92 bd 86 76 5a 3e
       -0.036505446 -0.044417817 -0.07156352 0.21334276
0000e0 80 11 dd 3b 3a b5 2a bd 59 96 28 3d 38 3e de 3a
       0.006746471 -0.041676737 0.041159008 0.0016955798
0000f0 6d 2d 2c 3e 0b ef 55 bd 00 7e a9 3b 34 9c f0 3d
       0.16814204 -0.052229922 0.005172491 0.117485434
000100 de 62 31 bb 90 78 26 3d 73 2e 7a 3d 52 33 83 3d
       -0.0027066986 0.04064232 0.061079454 0.06406273
000110 a9 44 1f 3e 83 ab 71 bc 68 22 1b bd bb f7 1a 3e
       0.15553536 -0.014750364 -0.03787461 0.15133564
000120 4e 3b 87 3d a8 d0 3e bd 8f e8 82 3e fb 46 d8 3b
       0.06603108 -0.04658571 0.25568053 0.0066002584
000130 91 fb bb 3a 8c 6e 60 3e b1 ab 40 bc f9 23 ae 3b
       0.001434194 0.2191717 -0.011759684 0.005314347
000140 a3 f9 8f be 05 b6 3c 3e c3 8f 20 3e 2f 1c 2d 3e
       -0.28120145 0.1842881 0.1567984 0.16905282
000150 07 5c 21 3d bb 14 8f 3e 3d b2 c0 3c 32 b0 24 3d
       0.039394405 0.27945504 0.02352249 0.040207095
000160 b2 b8 19 3e dc 44 1f 3c c4 8f 4f 3e 3d 4a de 3d
       0.15011862 0.009721007 0.20269686 0.108540036
000170 e0 1b 55 3e 70 fb 52 3e f2 53 40 3d d7 d7 89 3c
       0.20811415 0.20603728 0.046955056 0.016826553
000180 75 a0 0e 3e f6 02 66 ba 6e 34 a5 3c 4a 40 f4 be
       0.13928397 -0.0008774245 0.020166602 -0.477053
000190 80 7a 25 3c 4b 51 45 ba 0f 51 f9 be 1e 3b 8a 3d
       0.010100007 -0.0007527067 -0.48694655 0.06749557
0001a0 53 fe ac bd 73 b1 f7 be d1 fd 83 3d 57 6b 03 3e
       -0.08446946 -0.4837757 0.06444896 0.12833916
0001b0 a5 c2 42 3d b6 a4 bc 3b 0b 4e d7 bc b7 0a 8f bd
       0.04754891 0.0057569398 -0.026282331 -0.069844656
0001c0 66 7b 71 3e ec 14 63 3d dc d8 d7 3a d1 be da 3c
       0.23582229 0.055439875 0.0016467827 0.026702316
0001d0 60 59 4b 3e e5 65 5b bf fb c5 5f 3d 0f a6 24 3c
       0.19858313 -0.85702354 0.05463217 0.010049357
0001e0 bf 53 15 3e 45 5c 0e bc 43 1f 8b bd 7b 5e 0d 3e
       0.14582728 -0.008688991 -0.06793072 0.13805573
0001f0 1a fb d2 be d6 43 13 bd b8 23 9d bd 93 c7 19 be
       -0.412072 -0.035953365 -0.076728284 -0.15017538
000200 7b fb ba 3d dd 08 9c 3c d5 7a e1 3c 2c 00 47 3d
       0.09129997 0.019047195 0.027524391 0.04858415
000210 bb 9a cc 3b 0e 1f 08 bc 6e a4 88 3d a6 5e e0 bb
       0.0062440312 -0.008308185 0.066719875 -0.0068472205
000220 12 6f 9d 3d 52 85 a7 3d ce ac 49 bd fb 1f 42 bd
       0.076872006 0.08179726 -0.049237065 -0.04739378
000230 ef f9 49 bf 40 46 35 3d ed 86 8f bc 66 74 06 3c
       -0.78896993 0.04425645 -0.017520392 0.0082064625
000240 d0 93 3f 3e 59 fd 1f 3d ac a9 e6 3c 76 f6 98 3b
       0.1870873 0.03905997 0.028157078 0.0046680523
000250 52 0f 23 3d 1f 50 e4 3c cf f0 8a 3d 7a 4b 22 3d
       0.039809532 0.027870236 0.06784212 0.03962276
000260 56 20 3d 3d 28 55 8b 3d 2d 5b 92 3e 78 8b 7d 3e
       0.046173416 0.06803352 0.28585187 0.24760234
000270 3a aa ca 3d bf 98 03 3e 96 b9 f9 3c 3e 9c 94 bc
       0.098957494 0.12851237 0.030484002 -0.018140908
000280 41 58 86 3e 48 6c 78 3d 40 fb 5a 3c a6 f8 86 3e
       0.26239207 0.06065014 0.013365567 0.2636158
000290 eb 93 43 3e d0 e4 11 3c 7b 13 ac 3d 8e c5 ae bb
       0.19099395 0.008904651 0.08402153 -0.005333609
0002a0 c6 f0 1b 3d 95 4d 16 bb 88 29 35 3e 22 5f ae bd
       0.038071416 -0.0022934426 0.17691624 -0.08514239
0002b0 0b e2 6f 3d 12 d8 e5 3b 88 cc 17 3b 3d 50 cf 3d
       0.05856518 0.007014283 0.0023162682 0.10122726
0002c0 e8 5c 1b 3d 9d 1b 56 bf c6 f3 5c 3d 02 c3 4c 3c
       0.0379304 -0.83635885 0.053943418 0.012497665
0002d0 9c 55 a4 bb ee d6 89 bd f3 08 67 3e e7 87 46 3e
       -0.0050150882 -0.06730448 0.22562008 0.1938778
0002e0 2c 44 37 3c 0c b2 bc bd da 71 b0 3c 78 95 f7 3b
       0.011185687 -0.09213647 0.021538664 0.00755566
0002f0 26 ed 7a 3e c3 16 87 3e 4b f3 27 b9 b7 74 02 3e
       0.24504527 0.26384553 -0.00016016995 0.12739836
000300 35 de 3c bd fc 73 7b bc c1 f6 9a 3b 26 e4 7d 3e
       -0.04611035 -0.015347477 0.0047291224 0.24794063
000310 35 c4 25 3c 36 8d de bc a7 ef a9 3d 15 c0 43 3e
       0.01011758 -0.027166944 0.08297663 0.19116242
000320 e6 70 85 bd da e7 9d 3d bc 94 d3 3d c6 51 a2 bc
       -0.06515674 0.07710238 0.10331103 -0.019814383
000330 ca 4f 56 bc 37 42 ab 3c 56 bb 2e bd 31 fd 02 3c
       -0.013080547 0.020905597 -0.042659126 0.007994936
000340 79 7c 91 3d 9e 76 a5 3d 81 8e 9b bd ce ee f0 bb
       0.071038194 0.08079265 -0.0759554 -0.0073526865
000350 e2 22 36 3d 09 3d 11 3d d3 23 8f bd 5d c6 0f bc
       0.04446686 0.0354586 -0.06989255 -0.008775321
000360 d8 60 38 bc 7f 9b 01 3c 52 df 6c bf 75 4b 70 bf
       -0.011253558 0.007910608 -0.9252826 -0.9386514
000370 2b 6d 79 3e 99 1e 48 3e fe 7e a4 bd 9a a3 d4 3c
       0.2435805 0.19542922 -0.08032034 0.025956918
000380 0a 4d 5c 3e 75 dd ac bc 3e 81 d8 bb 77 1c 96 3d
       0.21513763 -0.021101693 -0.0066072037 0.07329648
000390 be 03 0a 3b 6c ff ad 3b d6 c3 91 3d b9 8a a6 bd
       0.002105936 0.0053099897 0.07117431 -0.08131928
0003a0 20 22 21 3d a6 02 6e 3d b4 2e ef 3c c2 d0 eb 3c
       0.039339185 0.058107994 0.029197074 0.028786067
0003b0 17 c9 72 3a 37 4a 25 3c 16 e7 2a bc 80 23 00 3d
       0.0009261532 0.010088495 -0.010431072 0.031283855
0003c0 97 9e 4f 3d ad 69 a2 bd d3 9c b9 bc c2 f2 33 3e
       0.050688352 -0.07930312 -0.022657787 0.17573074
0003d0 3a d8 8b 3d ee bd 66 3d 70 88 83 bc 9e 29 ea 3c
       0.06828351 0.056333475 -0.01605627 0.028584298
0003e0 b0 bc 98 3c ca 0b 0f 3a 49 38 e8 3d 3f 1b 05 3d
       0.01864466 0.0005456774 0.113388605 0.032496687
0003f0 a6 ac 88 3d 33 00 2c bd 3f 1a 27 bd 21 c4 ce 3d
       0.06673555 -0.041992377 -0.040796515 0.10096002

fc3.bias f4 [4]
000000 97 77 4f 3d 0f fc 55 3e b5 a4 12 3e a4 44 ef 3d
       0.05065116 0.20896934 0.14320643 0.11683014
