models/dqn_gridword_classification.pth (torch, 72965 bytes, 6 tensors)

fc1.weight f4 [128, 2]
0.23504801 0.5311559 -0.3120676 0.79868084 1.0956925 0.027081346 -0.23368543 -0.6840959
-0.42192185 0.88637114 1.0992961 1.1852785 -0.048668522 -0.6089331 0.01339258 -0.052934073
0.35382515 -0.035870876 0.15650088 -0.36088815 0.24693261 -0.35859153 -0.025441626 0.027060827
-0.508689 -0.48991838 -0.65356684 0.2722893 -0.31312907 0.4527433 -0.0043007294 -3.0073312e-05
0.45382586 0.0964028 -0.21796773 -0.29640147 -0.037876297 0.03570891 -0.45188 0.5250678
-0.66595167 -0.8106149 0.12843564 -0.8417446 -0.5951806 -0.5962386 0.24985817 0.7683724
0.26482144 -0.79311943 0.21419388 -0.09451071 0.5059377 -0.18958263 -0.45393527 0.31512073
0.09203978 0.31029782 -0.74158573 0.047666155 -0.2246598 0.48311022 -0.012431394 0.07463405
0.11138442 -0.25076312 -0.23999253 0.4414841 -0.01741697 0.06044004 -0.62849456 0.006799849
-0.2552966 0.5293358 0.3750772 -0.92613506 0.6622437 0.9541368 -0.56876075 0.20747638
0.8694337 0.8151652 -0.5848523 0.015215976 -1.0262167 0.043140136 -0.5279432 -0.37890172
0.5176153 -0.24032153 0.11196244 -0.32796833 0.7680603 0.8676813 -0.28248942 0.70601773
0.28843325 -0.6113037 0.17049415 -0.027975148 0.9656068 0.01665054 -0.2739647 0.028767426
0.036380578 0.0088132955 -0.11534018 -0.40291366 0.32802287 0.037315063 -0.48416683 0.66132355
0.24093615 -1.0597007 -0.2700755 0.006822461 -0.9125237 -0.15411882 -0.24570984 -0.006120118
0.7275989 -0.2165716 -0.32126883 -0.11313887 -0.37635332 -0.7915104 0.010673641 -1.0306566
0.8188887 -0.5264782 0.2186987 0.6582261 0.24969348 -0.7105657 0.2465186 0.6739689
-0.18507214 -0.5881958 -0.31625408 0.5608483 0.37574872 0.0010087556 0.5890798 0.23540455
-0.015907483 -0.019303666 -0.7135883 -0.9685441 0.22972791 -0.27154285 0.0024679694 0.011686385
0.1420724 -0.31362972 -0.11498838 0.307093 0.57262725 -0.2910276 -0.7812385 0.19290404
-0.015768284 0.28131422 -0.117537394 -0.67800075 0.13669048 -0.15805444 0.51695263 -0.033683755
0.32614473 -0.5969716 -0.17070727 -0.40968212 -0.5282557 -0.19195463 0.539285 1.0021722
0.5452478 0.054466892 -0.03181623 0.06330837 0.1965663 0.61562836 0.07249352 0.10409954
-0.43095326 -0.6587336 0.13220963 0.21274382 0.23657301 -0.35640875 -0.3560289 0.03090351
0.33644518 0.16148315 0.6117705 0.53130877 0.41970518 0.6621602 0.30049053 -0.5053789
-0.00431727 0.33917803 0.4320052 0.148067 -0.38166845 0.084255405 -0.9087185 0.27351728
-0.5355385 -0.5007075 -0.5133368 -0.63887346 -0.8847958 0.03328926 0.39694563 1.1485875
0.533652 0.60181266 -0.8271988 0.40719542 -0.13435057 0.7612301 0.90088534 -0.67988044
0.03166242 0.16346157 -0.255476 -0.57933927 0.34457728 -0.015161926 0.41426283 0.002022572
0.3829348 -0.7308352 0.050382014 0.1449689 0.12245369 0.6537255 -0.023487654 0.37022695
-0.019622033 -0.25050458 0.7334097 0.39983982 -0.78472424 0.1508324 -0.79183006 0.06703391
0.73219365 -0.2415829 -0.14938508 0.44553655 -0.018832179 -0.0063085733 0.06368296 0.056058846
00000000: 6db0 703e d5f9 073f 53c7 9fbe 5976 4c3f
00000010: a73f 8c3f b3d9 dd3c 3c4b 6fbe e920 2fbf
00000020: 2406 d8be 38e9 623f bcb5 8c3f 35b7 973f
00000030: a558 47bd 0ae3 1bbf 8d6c 5b3c 66d1 58bd
00000040: 9228 b53e 57ed 12bd c441 203e 55c6 b8be
00000050: e7db 7c3e 4f99 b7be f56a d0bc abae dd3c
00000060: 7139 02bf 95d6 fabe 2850 27bf 8169 8b3e
00000070: 7452 a0be f8cd e73e 22ed 8cbb f245 fcb7
00000080: dd5b e83e d56e c53d ef32 5fbe efc1 97be
00000090: 2d24 1bbd 8243 123d d15c e7be d86a 063f
000000a0: cf7b 2abf 7584 4fbf a284 033e 937c 57bf
000000b0: c15d 18bf 18a3 18bf d2da 7f3e 0eb4 443f
000000c0: ad96 873e e009 4bbf a455 5b3e d58e c1bd
000000d0: 2285 013f f321 42be 346a e8be 8157 a13e
000000e0: 5a7f bc3d 5bdf 9e3e 90d8 3dbf 963d 433d
000000f0: 380d 66be 395a f73e 0cad 4bbc bdd9 983d
00000100: 841d e43d 0664 80be 9ac0 75be 340a e23e
00000110: 09ae 8ebc fa8f 773d 05e5 20bf 45d1 de3b
00000120: 3cb6 82be 8d82 073f 1e0a c03e 3017 6dbf
00000130: ce88 293f 4f42 743f 4e9a 11bf b074 543e
00000140: 3593 5e3f abae 503f e1b8 15bf 6e4c 793c
00000150: 125b 83bf b6b3 303d 4927 07bf 68ff c1be
00000160: 7082 043f d916 76be 904c e53d 77eb a7be
00000170: 9a9f 443f 5d20 5e3f 74a2 90be 94bd 343f
00000180: 86ad 933e 667e 1cbf 0596 2e3e 232c e5bc
00000190: 0232 773f b766 883c 1a45 8cbe aaa9 eb3c
000001a0: cd03 153d a465 103c 7937 ecbd b34a cebe
000001b0: 9df2 a73e aed7 183d b7e4 f7be 804c 293f
000001c0: f7b7 763e 46a4 87bf 5647 8abe f38e df3b
000001d0: 279b 69bf 53d1 1dbe 5c9b 7bbe 458b c8bb
000001e0: ec43 3a3f f2c4 5dbe 597d a4be 5ab5 e7bd
000001f0: 62b1 c0be 6da0 4abf 7fe0 2e3c 8eec 83bf
00000200: b1a2 513f 46c7 06bf 8df2 5f3e 8181 283f
00000210: a6af 7f3e a2e7 35bf 5f6f 7c3e 3a89 2c3f
00000220: 8d83 3dbe 0094 16bf 0eec a1be c193 0f3f
00000230: 2362 c03e 3938 843a efcd 163f e40d 713e
00000240: 6950 82bc b922 9ebc b9ad 36bf 82f2 77bf
00000250: cb3d 6b3e aa07 8bbe a8bd 213b 4078 3f3c
00000260: 6d7b 113e 1394 a0be 077f ebbd 4b3b 9d3e
00000270: b397 123f 9201 95be 3fff 47bf a388 453e
00000280: 7d2c 81bc 6b08 903e 72b7 f0bd 7591 2dbf
00000290: 97f8 0b3e 06d9 21be 0257 043f faf7 09bd
000002a0: 71fc a63e 21d3 18bf e3cd 2ebe dbc1 d1be
000002b0: c43b 07bf c18f 44be 950e 0a3f 2e47 803f
000002c0: 5c95 0b3f ad18 5f3d bc51 02bd d2a7 813d
000002d0: ad48 493e d299 1d3f 7c77 943d 2432 d53d
000002e0: e8a5 dcbe c4a2 28bf f661 073e 84d9 593e
000002f0: 3240 723e 357b b6be 6c49 b6be 5c29 fd3c
00000300: 8b42 ac3e d75b 253e fe9c 1c3f da03 083f
00000310: 99e3 d63e 5583 293f e5d9 993e 8360 01bf
00000320: e377 8dbb bea8 ad3e c92f dd3e e09e 173e
00000330: 0c6a c3be 198e ac3d c7a1 68bf 750a 8c3e
00000340: 0d19 09bf 5e2e 00bf 0a6a 03bf 368d 23bf
00000350: fa81 62bf 525a 083d 753c cb3e ea04 933f
00000360: 6b9d 083f 6510 1a3f 4dc3 53bf eb7b d03e
00000370: 3293 09be fadf 423f 6ca0 663f a50c 2ebf
00000380: 74b0 013d 7862 273e c0cd 82be 944f 14bf
00000390: 6f6c b03e ba69 78bc 421a d43e 218d 043b
000003a0: 0810 c43e 0418 3bbf 5f5d 4e3d ba72 143e
000003b0: 00c9 fa3d 8e5a 273f 2e69 c0bc 638e bd3e
000003c0: 63be a0bc 2342 80be bdc0 3b3f ceb7 cc3e
000003d0: b0e3 48bf cf73 1a3e 60b5 4abf 1349 893d
000003e0: 0b71 3b3f 8261 77be 67f8 18be 5e1d e43e
000003f0: f145 9abc 26b8 cebb 366c 823d f69d 653d

fc1.bias f4 [128]
-0.6780629 0.6757994 -0.9300782 -0.81891114 -0.5328771 -0.09542415 -0.008643339 -0.095712975
-0.60320354 0.68535644 0.11399993 0.65532374 0.13758346 -0.8659678 -0.8404172 -0.00824506
0.75723886 0.8552653 -0.11053077 0.54996085 -0.19673909 -0.004802348 0.5015618 -0.77692413
-0.4450836 0.20383552 -0.41573521 -0.76805216 -0.64146286 0.63553035 0.33562598 -0.13922271
-0.63031775 -0.06941862 -0.12300796 -0.76328564 -0.5438274 -0.85798246 0.0774219 -0.8801718
-0.10055408 0.49194184 1.0839126 -1.060287 0.5918935 0.82138735 -0.04738943 0.600424
-0.39108986 0.4077139 -0.80665004 -0.4343937 -0.062649 0.5772997 0.22780149 0.06545011
-0.8273654 -0.39585805 -0.7731561 -0.36466247 -0.4416909 -0.6128798 -0.73213094 -0.39357394
-0.2621584 0.65714276 -0.3310969 0.68916875 0.8275414 -0.06763894 -0.58616257 0.47215125
-0.050593298 -0.33867317 0.57379705 -0.02152903 -0.02611816 0.23923707 0.5393436 0.7514364
-0.48171797 0.033201557 0.45066535 -0.8486918 0.017185686 0.10666784 -0.27431467 0.19586438
0.37608647 -0.14866671 0.60246605 -0.22754534 0.64610666 -0.45158097 -0.123144716 -0.5541662
0.80485153 -0.9388351 -0.66550064 -0.07652812 -0.56043625 0.43808872 -0.6730312 -0.94090545
0.70987767 0.59331477 0.91923267 0.38751465 0.562707 0.84146154 0.5310532 -1.1680961
-0.2899382 0.7193115 0.6790205 -0.65178335 -0.13913831 0.8414503 -0.49470398 -0.6683236
-0.38538116 -0.8781286 -0.4376101 0.73431706 -0.41650087 0.36086568 -0.038046952 -0.21774124
00000000: 8895 2dbf 3101 2d3f 9b19 6ebf 29a4 51bf
00000010: a26a 08bf bd6d c3bd cb9c 0dbc 2a05 c4bd
00000020: 8c6b 1abf 8573 2f3f cc78 e93d 4cc3 273f
00000030: aee2 0c3e 11b0 5dbf 9525 57bf 4a16 07bc
00000040: 68da 413f abf2 5a3f f55d e2bd 3cca 0c3f
00000050: f975 49be 045d 9dbb 5b66 003f 80e4 46bf
00000060: ffe1 e3be 42ba 503e 3fdb d4be 119f 44bf
00000070: e936 24bf 1eb2 223f 2bd7 ab3e 6690 0ebe
00000080: 815c 21bf 592b 8ebd 99eb fbbd b066 43bf
00000090: 4638 0bbf bda4 5bbf 608f 9e3d f052 61bf
000000a0: 4cef cdbd cddf fb3e a6bd 8a3f 7cb7 87bf
000000b0: 5586 173f 7146 523f 6b1b 42bd 63b5 193f
000000c0: ee3c c8be e0bf d03e 9e80 4ebf da68 debe
000000d0: 1e4e 80bd eac9 133f cb44 693e b50a 863d
000000e0: 38ce 53bf e8ad cabe 8fed 45bf 0ab5 babe
000000f0: 4f25 e2be b1e5 1cbf ef6c 3bbf 8682 c9be
00000100: a039 86be 823a 283f 8885 a9be 5d6d 303f
00000110: c1d9 533f 4986 8abd c00e 16bf cfbd f13e
00000120: eb3a 4fbd 9266 adbe 5de4 123f a65d b0bc
00000130: c0f5 d5bc 90fa 743e 6c12 0a3f 235e 403f
00000140: bda3 f6be 5bfe 073d 9cbd e63e de43 59bf
00000150: ffc8 8c3c ab74 da3d f972 8cbe ac90 483e
00000160: 688e c03e 163c 18be 373b 1a3f a501 69be
00000170: 3f67 253f 9f35 e7be 4c33 fcbd d6dd 0dbf
00000180: c00a 4e3f 7f57 70bf 405e 2abf c6ba 9cbd
00000190: c078 0fbf 2a4d e03e c64b 2cbf 2edf 70bf
000001a0: 8bba 353f 7ae3 173f d552 6b3f 5268 c63e
000001b0: 910d 103f 066a 573f 1af3 073f 2c84 95bf
000001c0: c872 94be cc24 383f 4ad4 2d3f 46db 26bf
000001d0: 467a 0ebe 4969 573f d749 fdbe 4117 2bbf
000001e0: ae50 c5be 09cd 60bf 6e0e e0be 34fc 3b3f
000001f0: 9a3f d5be 63c3 b83e 1fd7 1bbd 8ff7 5ebe

fc2.weight f4 [128, 128]
-0.51652724 -0.05240395 -0.23582526 -0.63885844 -0.22183579 -0.09877631 -0.07004397 0.048625622
-1.5021306 0.094945304 -0.011089534 0.02355913 -0.21599503 0.052616864 -0.31787473 -0.13413243
-0.06723816 0.10167045 -0.12826982 -0.07390151 -0.34067407 0.008283721 0.05273051 -0.35574773
-0.120482646 -0.059260175 0.0651541 -0.14448287 -0.045970675 -0.1229769 -0.06441233 -0.058664624
-0.042883396 -0.041550852 -0.1949636 0.068119794 -0.1784898 -0.45752135 -0.31123716 -0.105570294
-0.05120434 0.0016858852 -0.036653005 -0.5224797 -0.066317916 0.1191805 -0.0067857266 -0.053992964
-0.45860302 -0.076508574 0.12376988 -0.045658674 0.02053435 0.034987617 0.016725523 -0.02053368
-0.6874828 -0.014153098 -0.42778304 -0.08783269 -0.06880094 -0.18843333 -0.3792145 -0.5224776
0.03936076 -0.1935592 -0.11825549 -0.009471333 0.07022095 -0.12227106 -0.07550996 -0.067686886
-0.12998381 -0.3999614 0.117747195 -0.021236904 -0.06030916 -0.06320823 0.057422288 0.010342769
-0.081697315 -0.018489046 -0.007850479 -2.1666288 0.07013802 -0.023647802 -0.0922648 -0.16338289
-0.05842059 -0.059776545 -0.05969008 -0.29110375 0.05649707 -0.92046416 -0.08072142 0.018530937
-0.109583974 -0.06467522 -0.4065125 -0.040999148 -0.017606098 -0.10139227 0.05332003 0.012033183
0.0073674824 -0.08709927 0.004851178 -0.31679404 -0.11148728 -0.00083299767 -0.10631643 -0.30176008
-0.025646316 0.053908505 0.058589965 -2.6004689 -0.111005746 -0.066018164 -0.34927467 -0.34727407
-0.22942236 -0.026714453 0.10952325 0.009167892 -0.040344164 -0.13325863 -0.16249055 0.07672946
-1.6547903 0.26927847 -0.22466426 0.008322032 -0.65383714 0.35563803 0.022148924 0.10158103
-0.51626146 0.0011468253 0.0764998 0.09786753 -3.2827227 -0.044148464 0.043291535 0.14450215
-0.022621617 0.13891147 -2.1244204 0.19531122 -1.7418432 -0.46788055 -0.29258257 -1.6597904
-0.4904571 -0.04796329 -0.2577382 0.0012088066 0.04854986 0.015735691 -0.09397592 -1.9634805
-0.0494317 -2.6344142 -1.7587609 -0.22241007 -0.12355578 0.020503197 -0.7566962 -0.050708164
0.087148145 -0.024556553 -0.32247084 -0.05952079 0.07704123 0.035433207 -0.525792 0.37078235
0.20669527 -0.07575539 -0.48440564 -0.17679049 0.07078574 0.046038307 -0.123724595 -2.1350152
-0.109012164 -0.2206744 -0.07819966 -0.26050338 -0.38222757 -0.5348918 -0.048202045 0.27130246
-0.30801395 0.054445695 -0.39988214 -0.0068489704 0.041890886 -2.711794 -0.15021853 0.0055097407
-2.8761373 -1.688225 -0.04006364 0.11173308 0.06696863 -0.067033455 0.12584251 0.34509006
-1.068498 0.09657938 0.05693139 -1.3084646 0.10141618 -0.08290511 -1.1166673 -0.31767407
0.031061852 -1.3964143 -0.066046484 -0.28364253 -0.0730895 -0.35904622 -0.41642913 -0.59014887
0.024107464 -1.3587164 -1.9094766 -0.26769894 -0.01810008 -0.12088033 0.019991228 0.067750156
-0.09438286 -0.22244973 -0.23617712 -0.1133136 -0.008862467 0.33747932 0.10787114 -0.023587989
-0.3274078 -0.03216949 0.03530483 -1.0953584 -0.35090825 -0.007037709 -1.653444 -1.4942044
-0.33706284 -1.609607 -0.71407497 -0.052076176 -0.21908496 -0.15805008 -2.64118 0.07161174
00000000: 213b 04bf 86a5 56bd 2d7c 71be 3a8c 23bf
00000010: ec28 63be 3c4b cabd 3773 8fbd a92b 473d
00000020: d145 c0bf af72 c23d e0b0 35bc 14ff c03c
00000030: cd2d 5dbe c884 573d 7ac0 a2be 035a 09be
00000040: 29b4 89bd 9938 d03d 2a59 03be ad59 97bd
00000050: d56c aebe 72b8 073c f2fb 573d 9124 b6be
00000060: 9bbf f6bd ccba 72bd 836f 853d 51f3 13be
00000070: bf4b 3cbd 50db fbbd 9dea 83bd 514a 70bd
00000080: 80a6 2fbd 3a31 2abd 8aa4 47be 6482 8b3d
00000090: 08c6 36be 3d40 eabe 7a5a 9fbe 3d35 d8bd
000000a0: a4bb 51bd ecf8 dc3a 7621 16bd 3bc1 05bf
000000b0: b0d1 87bd e814 f43d cd5a debb ba27 5dbd
000000c0: 04ce eabe 87b0 9cbd 107b fd3d 9704 3bbd
000000d0: a737 a83c 2d4f 0f3d f703 893c 4036 a8bc
000000e0: dffe 2fbf 65e2 67bc 6106 dbbe a0e1 b3bd
000000f0: 82e7 8cbd abf4 40be 6728 c2be 18c1 05bf
00000100: c038 213d 6234 46be ef2f f2bd a62d 1bbc
00000110: 00d0 8f3d 4069 fabd f7a4 9abd 6c9f 8abd
00000120: 7a1a 05be bec7 ccbe 7125 f13d 04f9 adbc
00000130: bd06 77bd 5173 81bd a233 6b3d b874 293c
00000140: ec50 a7bd 5776 97bc 4c9f 00bc 0caa 0ac0
00000150: 86a4 8f3d 09b9 c1bc 54f5 bcbd d84d 27be
00000160: 6e4a 6fbd 40d8 74bd 967d 74bd 8d0b 95be
00000170: 7969 673d 8aa3 6bbf 4651 a5bd 31ce 973c
00000180: 906d e0bd 7174 84bd 6822 d0be b9ee 27bd
00000190: aa3a 90bc c0a6 cfbd 1b66 5a3d d426 453c
000001a0: ec6a f13b 1a61 b2bd a1f6 9e3b d432 a2be
000001b0: 7153 e4bd 875d 5aba 6ebc d9bd 4c80 9abe
000001c0: 3918 d2bc 2acf 5c3d 08fc 6f3d 156e 26c0
000001d0: fb56 e3bd 8834 87bd 21d4 b2be e8cd b1be
000001e0: b2ed 6abe 45d8 dabc ba4d e03d ed34 163c
000001f0: ec3f 25bd f374 08be ec63 26be 5624 9d3d
00000200: 2bd0 d3bf dede 893e 630e 66be 2259 083c
00000210: df61 27bf 3016 b63e a971 b53c b709 d03d
00000220: b629 04bf 1251 963a edab 9c3d c66e c83d
00000230: 2118 52c0 05d5 34bd 7752 313d 5ff8 133e
00000240: f850 b9bc cf3e 0e3e 81f6 07c0 aaff 473e
00000250: b8f4 debf 0a8e efbe 62cd 95be 0374 d4bf
00000260: 311d fbbe 2875 44bd 43f6 83be d270 9e3a
00000270: 38dc 463d 23e8 803c 7276 c0bd 5453 fbbf
00000280: e578 4abd 3e9a 28c0 141f e1bf 77bf 63be
00000290: d00a fdbd 52f6 a73c d8b6 41bf 5db3 4fbd
000002a0: ba7a b23d d32a c9bc e61a a5be 12cc 73bd
000002b0: cbc7 9d3d 6922 113d 4e9a 06bf 2fd7 bd3e
000002c0: eda7 533e a425 9bbd 0404 f8be 9108 35be
000002d0: 1df8 903d aa92 3c3d 5263 fdbd 17a4 08c0
000002e0: c541 dfbd 78f8 61be 2527 a0bd b360 85be
000002f0: 55b3 c3be abee 08bf 826f 45bd 28e8 8a3e
00000300: 01b4 9dbe 7302 5f3d 5abd ccbe 546d e0bb
00000310: c795 2b3d 088e 2dc0 e3d2 19be 0e8b b43b
00000320: a212 38c0 c217 d8bf c519 24bd 50d4 e43d
00000330: d926 893d d648 89bd dcdc 003e a5af b03e
00000340: 8bc4 88bf 69cb c53d e430 693d c57b a7bf
00000350: 49b3 cf3d 28ca a9bd f4ee 8ebf 2da6 a2be
00000360: 6d75 fe3c b4bd b2bf 6143 87bd 9839 91be
00000370: f3af 95bd e8d4 b7be 3336 d5be ff13 17bf
00000380: 047d c53c 6bea adbf bb69 f4bf d60f 89be
00000390: 9e46 94bc 1b90 f7bd a5c4 a33c 98c0 8a3d
000003a0: cd4b c1bd ddc9 63be 6ad8 71be f610 e8bd
000003b0: e133 11bc 17ca ac3e 8beb dc3d 993b c1bc
000003c0: ffa1 a7be 28c4 03bd cc9b 103d b434 8cbf
000003d0: 3faa b3be 959c e6bb 0ea4 d3bf 1742 bfbf
000003e0: 8093 acbe 9a07 cebf 9ecd 36bf d44d 55bd
000003f0: cf57 60be e1d7 21be 1809 29c0 2da9 923d

fc2.bias f4 [128]
0.034035962 -0.03124517 0.6006532 -0.10205788 0.4388972 -0.0017960087 0.0690631 -0.009233445
0.018313907 0.16941206 0.11540618 0.5798886 0.33609352 0.70720077 0.006010669 -0.07342415
0.13098013 0.060623813 0.06255562 -0.046432234 -0.026393902 -0.08670915 0.0016370033 -0.09372328
0.017495606 0.29537016 -0.045604713 0.0021231892 0.05412172 0.004642958 -0.013570414 -0.010798222
0.023917703 0.60350114 -0.08169063 -0.022974335 -0.061930664 -0.10337737 -0.07079439 0.27236336
0.015173867 0.08348167 0.63688916 -0.033551358 -0.078804955 -0.08976095 0.05239257 -0.062159076
-0.05486451 0.030752061 -0.040113106 0.292665 -0.022548497 -0.08202365 -0.031102749 -0.105816744
0.07623779 -0.09933947 -0.024364905 0.0041489303 0.00876331 -0.041000787 0.20844314 0.06988029
0.07103618 0.18436483 0.079685 -0.034966923 -0.02103559 0.0634006 0.04056574 -0.010030687
0.059410043 0.021271272 0.6218746 0.050015286 -0.0992197 0.022165937 0.11740327 -0.0012702588
-0.040630452 0.5889551 0.18740639 -0.089779764 0.26008412 -0.072104454 -0.042362135 -0.031078223
0.088478364 0.014894066 0.07388048 -0.004348219 -0.09974142 -0.013457416 0.17776264 0.06496385
-0.044574976 0.051926825 0.00075900543 0.5966273 -0.07577235 0.18330099 0.061941408 0.034893673
0.40598083 0.33586985 -0.08896476 -0.024716092 0.0140498625 0.032895193 0.22208364 -0.12084561
0.09555147 0.061477363 0.016313097 0.008785528 0.6540319 -0.03704151 0.19096653 -0.09554656
-0.023494175 0.709333 0.16019647 0.17434655 -0.006242927 0.18289681 -0.10631897 -0.046003446
00000000: 4b69 0b3d dff5 ffbc 68c4 193f b903 d1bd
00000010: 22b7 e03e 0d68 ebba f470 8d3d e047 17bc
00000020: 0c07 963c 5b7a 2d3e 135a ec3d 9473 143f
00000030: 7314 ac3e 1c0b 353f 25f5 c43b 675f 96bd
00000040: a81f 063e ad50 783d 291d 803d ba2f 3ebd
00000050: 0638 d8bc 9194 b1bd b790 d63a fef1 bfbd
00000060: f252 8f3c c23a 973e 02cc 3abd 3425 0b3b
00000070: bdae 5d3d f423 983b 7156 5ebc 07eb 30bc
00000080: 0fef c33c 0d7f 1a3f 6b4d a7bd ac34 bcbc
00000090: 02ab 7dbd 84b7 d3bd a6fc 90bd 3673 8b3e
000000a0: d09b 783c 70f8 aa3d 2b0b 233f 266d 09bd
000000b0: 7e64 a1bd 97d4 b7bd 9799 563d 849a 7ebd
000000c0: 9cb9 60bd bfeb fb3c a44d 24bd 30d8 953e
000000d0: a0b7 b8bc 04fc a7bd 31cb febc 73b6 d8bd
000000e0: 8f22 9c3d 7e72 cbbd e998 c7bc c0f3 873b
000000f0: fc93 0f3c 71f0 27bd 1e72 553e 661d 8f3d
00000100: 6b7b 913d 22ca 3c3e e431 a33d 7a39 0fbd
00000110: d452 acbc 2cd8 813d 4328 263d c057 24bc
00000120: f257 733d 1741 ae3c 2c33 1f3f d4dc 4c3d
00000130: b333 cbbd 5795 b53c 2071 f03d d07e a6ba
00000140: 1e6c 26bd c3c5 163f 76e7 3f3e 74de b7bd
00000150: bf29 853e 80ab 93bd eb83 2dbd c297 febc
00000160: 2534 b53d 3e06 743c a64e 973d 817b 8ebb
00000170: 3b45 ccbd 7e7c 5cbc 6907 363e c40b 853d
00000180: 4094 36bd 39b1 543d fef7 463a 91bc 183f
00000190: 892e 9bbd 41b3 3b3e 46b6 7d3d abec 0e3d
000001a0: b8dc cf3e 22f7 ab3e 2833 b6bd 6779 cabc
000001b0: 6531 663c 1cbd 063d e569 633e e77d f7bd
000001c0: 7db0 c33d b0cf 7b3d 0ba3 853c 2df1 0f3c
000001d0: a26e 273f d7b8 17bd bb8c 433e eaad c3bd
000001e0: db76 c0bc d996 353f 8b0a 243e e787 323e
000001f0: 7891 ccbb 4d49 3b3e c3bd d9bd 1c6e 3cbd

fc3.weight f4 [4, 128]
0.0765147 0.08700867 0.39278743 -0.043365177 0.291583 0.07454861 0.0003482627 -0.016135238
0.030998386 0.729095 0.09815967 0.45901144 0.21257007 0.42681527 0.062615685 0.013513355
0.2712404 0.047041103 -0.0034127515 -0.007280717 -0.0023982471 -0.022409847 0.06656664 -0.03768093
-0.11963421 0.6215 0.095990814 -0.028257715 0.07578335 -0.063044734 0.021167614 -0.082235046
0.096686184 0.35440326 -0.006277379 0.0027506761 -0.066560455 0.0060111657 -0.5004521 0.39701968
0.039912086 1.5720042 0.4135376 -0.023874313 0.059785534 -0.00095100584 -0.00994537 0.0708502
-0.006079123 -0.008199353 0.019820219 0.32772118 0.061409708 -0.0367583 -0.026871359 -0.01444534
0.014187773 -0.007669272 0.052410595 0.4844433 -0.07308925 0.0053543593 -0.07813653 -0.0044165547
0.017298868 0.44895092 -0.015187804 2.2190151 0.064365625 0.003750304 0.101535 -0.06577799
0.2914258 -0.0041783564 0.3835864 0.020701077 0.057488278 0.075173475 0.14081427 0.051147807
0.005119699 0.37437493 0.20284134 -0.008876824 0.112922855 -0.026838368 -0.045239426 4.810742e-05
0.036586173 0.017754097 -0.040912237 0.06033308 0.07012297 -0.0008692813 0.3500832 0.014921022
0.022584653 -0.052942194 -0.04334246 0.2969022 -0.045375373 1.9548712 0.39100233 -0.0010697822
0.28037438 0.32349804 -0.03437238 -0.08112949 0.013237253 0.030235572 0.2986276 -0.032013837
0.031104032 0.06728297 0.03169865 0.014631993 0.3952691 0.0101734605 0.058262896 0.034080457
-0.0483409 0.42418778 -0.038246844 0.13928819 -0.054334458 -0.016560422 -2.8004155e-05 -0.0015624402
-0.0063035577 0.012624008 0.48775977 -0.04425508 0.2703576 0.056117635 -0.03942126 0.015410064
-0.034849357 0.12878601 0.23083371 0.42606524 0.23689502 0.449102 -0.040694233 -0.038801685
0.31894726 0.020548338 -0.07004126 0.034523584 -0.016017571 -0.018616874 0.017182942 -0.051254578
0.22741814 0.6354928 0.06837361 -0.0014515604 0.09157242 0.07936286 -0.029842727 -0.00024627458
0.008109721 0.34561062 -0.0054331576 0.018458113 0.060135048 0.050665256 0.13602579 0.33760864
0.010171815 1.3608378 0.41083783 0.010939014 -0.073982514 -0.015446894 0.026140139 -0.011800497
-0.024431448 -0.008559137 -0.012110954 0.2714349 -0.0158658 0.04599595 0.1204432 0.091398574
0.0027471506 -0.0062809116 0.07915914 0.35917658 -0.008022104 0.026618568 -0.4906424 0.042033672
0.01983858 -0.093243204 0.020837283 1.7867959 -0.038496282 0.050910074 0.06311584 -0.07871482
0.33288965 0.082850344 0.37116578 0.012335688 -0.023062278 -0.07093289 0.042633753 -0.009784146
-0.048378002 0.39569566 0.43557358 -0.06083554 0.12998568 0.035003636 0.067358136 -0.004916651
0.06080933 0.05722091 0.09795673 0.0023938145 -0.09677908 0.03918665 0.55925995 0.04989038
0.008688121 -0.07010364 -0.042994007 0.32831576 -0.08216673 1.88419 0.3342654 -0.013407777
0.31425086 0.3909253 -0.013792841 -0.08582283 -0.01285422 0.08411565 0.32923463 0.028660297
0.006965165 -0.04352012 -0.046472296 -0.019644173 0.43752357 -0.03852988 -0.3224415 0.039745633
-0.044002663 0.43662047 0.07010262 0.23788263 -0.063878804 0.08305568 -0.14972459 -0.018446444
00000000: bdb3 9c3d 9a31 b23d 6f1b c93e af9f 31bd
00000010: 5e4a 953e f1ac 983d 0797 b639 0c2e 84bc
00000020: 54f0 fd3c f8a5 3a3f f007 c93d 8c03 eb3e
00000030: f8ab 593e 8887 da3e a73c 803d 1e67 5d3c
00000040: 06e0 8a3e 2cae 403d 78a8 5fbb 1593 eebb
00000050: e92b 1dbb db94 b7bc 1754 883d 5257 1abd
00000060: c802 f5bd a01a 1f3f d596 c43d b97c e7bc
00000070: 4d34 9b3d 991d 81bd b467 ad3c d96a a8bd
00000080: 6803 c63d 5874 b53e 79b2 cdbb b044 343b
00000090: d950 88bd 50f9 c43b a11d 00bf 2a46 cb3e
000000a0: db7a 233d 6f37 c93f 33bb d33e 1094 c3bc
000000b0: ade1 743d ec4c 79ba e8f1 22bc e919 913d
000000c0: 6133 c7bb 9456 06bc 035e a23c 12cb a73e
000000d0: bf88 7b3d df8f 16bd 5321 dcbc 26ac 6cbc
000000e0: d573 683c 844e fbbb 7eac 563d f408 f83e
000000f0: d1af 95bd 9f73 af3b 0c06 a0bd bfb8 90bb
00000100: 5bb6 8d3c e5dc e53e 44d6 78bc 5804 0e40
00000110: 20d2 833d a9c7 753b 95f1 cf3d 9cb6 86bd
00000120: c335 953e 98ea 88bb 7065 c43e 4e95 a93c
00000130: d478 6b3d 8df4 993d 9e31 103e 5d80 513d
00000140: 26c3 a73b 12ae bf3e a4b5 4f3e 1970 11bc
00000150: 1944 e73d 23dc dbbc fa4c 39bd f3c6 4938
00000160: 62db 153d 0a71 913c 9793 27bd d21f 773d
00000170: a29c 8f3d 7be0 63ba 1b3e b33e 4d77 743c
00000180: 7303 b93c ead9 58bd dd87 31bd 9103 983e
00000190: 87db 39bd 3839 fa3f 7531 c83e ef37 8cba
000001a0: 3b8d 8f3e 89a1 a53e 0dca 0cbd 3827 a6bd
000001b0: 10e1 583c 97b0 f73c b7e5 983e f120 03bd
000001c0: e2cd fe3c a7cb 893d 72d6 013d 07bb 6f3c
000001d0: b660 ca3e 96ae 263c 13a5 6e3d f397 0b3d
000001e0: 1c01 46bd 242f d93e b9a8 1cbd 90a1 0e3e
000001f0: cf8d 5ebd b9a9 87bc 77ea eab7 cbca ccba
00000200: 138e cebb edd4 4e3c a6bb f93e d144 35bd
00000210: 506c 8a3e 9bdb 653d 3078 21bd 7e7a 7c3c
00000220: 33be 0ebd 7be0 033e ac5f 6c3e 3925 da3e
00000230: 9c94 723e b3f0 e53e ffae 26bd 84ee 1ebd
00000240: 0e4d a33e fd54 a83c cb71 8fbd 9a68 0d3d
00000250: 4837 83bc 6a82 98bc 3ec3 8c3c 52f0 51bd
00000260: 4de0 683e a8af 223f 7707 8c3d 4942 beba
00000270: 528a bb3d ff88 a23d bc78 f4bc 6a1e 81b9
00000280: a3de 043c e0f3 b03e a108 b2bb 7835 973c
00000290: 2b50 763d 5f86 4f3d 584a 0b3e 0adb ac3e
000002a0: afa7 263c ef2f ae3f 5659 d23e 8d39 333c
000002b0: 2584 97bd f814 7dbc d823 d63c df56 41bc
000002c0: 7624 c8bc 9f3b 0cbc 066d 46bc 84f9 8a3e
000002d0: fff8 81bc 4066 3c3d edaa f63d 2d2f bb3d
000002e0: 8a09 343b 1bd0 cdbb 301e a23d fee5 b73e
000002f0: 256f 03bc 2f0f da3c 7b35 fbbe 802b 2c3d
00000300: 8584 a23c 4bf6 bebd f3b2 aa3c bab5 e43f
00000310: 47ae 1dbd 1587 503d e142 813d 3c35 a1bd
00000320: 8370 aa3e 71ad a93d 7109 be3e a01b 4a3c
00000330: 1aed bcbc 4345 91bd bba0 2e3d af4d 20bc
00000340: 0328 46bd 9f98 ca3e 8003 df3e b02e 79bd
00000350: f71a 053e f95f 0f3d 10f3 893d dc1b a1bb
00000360: 3413 793d 7960 6a3d 8a9d c83d 8be1 1c3b
00000370: 1c34 c6bd 2e82 203d a92b 0f3f db59 4c3d
00000380: 9f58 0e3c 7f92 8fbd 7c1a 30bd 0119 a83e
00000390: 0847 a8bd 232d f13f d624 ab3e 4bac 5bbc
000003a0: 7de5 a03e 5c27 c83e 5efb 61bc e1c3 afbd
000003b0: 829a 52bc d344 ac3d 7191 a83e 00c9 ea3c
000003c0: 0a3c e43b 2742 32bd bc59 3ebd d1ec a0bc
000003d0: 1703 e03e 82d1 1dbd 0d17 a5be 51cc 223d
000003e0: 233c 34bd b88c df3e f691 8f3d 8197 733e
000003f0: e4d2 82bd 1919 aa3d 6751 19be ff1c 97bc

fc3.bias f4 [4]
0.7673295 0.7231176 0.62349766 0.74249464
00000000: b56f 443f 3c1e 393f 8b9d 1f3f 2114 3e3f
