models/dqn_gridword.pth (torch, 84433 bytes, 6 tensors)

fc1.weight f4 [128, 25]
-0.17098199 -0.16687137 -0.17957082 -0.1807705 0.28884494 -0.16755305 0.037448335 0.22984315
0.23693022 -0.17047043 0.13752848 0.13265976 -0.16226631 -0.17803803 -0.19916034 0.112502664
-0.055960678 -0.1286257 -0.18788357 0.27181494 0.14650391 -0.19133542 0.3413254 0.26675558
0.1950986 -0.00023800902 0.053210963 -0.029497432 -0.11372509 -0.08722729 -0.16106944 0.08494764
-0.2197237 -0.20223619 -0.20433094 0.06685364 0.378598 -0.18588355 -0.14849761 0.12698908
-0.0013046787 -0.19248323 -0.10719998 -0.1360368 0.30751193 -0.20011252 -0.19221006 0.4169649
-0.07854939 -0.036394812 0.00095410366 0.069446504 0.054200433 0.11955154 -0.16588442 0.25070643
-0.16656254 0.22385186 0.07530055 -0.234805 0.001911996 0.034063406 0.16737136 0.24259523
-0.124466136 -0.07410214 0.31972706 0.1630152 0.19623862 -0.13133223 -0.025748413 -0.056074496
-0.044528536 -0.012219957 -0.04257531 0.026874853 0.068952486 -0.18493457 -0.098376706 -0.16555166
0.2010271 0.1894124 -0.16605018 -0.008390259 -0.03859351 -0.19316891 -0.18351059 -0.06334712
0.18386735 -0.042907644 -0.026347071 -0.05131359 0.14348598 -0.0817302 -0.14369957 -0.092349984
-0.12374792 0.08283787 -0.0734838 -0.029057836 -0.12581979 0.14754201 -0.28293562 -0.11860062
-0.25749215 0.25786278 0.1890106 -0.27631217 -0.10253671 0.3357893 -0.11480472 -0.14576715
0.16029775 0.27310324 -0.10307129 -0.20879033 0.24403675 0.121522665 -0.27460662 -0.05710137
-0.21532434 -0.28657576 -0.2761746 -0.2114641 -0.14378957 0.05390102 0.077312164 -0.021301048
-0.12521175 0.082221314 -0.20529076 -0.07798188 -0.21668877 0.039850082 -0.23292892 0.19159661
0.33274865 -0.21376134 -0.2167738 -0.042340588 0.044196393 -0.20460558 -0.062242627 -0.2386205
0.16663547 -0.08834466 0.10319308 0.36951765 -0.0010107225 0.059280466 -0.13117622 -0.18872707
-0.27818492 -0.052160516 -0.19621426 0.018540524 0.12586021 -0.0033293017 -0.15991727 -0.06788103
-0.1686359 0.12334842 -0.17299788 0.028089032 0.07685912 -0.109966904 0.06843535 -0.010499048
0.047248065 0.1533086 -0.17614365 -0.27204952 0.13770334 -0.25769 0.081812315 -0.10540016
-0.10914239 -0.111276485 -0.13218935 -0.19091976 0.24293186 0.081986144 -0.12460425 0.047530513
-0.17045324 -0.14714947 -0.10735271 0.01841459 0.24341263 -0.16615355 -0.02201183 -0.15098031
0.18467675 -0.11597102 -0.18649414 0.024547255 -0.17139316 -0.17154793 0.024240512 0.12824833
0.07058879 -0.050311532 0.14603044 0.1760338 0.09353765 -0.2199869 -0.15083618 -0.11183903
-0.22063465 -0.26556912 0.18907289 -0.33420864 -0.0072240015 0.0048411447 -0.045131445 0.3566281
-0.03489715 -0.07063951 -0.16692548 -0.15043923 0.41164523 0.4538044 -0.049063224 0.34362468
-0.097409464 -0.12101364 -0.15576701 -0.23469324 0.029005993 -0.10785692 0.14575686 0.17761762
0.03747813 -0.03655804 -0.22581269 -0.1866535 0.250265 -0.27545625 0.19129947 0.17459027
-0.22551231 0.17035988 0.041182924 0.06220702 0.29479164 -0.0754936 -0.2128239 0.19640172
-0.10110885 0.117669724 -0.08761728 0.20403367 -0.10464641 -0.25593615 -0.2665766 -0.20912133
00000000: e715 2fbe 54e0 2abe 6ae1 37be e71b 39be
00000010: 7ce3 933e 0793 2bbe 6d63 193d 015c 6b3e
00000020: d69d 723e cd8f 2ebe 44d4 0c3e f6d7 073e
00000030: 2429 26be 9a4f 36be b0f0 4bbe cc67 e63d
00000040: 0637 65bd 75b6 03be 8d64 40be 542b 8b3e
00000050: 1f05 163e 6fed 43be 34c2 ae3e 3094 883e
00000060: edc7 473e 0f92 79b9 bdf3 593d 99a4 f1bc
00000070: b3e8 e8bd 39a4 b2bd 63ef 24be 07f9 ad3d
00000080: 40ff 60be 0117 4fbe 213c 51be 90ea 883d
00000090: 99d7 c13e 4258 3ebe c20f 18be 6d09 023e
000000a0: c101 abba 531a 45be aa8b dbbd 3b4d 0bbe
000000b0: 3472 9d3e 4cea 4cbe b7d2 44be 6c7c d53e
000000c0: 81de a0bd ba12 15bd d01c 7a3a f839 8e3d
000000d0: 4601 5e3d 70d7 f43d 9bdd 29be 985c 803e
000000e0: 5f8f 2abe 6c39 653e 2d37 9a3d b970 70be
000000f0: f19b fa3a 1286 0b3d 6663 2b3e e26a 783e
00000100: 1ae8 febd ddc2 97bd 44b3 a33e 75ed 263e
00000110: c7f2 483e f57b 06be 56ee d2bc 5fae 65bd
00000120: 8e63 36bd 3736 48bc 7363 2ebd a728 dc3c
00000130: f636 8d3d 7d5f 3dbe ba79 c9bd 6086 29be
00000140: 0cda 4d3e 53f5 413e 0f09 2abe 4c77 09bc
00000150: 3a14 1ebd 12ce 45be 33ea 3bbe 23bc 81bd
00000160: b947 3c3e edbf 2fbd d0d5 d7bc 332e 52bd
00000170: fded 123e 2a62 a7bd fb25 13be fd21 bdbd
00000180: 8d6f fdbd e7a6 a93d ad7e 96bd b30a eebc
00000190: e7d6 00be 4115 173e f0dc 90be e2e4 f2bd
000001a0: 03d6 83be 9706 843e ff8b 413e ca78 8dbe
000001b0: c4fe d1bd 93ec ab3e bd1e ebbd fc43 15be
000001c0: 1825 243e 30d4 8b3e 0a17 d3bd 22cd 55be
000001d0: c5e4 793e e0e0 f83d 3d99 8cbe 20e3 69bd
000001e0: fc7d 5cbe 0fba 92be c266 8dbe 0c8a 58be
000001f0: 933d 13be 51c7 5c3d d755 9e3d 897f aebc
00000200: 8237 00be a663 a83d be37 52be f7b4 9fbd
00000210: a9e3 5dbe d739 233d eb84 6ebe e731 443e
00000220: 085e aa3e 41e4 5abe f3f9 5dbe 536d 2dbd
00000230: 4707 353d 2084 51be 20f2 7ebd ef58 74be
00000240: 7da2 2a3e 0cee b4bd e556 d33d 6b31 bd3e
00000250: 387a 84ba 13d0 723d 0f53 06be ab41 41be
00000260: 416e 8ebe 44a6 55bd 64ec 48be 4ce2 973c
00000270: 80e1 003e 6a30 5abb 5ac1 23be 3605 8bbd
00000280: e4ae 2cbe 199e fc3d 5b26 31be f81a e63c
00000290: 5068 9d3d 5436 e1bd d527 8c3d 3304 2cbc
000002a0: 3087 413d eefc 1c3e 005f 34be 134a 8bbe
000002b0: 1b02 0d3e f2ef 83be 378d a73d 0adc d7bd
000002c0: 0c86 dfbd ede4 e3bd a55c 07be 7880 43be
000002d0: 21c3 783e 5ae8 a73d 8330 ffbd 5baf 423d
000002e0: 4b8b 2ebe 5aae 16be bddb dbbd 32da 963c
000002f0: 2941 793e 2824 2abe 2752 b4bc 959a 1abe
00000300: e71b 3d3e 3782 edbd 52f8 3ebe 5317 c93c
00000310: b081 2fbe 43aa 2fbe 0a94 c63c 8853 033e
00000320: db90 903d 7713 4ebd 0189 153e 3442 343e
00000330: ab90 bf3d 3f44 61be cd74 1abe dd0b e5bd
00000340: 0dee 61be adf8 87be 539c 413e 651d abbe
00000350: 51b7 ecbb 77a2 9e3b c0db 38bd f597 b63e
00000360: 50f0 0ebd 73ab 90bd 83ee 2abe be0c 1abe
00000370: 2ac3 d23e 0d59 e83e 85f6 48bd 93ef af3e
00000380: 9d7e c7bd 00d6 f7bd 6381 1fbe 6d53 70be
00000390: fa9d ed3c 17e4 dcbd 4941 153e 65e1 353e
000003a0: ab82 193d e2bd 15bd 713b 67be 1822 3fbe
000003b0: bc22 803e 9a08 8dbe 02e4 433e cbc7 323e
000003c0: b3ec 66be d272 2e3e 6daf 283d cacc 7e3d
000003d0: eeee 963e 639c 9abd 82ee 59be 881d 493e
000003e0: 2812 cfbd d3fc f03d b070 b3bd 34ee 503e
000003f0: db50 d6bd 100a 83be ba7c 88be e723 56be

fc1.bias f4 [128]
0.15405387 0.104701154 0.21432598 -0.20765977 0.19882986 0.19643363 -0.07604443 -0.053471614
0.32944065 0.06087213 0.041035544 0.17960414 -0.131648 -0.10848641 -0.18383622 0.121799424
0.2515047 0.3030245 0.25336435 0.24215233 0.06705994 -0.06951331 0.1480852 0.184278
-0.0072922423 -0.17057943 0.10455262 -0.07809893 -0.18862534 0.164206 0.09847331 -0.07412507
-0.046695773 0.33368868 0.36776245 0.06896228 -0.03466281 -0.15366355 -0.06114825 0.3520985
-0.19398224 0.31636098 0.044451922 0.2495684 0.23837617 0.44953862 -0.11955632 0.28587705
0.16600326 0.34574974 0.15144843 0.02361105 -0.20568487 0.11000841 -0.19324291 -0.1794475
0.26684353 0.32292685 0.061430436 -0.18914695 0.32019654 -0.20190424 0.17702511 0.1613929
0.21061587 0.02782935 -0.07065101 0.15695237 -0.17650501 -0.12658799 0.27962378 0.19703928
0.011349469 0.1797812 -0.03817182 0.19536425 0.34641388 0.2819937 0.16208862 0.011993175
-0.20287903 0.09900001 -0.019733563 -0.093083106 -0.20418519 0.23478436 0.28080294 0.15248704
-0.045073718 -0.180305 0.26091006 0.2863471 0.30104476 0.055702806 0.3627936 -0.1993233
-0.09336042 -0.12247611 0.3303758 -0.21138366 0.18647414 -0.07974574 -0.016417563 -0.0031179576
-0.050020766 0.07097167 -0.074429736 -0.14922112 -0.028832229 0.28554392 0.010030881 0.032771338
0.31475872 0.23844415 0.014265564 0.10796997 0.03999751 0.35932118 0.20579278 -0.16255061
0.22594076 0.22840653 -0.18569201 0.30899695 0.19225983 0.2638451 0.3408698 0.03250114
00000000: 4cc0 1d3e 8f6d d63d 4578 5b3e c3a4 54be
00000010: 0e9a 4b3e e625 493e 2fbd 9bbd 0d05 5bbd
00000020: 72ac a83e 0e55 793d e314 283d 26ea 373e
00000030: bcce 06be 1f2e debd 903f 3cbe fa71 f93d
00000040: 39c5 803e 0726 9b3e f9b8 813e c8f6 773e
00000050: b956 893d ff5c 8ebd a6a3 173e 5fb3 3c3e
00000060: c3f3 eebb 60ac 2ebe af1f d63d 55f2 9fbd
00000070: 0027 41be 9e25 283e 60ac c93d e2ce 97bd
00000080: 1144 3fbd 3ed9 aa3e 5c4b bc3e 193c 8d3d
00000090: 97fa 0dbd fa59 1dbe 9676 7abd 4146 b43e
000000a0: 48a3 46be 11fa a13e 3813 363d dc8e 7f3e
000000b0: e218 743e ed29 e63e f2d9 f4bd 7a5e 923e
000000c0: c2fc 293e 1c06 b13e 4c15 1b3e f66b c13c
000000d0: 0e9f 52be 174c e13d 78e1 45be 16c1 37be
000000e0: b79f 883e ab56 a53e 7b9e 7b3d bdaf 41be
000000f0: cdf0 a33e fcbf 4ebe 1246 353e 2e44 253e
00000100: b0ab 573e 61fa e33c 7ab1 90bd 1fb8 203e
00000110: bbbd 34be 48a0 01be d92a 8f3e aac4 493e
00000120: 20f3 393c 9018 383e 0e5a 1cbd 910d 483e
00000130: 295d b13e 7a61 903e 8ffa 253e 067f 443c
00000140: 85bf 4fbe 84c0 ca3d 48a8 a1bc 5ba2 bebd
00000150: ec15 51be 506b 703e 67c5 8f3e 9025 1c3e
00000160: 389f 38bd e0a1 38be 0196 853e 169c 923e
00000170: 8a22 9a3e a028 643d 15c0 b93e 681b 4cbe
00000180: bf33 bfbd c1d4 fabd 0427 a93e f574 58be
00000190: 14f3 3e3e bc51 a3bd 207e 86bc a656 4cbb
000001a0: 93e2 4cbd 9859 913d 9e6e 98bd 6ccd 18be
000001b0: 9131 ecbc d032 923e 9058 243c 3d3b 063d
000001c0: 0e28 a13e b42a 743e 1dba 693c 5c1f dd3d
000001d0: 6ed4 233d f2f8 b73e 58bb 523e ab73 26be
000001e0: 045d 673e 67e3 693e 0c26 3ebe d934 9e3e
000001f0: c3df 443e b416 873e 7d86 ae3e ea1f 053d

fc2.weight f4 [128, 128]
-0.0019092747 -0.023590904 0.14205454 0.13759902 0.18915671 -0.22193022 0.024129527 0.22100103
0.052863907 0.018396411 -0.0068380623 -0.0066742636 0.09413457 0.102255195 0.04080682 -0.19023824
0.21180685 -0.038379423 -0.055904277 0.18162163 0.13122773 0.04342264 0.024527013 -0.093206964
0.006030812 -0.07430393 0.27070737 0.06956154 0.047833458 -0.29376 0.14509842 0.03913154
0.05511304 0.1639972 -0.4844441 0.02781388 0.04353176 -0.35110047 0.17394902 0.14781071
-0.073956 -0.20969136 0.12229303 -0.008120175 -8.526679e-05 0.21397242 0.1176336 0.09436406
-0.1297196 -0.06333908 0.03498851 -0.061286546 0.24406691 0.13004664 -0.042292982 0.08600132
-0.019829499 -0.004802854 0.044706654 0.032775022 -0.082900465 0.07908635 0.023702273 0.201293
0.029443592 0.14127098 -0.06709513 -0.034384135 -0.015671832 0.0130210165 0.06398075 -0.079588085
0.059705928 -0.032234322 -0.034338005 -0.17134134 -0.17555574 -0.0048111333 0.043275937 0.07261374
-0.029252209 -0.03386752 0.30975384 0.19501725 -0.090249576 -0.25092354 0.18953541 0.079126164
0.043952562 -0.0049958862 0.027945636 0.159689 0.28050572 0.09705944 -0.14835297 0.06396175
0.10070292 0.11739555 0.0716446 0.18205257 0.09931097 0.02890687 0.08620504 -0.27252063
0.030432533 -0.45994744 0.027406521 -0.07804859 0.07993548 0.091105625 -0.0891388 0.03314349
0.12324238 0.24266385 -0.054202925 0.11658499 0.028247721 -0.10863882 -0.12983328 0.08835689
0.037824634 0.16996494 -0.32780436 0.104724064 -0.03783743 0.1313843 0.2801584 -0.07546603
0.53070384 0.63917434 0.16080414 -0.32033616 -0.06964132 0.5418163 0.30788636 -0.55639845
-0.30240858 0.4559469 0.17082371 0.54917157 -0.4480322 0.038432807 0.037876762 0.5741263
-0.3539879 0.469255 -0.13210376 -0.043378204 0.2680775 0.27233216 0.37656567 -0.86094826
-0.013089196 -0.056022972 0.04651102 0.27571034 -0.06901725 0.44532937 -0.17783043 -0.14928119
0.33352932 0.31283888 0.7927699 0.30559397 0.1709914 -0.38120413 -0.59100586 -0.19955885
0.07994595 0.4346929 -0.2706602 0.48259655 -0.014087934 -0.29929918 -0.45714533 0.25210625
0.52372533 -0.957561 -0.25220847 0.58334464 -0.12792318 0.3264914 0.086128704 -0.22605553
0.2079276 0.41481614 0.4562089 -0.05809688 0.39980075 -0.1598228 0.27865684 -0.82439244
0.29372555 0.45129764 -0.0919581 -0.35126844 0.40056482 0.036635436 0.5407754 0.57104975
0.36576292 -0.42600423 -0.19560874 0.30556473 -0.36148575 -0.6651292 0.45371634 0.13555425
0.017774345 0.70666206 -0.15093175 -0.40388793 0.009887766 0.5740002 -0.2641205 -0.37223962
0.3033841 -0.2674767 -0.29081604 -0.3014549 -0.47876224 0.48478034 0.20453575 -0.12898774
0.05270285 -0.36921543 0.1512341 0.20880127 0.64554274 -0.24484442 -0.29010987 0.47182173
0.21239255 0.23986821 -0.14342907 -0.054794833 0.3811546 -0.39022654 0.21449555 -0.37140083
0.23226784 -0.51401323 -0.24361919 -0.15025978 0.33410653 0.17511466 0.35013384 -0.18860842
-0.3513364 0.2162532 0.33712107 0.07536922 -0.9196335 -0.3693361 0.2712985 0.4167747
00000000: a140 faba b641 c1bc bf76 113e c2e6 0c3e
00000010: 4cb2 413e ad41 63be 49ab c53c 184e 623e
00000020: d387 583d 12b4 963c d311 e0bb c8b3 dabb
00000030: a0c9 c03d 2c6b d13d 0d25 273d d0cd 42be
00000040: e5e3 583e be33 1dbd e2fb 64bd 05fb 393e
00000050: 9060 063e f0db 313d e0ec c83c 4be3 bebd
00000060: 1e9e c53b a92c 98bd 289a 8a3e 4876 8e3d
00000070: 04ed 433d b667 96be ae94 143e 6548 203d
00000080: 36be 613d e2ee 273e 0f09 f8be efd9 e33c
00000090: 5c4e 323d 71c3 b3be b11f 323e b15b 173e
000000a0: 3e76 97bd 55b9 56be c574 fa3d 7c0a 05bc
000000b0: 42d1 b2b8 961b 5b3e e3e9 f03d f241 c13d
000000c0: 37d5 04be ebb7 81bd 1d50 0f3d 9a07 7bbd
000000d0: adec 793e f22a 053e 683b 2dbd 7621 b03d
000000e0: 7971 a2bc 4261 9dbb 531e 373d 1a3f 063d
000000f0: b8c7 a9bd 06f8 a13d 452b c23c c11f 4e3e
00000100: b033 f13c 57a9 103e 2c69 89bd 61d6 0cbd
00000110: 3762 80bc 1a56 553c 5708 833d 14ff a2bd
00000120: 348e 743d 2308 04bd 02a6 0cbd 1b74 2fbe
00000130: e2c4 33be b6a6 9dbb 1c42 313d 83b6 943d
00000140: 54a2 efbc abb8 0abd 0e98 9e3e 9ab2 473e
00000150: c5d4 b8bd 0d79 80be 9215 423e e60c a23d
00000160: 9a07 343d 88b4 a3bb 3fee e43c 8385 233e
00000170: 729e 8f3e 1ac7 c63d d7e9 17be 61fe 823d
00000180: 553d ce3d 146d f03d 67ba 923d fd6b 3a3e
00000190: 8d63 cb3d 1ace ec3c 458c b03d d387 8bbe
000001a0: a64d f93c 3b7e ebbe a483 e03c f0d7 9fbd
000001b0: 37b5 a33d 9695 ba3d 678e b6bd 78c1 073d
000001c0: 8066 fc3d df7c 783e e303 5ebd 1cc4 ee3d
000001d0: c467 e73c 087e debd 04f3 04be 75f4 b43d
000001e0: 01ee 1a3d 4a0b 2e3e f9d5 a7be 9279 d63d
000001f0: 6cfb 1abd 9b89 063e ec70 8f3e ef8d 9abd
00000200: 35dc 073f eea0 233f d7a9 243e 1a03 a4be
00000210: 1ca0 8ebd 79b4 0a3f 48a3 9d3e 2170 0ebf
00000220: 4cd5 9abe df71 e93e 69ec 2e3e 8296 0c3f
00000230: 7a64 e5be b86b 1d3d aa24 1b3d f1f9 123f
00000240: e73d b5be 3142 f03e 3546 07be 58ad 31bd
00000250: 7441 893e 1f6f 8b3e 37cd c03e 1b67 5cbf
00000260: 1174 56bc 5878 65bd 5782 3e3d e829 8d3e
00000270: ea58 8dbd 3602 e43e 2e19 36be 2bdd 18be
00000280: 5bc4 aa3e 6b2c a03e f8f2 4a3f d076 9c3e
00000290: 5f18 2f3e 302d c3be 294c 17bf 2859 4cbe
000002a0: b4ba a33d 1190 de3e f993 8abe e516 f73e
000002b0: 14d1 66bc be3d 99be f40e eabe 1214 813e
000002c0: dd12 063f b822 75bf 7821 81be 1356 153f
000002d0: 4bfe 02be e129 a73e 3f64 b03d 1a7b 67be
000002e0: f9ea 543e c862 d43e 3794 e93e fef6 6dbd
000002f0: afb2 cc3e 97a8 23be 1cac 8e3e 620b 53bf
00000300: 3263 963e 7c10 e73e 8754 bcbd 75d9 b3be
00000310: d516 cd3e 0a0f 163d 4270 0a3f 5130 123f
00000320: 4745 bb3e 3a1d dabe a84d 48be fb72 9c3e
00000330: a914 b9be e845 2abf 824d e83e bcce 0a3e
00000340: 819b 913c cee7 343f da8d 1abe 66ca cebe
00000350: 4c00 223c adf1 123f cd3a 87be 3196 bebe
00000360: 2955 9b3e b5f2 88be d7e5 94be 4c58 9abe
00000370: 5320 f5be 2135 f83e d271 513e 5d15 04be
00000380: f2de 573d ce09 bdbe 1ddd 1a3e 00d0 553e
00000390: 4a42 253f 7fb8 7abe 4889 94be 9e92 f13e
000003a0: 6f7d 593e 03a0 753e 12df 12be 8c70 60bd
000003b0: b226 c33e c6cb c7be b9a4 5b3e 4028 bebe
000003c0: 9fd7 6d3e 5f96 03bf 4f77 79be b3dd 19be
000003d0: 0310 ab3e 4251 333e be44 b33e 9122 41be
000003e0: 5de2 b3be 7b71 5d3e 229b ac3e 2d5b 9a3d
000003f0: 1a6d 6bbf 9f19 bdbe a3e7 8a3e 7e63 d53e

fc2.bias f4 [128]
0.07732586 0.15554665 -0.008051029 -0.010067928 -0.018081725 0.046190422 0.13546193 -0.07875072
-0.09347527 0.07233431 0.17499703 0.018227665 0.33845577 -0.06506603 0.007281459 0.077250786
0.17143792 0.024478422 -0.05871798 0.18541016 0.27311 -0.14719306 -0.0012855702 0.031426735
-0.1288834 -0.05389958 -0.05362211 -0.01179915 -0.063086435 0.18107915 -0.0823457 0.008337563
-0.048420448 -0.018296188 0.060553167 -0.0069368933 0.3030076 0.05509055 -0.023730434 0.006749575
-0.043533575 -0.07954072 -0.031480983 -0.020379523 0.3089192 0.057402484 -0.05022615 -0.06285224
0.13033973 0.14866318 0.16205557 0.041849807 0.0994062 0.05658272 -0.08244231 0.19462354
-0.046943188 -0.084592976 -0.015154108 -0.017369378 -0.030615058 0.2662569 -0.110211484 0.14720114
0.2948002 0.12693293 -0.027955912 0.2199629 -0.10367916 -0.024640858 -0.08980192 0.022624964
0.052858174 0.3414719 0.002471049 0.03301209 0.0863057 0.14623486 0.15660483 0.0023613223
0.037728757 0.16750108 0.3383119 -0.06543885 0.26448026 0.20567214 -0.09238779 -0.008314551
-0.07645117 -0.07808122 0.015078394 -0.03105481 0.11754707 -0.0550125 -0.08503207 -0.016331108
-0.04985682 0.15471143 0.038417693 0.06909851 -0.095088415 0.087528765 0.022701612 -0.10798013
-0.026763687 0.09285066 -0.045732297 -0.020103281 -0.07753155 0.15050448 0.00021806141 0.101789474
-0.03527556 -0.07591158 0.026007542 -0.017770516 0.024638865 0.052165907 0.11367729 -0.097707406
0.2942424 0.2013007 -0.07824036 0.25726613 0.0018734331 0.33480516 -0.0028298823 -0.04725024
00000000: 055d 9e3d 9f47 1f3e 77e8 03bc f3f3 24bc
00000010: 2020 94bc 2b32 3d3d 88b6 0a3e 0f48 a1bd
00000020: f66f bfbd 0324 943d 6c32 333e 2f52 953c
00000030: 134a ad3e 5741 85bd 4e99 ee3b a935 9e3d
00000040: 6c8d 2f3e f986 c83c 4482 70bd 29dc 3d3e
00000050: 13d5 8b3e c7b9 16be 9480 a8ba 52b9 003d
00000060: 03fa 03be cec5 5cbd dca2 5bbd 3951 41bc
00000070: 7633 81bd d06c 393e dda4 a8bd 469a 083c
00000080: 8554 46bd e3e1 95bc 9906 783d e14e e3bb
00000090: d023 9b3e a1a6 613d 5466 c2bc 8a2b dd3b
000000a0: 4350 32bd 3fe6 a2bd 34f2 00bd f5f2 a6bc
000000b0: a82a 9e3e de1e 6b3d efb9 4dbd adb8 80bd
000000c0: c777 053e 293b 183e e5f1 253e b46a 2b3d
000000d0: 7a95 cb3d 48c3 673d 84d7 a8bd 654b 473e
000000e0: 8047 40bd 153f adbd f048 78bc 3a4a 8ebc
000000f0: 6ecc fabc d352 883e 8fb6 e1bd e5bb 163e
00000100: 0df0 963e b5fa 013e cc03 e5bc f43d 613e
00000110: bd55 d4bd a0db c9bc 12ea b7bd fd57 b93c
00000120: d081 583d 68d5 ae3e 53f1 213b af37 073d
00000130: 0bc1 b03d 97be 153e 045d 203e 6ac0 1a3b
00000140: 7889 1a3d 6785 2b3e 3837 ad3e ce04 86bd
00000150: f569 873e b89b 523e cf35 bdbd c139 08bc
00000160: 6e92 9cbd 0ce9 9fbd 5e0b 773c a866 febc
00000170: 85bc f03d ca54 61bd 4b25 aebd d1c8 85bc
00000180: aa36 4cbd ac6c 1e3e df5b 1d3d 8583 8d3d
00000190: b7bd c2bd 4842 b33d bbf8 b93c b024 ddbd
000001a0: 853f dbbc 7d28 be3d ca51 3bbd a3af a4bc
000001b0: dcc8 9ebd d91d 1a3e 6aa7 6439 0077 d03d
000001c0: 1b7d 10bd 8877 9bbd c50d d53c 7993 91bc
000001d0: 72d7 c93c ebab 553d a4cf e83d d21a c8bd
000001e0: f1a6 963e c521 4e3e 7b3c a0bd 63b8 833e
000001f0: fc8d f53a 956b ab3e 8c75 39bb 7889 41bd

fc3.weight f4 [4, 128]
0.17874995 -1.1007625 -0.011234138 0.024517043 0.09905757 0.09072574 0.044646975 0.0478922
0.07112343 -0.0072538243 0.030057423 -0.017548995 0.23371094 0.05277247 0.11648343 0.15685464
-0.27773497 0.076083444 -0.03412475 -0.021843694 0.38338697 -0.0064143497 0.014775381 -0.07619218
-0.06679562 0.019928752 0.07375187 0.05275182 -0.027652157 -0.06330015 -0.027977973 -0.044594083
0.015561829 -0.15682359 0.11852576 -0.39796352 0.17258677 0.002270519 -0.044889323 -0.12025754
-0.0025022286 0.116079055 -0.050259106 -0.043346826 0.111491 0.024905156 -0.2802484 0.05517803
-0.006360548 -0.11676385 0.12523344 0.065099664 -0.06564609 -0.008944379 0.018680574 -0.0056112497
0.0405935 -0.00089950796 -0.19286291 -0.024300996 -0.025377074 0.20395786 -0.048428398 -0.023262955
-0.006029793 0.11010452 0.017308207 -0.02525067 0.0128927985 0.07475506 -0.022552704 -0.013779431
0.029417118 0.56547683 0.014320778 0.23082626 -0.017940886 0.17613654 -0.3008403 0.02105068
0.023453387 0.08955988 0.097020805 -0.037358303 0.077025674 0.20113936 0.043719377 0.026357839
0.04654481 0.063597694 0.0003441603 -0.06450035 0.21353698 -0.03303489 0.040202573 -0.06600611
0.026818858 0.030730905 -0.0059509464 0.046971995 0.10319365 -0.20247415 -0.02257327 0.004140936
0.12921552 0.0055294516 -0.014037474 0.024323279 -0.075465284 0.1999673 0.21979901 -0.1753694
0.02190628 0.0071567222 0.26661178 0.16974859 -0.013753959 0.16042285 -0.2266365 0.04936972
0.1713109 0.09581368 0.005313048 0.1942974 -0.10759673 0.09579006 0.016455451 -0.030586384
0.10126055 0.15198408 -0.084497415 -0.003993498 0.052208398 0.0520534 0.067479104 0.070748165
-0.026979351 0.14859964 0.3533859 0.042179875 -0.018656278 -0.037955448 -0.1302805 -0.1690384
0.18804851 -0.07423042 -0.057512194 -0.012109485 0.28937027 -0.0053344877 -0.0014727984 0.01321325
-0.058848295 0.007359998 -0.1360286 -0.009397732 -0.0665085 -0.009026711 -0.0045499313 -0.04013885
0.0017421645 0.016284011 0.12205142 -0.053190887 0.1988541 -0.008607709 0.06894321 -0.04996854
0.07089798 -0.04395853 -0.05896841 -0.037551366 0.30036783 -0.011230426 0.00043334666 -0.07006478
0.00179375 -0.09369801 -0.5677151 0.037150048 -0.057643734 0.03732844 -0.028284457 0.088746525
-0.002306663 -0.011417872 0.10157201 -0.029105727 0.0704754 -0.030633334 0.0014677055 -0.12615654
0.07738097 0.16922887 -0.053672396 0.08971177 -0.19515589 0.03700701 -0.012065547 -0.02690038
-0.6083724 0.2517122 0.05184623 0.047719285 -0.014449717 0.14196096 0.21979381 0.042887714
-0.344907 0.011856165 0.1521037 0.046672728 0.21015863 0.049401194 -0.011171051 0.018088343
2.9085555e-05 -0.0041668275 -0.038304795 -0.065948345 0.089135185 -0.0051121586 0.071867645 -0.016883384
-0.0045543327 0.34455612 0.0023534624 -0.008406811 -0.08696922 0.19279502 0.09945779 -0.0027848503
-0.16334775 -0.089017265 -0.00594219 -0.04497036 0.0031568874 0.021849465 -0.09746506 0.18576297
0.0026718648 0.014725495 0.09554974 -0.1768762 -0.018010577 -0.28163397 0.14588898 0.084943585
0.3070266 -1.0204843 -0.054729536 0.1594759 -0.1442005 0.12981415 0.0016838391 -0.013600235
00000000: 3a0a 373e c9e5 8cbf 640f 38bc f7d7 c83c
00000010: b2de ca3d 6bce b93d bfdf 363d 9d2a 443d
00000020: 29a9 913d 7db1 edbb fc3a f63c e9c2 8fbc
00000030: ec51 6f3e f227 583d dd8e ee3d 819e 203e
00000040: 4733 8ebe a3d1 9b3d 65c6 0bbd 8cf1 b2bc
00000050: 4c4b c43e 772f d2bb 7114 723c a50a 9cbd
00000060: 24cc 88bd 9f41 a33c 380b 973d 4b12 583d
00000070: c786 e2bc 82a3 81bd 1032 e5bc 49a8 36bd
00000080: 0bf7 7e3c 5d96 20be a2bd f23d e0c1 cbbe
00000090: 96ba 303e fdcc 143b dedd 37bd 9649 f6bd
000000a0: 6efc 23bb dbba ed3d 7edc 4dbd 718c 31bd
000000b0: 6555 e43d e605 cc3c b87c 8fbe 5c02 623d
000000c0: 256c d0bb e321 efbd 323d 003e f952 853d
000000d0: 7571 86bd 728b 12bc 0108 993c 93de b7bb
000000e0: 5f45 263d f5cc 6bba db7d 45be e212 c7bc
000000f0: 95e3 cfbc 54da 503e db5c 46bd f491 bebc
00000100: 9295 c5bb 7b7e e13d f1c9 8d3c 7eda cebc
00000110: 513c 533c 2e19 993d 73c0 b8bc 1fc3 61bc
00000120: 2bfc f03c 17c3 103f b2a1 6a3c b85d 6c3e
00000130: c4f8 92bc 235d 343e bd07 9abe 7a72 ac3c
00000140: 5121 c03c 2c6b b73d d8b2 c63d 0505 19bd
00000150: a3bf 9d3d 7af7 4d3e 1713 333d 65ec d73c
00000160: c5a5 3e3d 823f 823d 6a70 b439 c218 84bd
00000170: 70a9 5a3e 984f 07bd 74ab 243d 362e 87bd
00000180: 39b3 db3c 61bf fb3c 2800 c3bb b565 403d
00000190: 3157 d33d 6255 4fbe 94eb b8bc b0b0 873b
000001a0: 1351 043e 6730 b53b 6ffd 65bc 9d41 c73c
000001b0: 8b8d 9abd 3ac4 4c3e fe12 613e 0994 33be
000001c0: cd74 b33c f082 ea3b 5781 883e 93d2 2d3e
000001d0: 4958 61bc e345 243e 6613 68be e737 4a3d
000001e0: 206c 2f3e f639 c43d 1419 ae3b e6f5 463e
000001f0: ad5b dcbd 942d c43d 95cd 863c 4c90 fabc
00000200: b161 cf3d b7a1 1b3e fb0c adbd e4db 82bb
00000210: 79d8 553d f235 553d 7c32 8a3d 6ae4 903d
00000220: cd03 ddbc 812a 183e ffee b43e cec4 2c3d
00000230: 0dd5 98bc 2c77 1bbd 4068 05be 6718 2dbe
00000240: ca8f 403e 1e06 98bd e891 6bbd dd66 46bc
00000250: 5728 943e edcc aebb ea0a c1ba 637c 583c
00000260: e90a 71bd 232c f13b 154b 0bbe f2f8 19bc
00000270: 9c35 88bd c5e4 13bc 9717 95bb a368 24bd
00000280: 5759 e43a 0c66 853c 18f6 f93d b0de 59bd
00000290: 69a0 4b3e 5907 0dbc 1932 8d3d d0ab 4cbd
000002a0: f632 913d dc0d 34bd dc88 71bd 76cf 19bd
000002b0: d0c9 993e d2ff 37bc ce32 e339 207e 8fbd
000002c0: 431c eb3a bee4 bfbd c755 11bf a62a 183d
000002d0: d61b 6cbd b5e5 183d ceb4 e7bc bdc0 b53d
000002e0: 622b 17bb 0712 3bbc fc04 d03d 226f eebc
000002f0: 6855 903d c2f2 fabc 0660 c03a 2e2f 01be
00000300: ea79 9e3d 554a 2d3e 96d7 5bbd ceba b73d
00000310: f2d6 47be aa94 173d 92ae 45bc 305e dcbc
00000320: 4bbe 1bbf 6ce0 803e b65c 543d 4c75 433d
00000330: 81be 6cbc 375e 113e a111 613e 07ab 2f3d
00000340: a697 b0be 5c40 423c 13c1 1b3e e72b 3f3d
00000350: d333 573e e858 4a3d c906 37bc 012e 943c
00000360: c1fc f337 e289 88bb 7de5 1cbd ed0f 87bd
00000370: 828c b63d e583 a7bb 582f 933d 064f 8abc
00000380: 833c 95bb a969 b03e 8c3c 1a3b b9bc 09bc
00000390: eb1c b2bd 0f6c 453e 87b0 cb3d 0982 36bb
000003a0: a244 27be af4e b6bd b4b6 c2bb d732 38bd
000003b0: c8e3 4e3b a6fd b23c c39b c7bd a638 3e3e
000003c0: 741a 2f3b 3443 713c 95af c33d 091f 35be
000003d0: eb8a 93bc 5432 90be ec63 153e e7f6 ad3d
000003e0: 9732 9d3e 3b9f 82bf 142c 60bd a64d 233e
000003f0: 4ca9 13be 00ee 043e 44b4 dc3a 85d3 5ebc

fc3.bias f4 [4]
0.08901565 0.22321291 0.057436958 0.29559833
00000000: d64d b63d ed91 643e 0443 6b3d aa58 973e
